checkpoint_game_100.pth (torch, 281408 bytes, 6 tensors)

linear1.weight f4 [256, 11]
00000000: 290c 54be 3aab 563e 644a ffbd 29b4 163e
00000010: 122b b33d ac64 173e 4472 45be 0960 28be
00000020: cfdb a0bd 9c19 16be 9d8f 87be c4f1 ca3e
00000030: 50c0 483e 711d 34be ba0d 07bd 514a 413d
00000040: 001f ee3d 6643 29be 3698 f2bc f4ee b9bd
00000050: fa01 373d f498 7abd 22f6 f0bd aeb5 5bbe
00000060: e6e6 ce3c 0eb5 94be ba70 763e ced8 39be
00000070: 011f 7f3e 419c c6be 904a 87be aa12 9bbe
00000080: bf76 663d d236 943e 1776 f03e 8269 cf3e
00000090: d334 ef3d dcc0 16be d896 13be 8d17 ba3d
000000a0: 9da1 093e 676e f43d 7fbe 46be 2b18 1dbe
000000b0: 3f7d a93e 5b8a 303d 2776 31be 24da 363e
000000c0: 8551 733e 275e 89be 790b a33e 7751 6d3e
000000d0: aeda 57be 251f 613e ddba 58be 6f16 273e
000000e0: d462 bb3e a723 78be 3526 76be 494b 8c3b
000000f0: 1c2e 30be 61b9 033d 26cc 093e b432 51be
00000100: 7617 2a3e 3460 c0be 74d8 de3e 539c 80be
00000110: e882 f0bd c70c a43d 7ab4 03be 3853 67be
00000120: 0410 dcbd 6501 73bc 3df8 1a3e d6cf a83d
00000130: 30e3 8d3e acf3 75be ca55 f8bb bdb7 6a3e
00000140: 6241 433d e115 973d bc74 4a3e b845 8d3e
00000150: ccd4 723d af3f adbd 2ee9 853e 7c97 dcbd
00000160: 54ec a13e fa77 d43d 74de 33be 4fe7 44ba
00000170: 6845 1a3e d9d1 90be ad4a 92bd a641 93be
00000180: 53f0 6fbe a390 e03d c796 f63c 4312 1ebe
00000190: a4cc f73e f7c2 f93e bde1 e03d 9dfe 49be
000001a0: c630 88be e58c 11be 98b8 3e3d ffa5 97bd
000001b0: 6b13 2abe f23b 633c 1b00 60be 7ad3 46be
000001c0: 217d 90be fc9a e73d 476b 923e 1460 e93d
000001d0: 5e56 49bd 2a9e 693e 185a 22be f779 7a3e
000001e0: 8930 31bb 858a 23be 3e22 f53e 0a68 c7bd
000001f0: e2f5 3d3c a69b c63c b8e0 573d 9da9 afbe
00000200: 6d29 303e e714 353e ee96 2dbe fd94 0dbe
00000210: 5d4a c5bd dd79 c83e 000b f83d d9a1 35bb
00000220: 18a3 bfbe 4740 e1bd cfc1 bbbd fd94 de3d
00000230: 061f 993d 2cbe 74be 1f74 dfbd 2634 213e
00000240: e5ba 763e f994 c5bb 3f32 55bd 0290 5b3e
00000250: 82e3 29be 8390 273e 306d 383e 1249 8f3c
00000260: 27ec 173e 3378 78be e251 7f3e 3b71 563e
00000270: 0519 82be fada d33d e07a fcbd 6459 b53e
00000280: 9732 e9bd 937d 593b ed65 9cbd 14d6 bbbe
00000290: 5cea d33d 2d59 c1be 9315 bdbd 8046 84bd
000002a0: 1658 26be b918 a43e c7c6 573e a125 393e
000002b0: 8b9a 3cbe 0cea 52be e9c7 36be 34fa 233e
000002c0: 7e8b a53d 2394 fb3d 34c3 7d3d d40d a63d
000002d0: 6122 643e 5b0d d8bc 01e7 9cbd d6e9 80be
000002e0: b5c1 95be d909 253e 5209 5bbe 7cd6 853d
000002f0: b032 a5be 5cca 63be ab4b bc3d cb8d 3c3e
00000300: 7244 c8bd 80fe b03d 0704 3e3e 53e0 21be
00000310: 2076 703e 8914 733e 08d6 b33e 007d 9b3d
00000320: 3543 f23e b3b1 123e 89b1 573e 907d c2be
00000330: 4fc6 d1bd d0fe 5f3e e3d8 383d 7b0c 72be
00000340: 7a73 dabc 3e8a 81be 2439 bfbe 4e5b f9bd
00000350: 2565 873d 2cb2 7b3d c739 3f3e c34f 24bd
00000360: 661f d83d 26f7 e4bc f89e 823e 5758 473e
00000370: a77c 04be 290e 893e 2c81 66bc f507 513c
00000380: 411a 5bbe 8edb b4bd 461a dcbd 6b46 a5be
00000390: 4cad 25be d8ae 3bbd a7bb fa3d f6f8 c1bd
000003a0: 4a6e f03e 6669 38be 0d86 513e 2983 91be
000003b0: 290a 12be a9bb 633e 7587 1bbd fa82 a13d
000003c0: 7251 6dbd 2dd9 913d de8e e73e 5753 28be
000003d0: 2bd5 923e 6567 50be e689 59be 256a 2bbe
000003e0: 38ef 1d3e 165f 553e 22ad e0bc 1f27 e93c
000003f0: a6a4 94be 4812 ec3e a181 da3e f66b fa3e
-0.20707764 0.20963755 -0.12465361 0.14717163 0.087484494 0.14784497 -0.1928187 -0.16442885
-0.07854425 -0.14658207 -0.26476756 0.39637578 0.19604611 -0.17589356 -0.032972075 0.047190014
0.116270065 -0.16529617 -0.029613595 -0.0907878 0.04467962 -0.061181024 -0.11765696 -0.21456024
0.025256585 -0.29044384 0.2406644 -0.1814911 0.24914171 -0.38791087 -0.26424074 -0.30287677
0.05626559 0.28948075 0.46965095 0.40510184 0.11679997 -0.14722008 -0.14413011 0.09086523
0.13440557 0.1193512 -0.19408606 -0.1534125 0.33103368 0.043100696 -0.17330228 0.17856652
0.23761566 -0.26829645 0.3184469 0.23175608 -0.21079513 0.21984537 -0.21165033 0.16317151
0.36598837 -0.2423235 -0.24038012 0.0042814356 -0.1720509 0.032159213 0.13456783 -0.20429498
0.16610512 -0.37573397 0.43524516 -0.25119266 -0.117437184 0.080102496 -0.12861815 -0.22590339
-0.10745242 -0.014831875 0.15133758 0.082427666 0.27712393 -0.24018735 -0.007578586 0.22921653
0.047669776 0.0737722 0.19771093 0.27592254 0.05928497 -0.08459412 0.26154464 -0.10771081
0.31625617 0.10374446 -0.17565328 -0.00075112743 0.15065539 -0.282851 -0.071431495 -0.28761023
-0.2343152 0.10965087 0.030101193 -0.15436654 0.48398316 0.4878156 0.10980556 -0.19726034
-0.2659971 -0.14213903 0.04656276 -0.07404708 -0.1660897 0.013869273 -0.2187504 -0.1941661
-0.28220466 0.11308858 0.2859747 0.113952786 -0.04915463 0.22814241 -0.1585468 0.24460588
-0.0027036986 -0.1597081 0.47877687 -0.09736641 0.011594268 0.02424414 0.052704543 -0.34309092
0.17203303 0.17683755 -0.16952106 -0.13826366 -0.09633324 0.39155474 0.12111473 -0.0027714877
-0.37429118 -0.10998588 -0.091678254 0.10868261 0.074766204 -0.2390067 -0.1091082 0.1574255
0.24094732 -0.006029722 -0.05204987 0.21441653 -0.16590694 0.1636372 0.18010402 0.017490897
0.14836179 -0.24264602 0.2493358 0.20941631 -0.25409713 0.10344501 -0.12328124 0.35419762
-0.11386602 0.003318642 -0.07636628 -0.36686766 0.10347435 -0.37763348 -0.092326306 -0.06458759
-0.1624454 0.32050112 0.21071921 0.1808076 -0.18418328 -0.20597094 -0.17849697 0.16013414
0.08083247 0.12284114 0.06195374 0.08108106 0.2227874 -0.026373556 -0.07661248 -0.25178403
-0.2924935 0.16117038 -0.21390274 0.0653505 -0.32265234 -0.22245163 0.0919412 0.18413465
-0.0977868 0.08642292 0.18556224 -0.15808229 0.23482561 0.23738302 0.3512423 0.07592201
0.473169 0.143256 0.21063818 -0.37986422 -0.102429025 0.21874547 0.045128714 -0.23637573
-0.026666392 -0.25300783 -0.37348282 -0.12175618 0.06611089 0.061449215 0.18674384 -0.04011513
0.10552864 -0.02794988 0.2551191 0.19467293 -0.12938176 0.26768616 -0.014068883 0.012758245
-0.21396734 -0.08830939 -0.10747199 -0.32280287 -0.16179389 -0.04582104 0.12242823 -0.09471314
0.46959144 -0.18008956 0.20461293 -0.2842038 -0.14261688 0.22239555 -0.03797098 0.0788631
-0.057939 0.07121501 0.45226187 -0.16438042 0.2867826 -0.20351942 -0.2124401 -0.1673971
0.15423286 0.20837054 -0.027426306 0.028461037 -0.29031867 0.46107697 0.42677024 0.48910493

linear1.bias f4 [256]
00000000: b989 8dbe 87db fabd de6b d5bd 19c0 e23c
00000010: bdc5 96be dfea ce3d f93e 90bd f10d 87be
00000020: 2d8a 30be 075b 2d3e c316 36be bd8c 3c3c
00000030: 7cb4 c83d bede acbe 0c38 913d ed29 3c3d
00000040: 004d 7cbc 2122 0c3d 3a8c 7ebe 9862 743c
00000050: 0c04 ca3d 2aab 82bd 65ca 153d 7212 bb3d
00000060: 7da8 883d 1f7d 3a3e 04b6 053e 8bcc a1bd
00000070: b2ab 12be a2ba d63d c522 42bc 40cd 343e
00000080: 7e02 073c 8c07 773e e60f 4fbe afd2 25bd
00000090: 71a5 003d 69e6 3d3e d4b2 9dbe 7f66 dcbd
000000a0: c79c 9ebd 734b d73c 24f9 473e 3e28 10be
000000b0: d18b 32be 82a3 9fbc 9c6c 4dbd 1dbe 96bd
000000c0: 7e39 823d d045 2438 0677 7e3d e2ae 12be
000000d0: 95a0 9d3a fdcc 413e 9cb1 4f3e d0f0 873e
000000e0: 4518 b1bd 98ec 093d 8efd 8a3e 8c3b 383d
000000f0: 18e5 d7bc cdd8 813d 7112 36be af08 f1bc
00000100: 5690 4bbe 32c3 56be 5b94 94be 5af0 de3d
00000110: 127c 73bd 2c87 2cbe bec5 e93d 0994 0d3e
00000120: 44d4 623e d8ac 4fbe 644c d2bb 1d91 003e
00000130: b9e3 5fbe 06a0 6d3d 52be febd 9513 bdbd
00000140: f64d 533e 0b39 023e fcdc 4f3a a0a1 d83d
00000150: 2485 4a3e fc2f 1bbe 21f0 2a3e 7951 39be
00000160: f3c0 713e c5fc 49be 101d f63d bee8 633d
00000170: 3ff5 853e 5637 6f3c 5242 95bc 39e0 82be
00000180: fde5 cbbd da01 0fbe e885 e6bd 8381 4bbe
00000190: c92d 20be ed1c f0bb 2cda 573e b6a5 a6be
000001a0: b366 d23d 9ff2 193e ca18 c43c 3763 5cbe
000001b0: b22c 903d 0a41 2ebe f5c1 b1bd c5b5 c2bd
000001c0: a11c 0a3d c643 01bc 2a40 63bd 7fa0 053e
000001d0: 2388 88bd 1c67 a73e 248b c43d 539e 51bd
000001e0: ca86 1f3e 0c22 2f3d 1a2b c0bd 528f 1cbe
000001f0: 3804 0abd 878c 85be 9679 2abe 6bd6 01be
00000200: 736f 763e 3e6e d9bd 11a0 c1bc ef8a 8abd
00000210: 65fa e3bd 3d03 2b3e dd05 a3be dedb ac3d
00000220: 0f8f afbd 9eab 9b3d db82 233e a4b0 a43e
00000230: ab28 e43d 9dea 603e 0de2 5c3e 17d0 6dbe
00000240: cf03 3e3d 5932 733d 5997 d03e 10b5 74bd
00000250: e692 ee3c 659d 303e 37b1 37bd 1850 413e
00000260: c911 9a3d ff0f e9bd 780c dd3d 5439 79bd
00000270: 40d1 37be 39e8 f7bd ff6d 893d 729c 493e
00000280: 1e92 cf3d d0d0 883e dcf6 32be b46d 9cbe
00000290: bd03 043e afc5 9a3e 94a5 9ebe 6a92 ba3c
000002a0: 08ef 32be e7fc 783d e9c9 4cbd 2161 4f3e
000002b0: 508f 393e bb75 c03d 96b1 06bc d26e 7e3e
000002c0: 11f9 d0bc 3fd7 11be b2a2 15be 31f3 79be
000002d0: db06 2f3e 5fe3 bd3e 3f86 343e 1f36 88bd
000002e0: ea5a 36be 7c06 c13d b365 04bd e0cd e53d
000002f0: f40e 3d3e 9c45 f9bd 3f47 e0bc bb0c 983d
00000300: 874a 6fbd bea9 b7bb d9eb d63d 1622 103e
00000310: a04f 87be aad2 b5be 8048 843e 1863 4d3d
00000320: e0fa 6fbe 3d09 1fbe fe04 9dbe 8549 2cbd
00000330: 45ba 7cbc 55c8 9abe e7f8 143d aabe 48bd
00000340: e9b4 22be 3fd2 7a3e e388 cf3e eefc 213e
00000350: 7638 90be b095 3f3e c656 ee3b cdc8 98be
00000360: a020 7cbc 108b 34be 9823 babe 5fa1 dfbc
00000370: 5c2f a53d b74c 3f3e aeb0 8ebe 0bfc 2f3e
00000380: 05e1 48bc ea29 ad3e f3df 41be 5b27 0dbd
00000390: c9ec c63d 9241 f1bd 2bb4 4c3d 91eb 80be
000003a0: f5c7 4b3e 8227 4bbe 96d4 1bbd 360a eabd
000003b0: ed5e 75bd 80a4 3c3d 35dd 8b3e 3942 253e
000003c0: 5960 333d 01a6 c1bd 64d3 053e 1d10 80be
000003d0: a2e9 edbd 5bd7 373e fde2 05bd 6434 96be
000003e0: f4de 7d3d 9e90 143e db88 ac3e 3262 503e
000003f0: 6930 58be d1f9 4bbe 1a05 95bd a605 49be
-0.27644137 -0.12248903 -0.10420965 0.02767949 -0.29447737 0.10103392 -0.07043261 -0.26377824
-0.1724021 0.16929255 -0.1778212 0.011508164 0.0980005 -0.3376369 0.07090768 0.04593842
-0.015399218 0.034212235 -0.2485818 0.014916085 0.09864053 -0.06380303 0.03656997 0.091343775
0.066727616 0.18211792 0.13057715 -0.079003416 -0.14323309 0.10484816 -0.01184911 0.17656422
0.00824034 0.24123973 -0.20220909 -0.040484127 0.031407777 0.18544926 -0.30800498 -0.10761737
-0.07744747 0.026281094 0.19528633 -0.14077851 -0.17436148 -0.019487146 -0.050152406 -0.0736048
0.06358622 3.9165665e-05 0.06212523 -0.14324525 0.0012026007 0.18925853 0.20282596 0.26550913
-0.08647207 0.0336729 0.27146572 0.044978663 -0.026354358 0.063401796 -0.17780472 -0.029423086
-0.19879279 -0.20972899 -0.29019436 0.10885687 -0.059444495 -0.16848439 0.114146695 0.13826002
0.22151285 -0.20280778 -0.006417798 0.12555356 -0.21864213 0.05801394 -0.124386445 -0.092322506
0.20635208 0.12717073 0.00079293526 0.105777025 0.19777352 -0.15155023 0.16693164 -0.18097486
0.2360876 -0.1972533 0.12017262 0.055641882 0.2616367 0.014600595 -0.0182201 -0.25561693
-0.09955976 -0.1396555 -0.11256009 -0.19873624 -0.15642466 -0.007327667 0.2107932 -0.32548302
0.102734946 0.15033959 0.023937602 -0.21522222 0.07039775 -0.17016998 -0.086795725 -0.09507326
0.03371871 -0.007889694 -0.055481113 0.13049506 -0.06666591 0.32695854 0.095968515 -0.05117638
0.15578762 0.04275708 -0.09383221 -0.15289047 -0.03369543 -0.26083776 -0.16647944 -0.1267945
0.24065952 -0.1061673 -0.023635896 -0.06764781 -0.11131743 0.16700454 -0.3184041 0.08440374
-0.08572208 0.07601093 0.15967886 0.32166016 0.11140569 0.21964498 0.21570607 -0.23223911
0.04639035 0.059374187 0.4074047 -0.059742987 0.029122781 0.17247541 -0.04484674 0.1887821
0.075229235 -0.11380004 0.10793394 -0.060845688 -0.17950916 -0.1210484 0.06710433 0.19688585
0.101352915 0.2672181 -0.17476982 -0.30552447 0.12892051 0.30228946 -0.309857 0.022774894
-0.17473996 0.06078806 -0.049997244 0.20251895 0.18121076 0.09397455 -0.008221051 0.24846962
-0.02550939 -0.14242266 -0.14612845 -0.24409176 0.17092459 0.37087533 0.17629336 -0.06650948
-0.17808118 0.09425065 -0.03232355 0.11220908 0.18462735 -0.1217148 -0.027377723 0.07424303
-0.058420684 -0.0056049516 0.10494203 0.14075503 -0.26427937 -0.35512286 0.25836563 0.05014333
-0.23435545 -0.15530868 -0.3066787 -0.0420623 -0.0154252695 -0.30230966 0.036370184 -0.049009956
-0.15889324 0.24494265 0.40534124 0.15819141 -0.28168076 0.18709445 0.007273528 -0.298407
-0.015388638 -0.17631173 -0.3635528 -0.027298627 0.08065674 0.18681608 -0.2786917 0.1718599
-0.01226068 0.3382104 -0.18933086 -0.03446136 0.09713132 -0.11780085 0.04997651 -0.25179723
0.19900496 -0.1983929 -0.038044535 -0.11427729 -0.05990498 0.046055317 0.27317205 0.16138543
0.043793056 -0.09455491 0.1306892 -0.25012293 -0.116168275 0.17953245 -0.032687176 -0.29336846
0.061980203 0.14508292 0.33698162 0.20349959 -0.21112217 -0.19919516 -0.07276364 -0.19631061

linear2.weight f4 [256, 256]
00000000: 001a c039 40e7 79bb 70e2 793d 4752 0a3d
00000010: 4d78 993a f32b 92bc 7037 f33c 3d9d 013d
00000020: 8655 edbb c892 f23c f1b5 edbc bed0 2a3d
00000030: d7ce a93c 562e 1fbc 30b7 b0bc 5121 84bb
00000040: 11cf fdbc 72fa 8f3c 7353 b33c e422 8f3c
00000050: 7441 24bd 5e8b f5bc ac8a 293d 657e 59bc
00000060: 182f 08bd 87c7 c9bc 0430 94bc d29e 363d
00000070: 40e0 5bbc fae2 80bd c745 de3c efb8 713a
00000080: 41c6 1abd 87af 83bd cb3c 1bbc 93bd 89bd
00000090: 1e44 3dbd 7f58 4dba e899 5f3d 8c54 ac3b
000000a0: 6b9d da3c 494b 4abc 806c 8e3c 3009 f03b
000000b0: d1de 52bc 22f4 12bd 8bf6 a9bc e22a 763d
000000c0: 640e 8abd e030 31bc 9216 41bd 7de7 873c
000000d0: c2c1 4cbd abd0 f83c 8115 96bc f86a 9dbc
000000e0: 3a6f 4bbd da8b c2bc 72ac 7fbd ced1 933b
000000f0: 6458 f63c 425a 30bc 9088 3bbc 4b79 ffbc
00000100: b66b 17bd fcfb 383d a0e2 873c ea65 083d
00000110: fb9a 11bd 3a5c 913c 2c1c 1f3c ef5d d3bc
00000120: c346 edbc 00f4 a93b fcca 23bd 7dec 22bd
00000130: 4c7e 6f3c 6bb7 563d d046 523d f4bf 863c
00000140: 2ab8 8fbd d8a6 663c a9b1 d43b 0688 35bd
00000150: 8266 5b3b c5e3 dcbc fa56 eabc 1380 75bd
00000160: 7c63 8f3c c9c4 193d 391a 7b3c 1a96 613c
00000170: 0ff7 0a3b ee22 08bc 0632 e13c 79f2 1fbd
00000180: 87a3 f73c 0101 cb3b f184 59bb 338e 68bd
00000190: b7bf 1d3d fb40 6cbd 5037 76bd 0075 efb9
000001a0: 8ea4 04bd 536d c0bc cb50 f33c 20d2 eebb
000001b0: 8c90 25bd 01bf 66bd 52b2 8abc 04d8 0fbd
000001c0: 879f 27bb 5d6b 683c b5ce 92bd 4e03 ca3c
000001d0: 82b7 3f3d 1460 acbd 9044 283d 37e4 e3bc
000001e0: 5981 17bd 52d6 9d3c 543c edbc edc7 083c
000001f0: 7b59 c03b 8473 12bd 3965 3cbc 84ac 25bd
00000200: 1247 7cbd c1f6 57bd c085 f1ba 9e87 78bd
00000210: 1fd8 213d da33 163d a88c f8bc 33c3 47b8
00000220: 9415 c33c e792 4b3d 1255 c63c c9fe a73c
00000230: 218e 14bd 8201 6cbc 10cc bd3c c06e 3fbc
00000240: 710b 0e3c 9725 74bd 05fc ed3c e9f4 7fbd
00000250: bf63 4dbd 881c 073b c0e6 d13c 3804 103d
00000260: bc97 373d 4e8b 143d 7eb7 cabc c1b1 00bd
00000270: 3e85 1dbd 8019 26bc c3d7 9f3c 4496 18bd
00000280: 328b 74bd 6920 c8bb c258 a0bc 1c2c 80bc
00000290: b669 133d 3277 62bc 603f 84bc 5f84 2ebc
000002a0: d16a 3fbc ddaa 22bd f2ed ceba 0615 a5bc
000002b0: 093b a73b ee49 413d eaf5 2f3d 74c3 513d
000002c0: 27f3 1a3d 8536 1f3b 7357 8a3c d0b0 a43b
000002d0: c240 debb 8f7e 673c 46a3 51bd 7746 283d
000002e0: 2b22 36bc 40f7 3d3c 3ef9 5e3d ebd7 5ebc
000002f0: 584a 99bb c00a eb3a 9434 c6bc 2692 72bd
00000300: 6edb 19bd c86c 53bd bd44 bdbc 7491 053d
00000310: 76ce 4ebd 2a9e 533d 8bcb 89bd c955 d73c
00000320: d0e1 243d fb3a acbd 229c 2f3d ca24 703d
00000330: 6d1e f23a 5296 17bd 63f9 b33c ac5a 3fbd
00000340: 22f7 23bd 5bea 583c 832f 57bd b73e 053c
00000350: e27c 2abd dfe5 96bc fa51 39bd e088 1f3c
00000360: e0ac 053d 04e9 dc3c 9579 cdbc f5d6 9bbc
00000370: 6f61 1dbd bd59 093c 6804 093d 1f8b 4dbd
00000380: b1f7 9fbc 08ea 153c f649 39bd 4b26 80bd
00000390: 7642 4cbd 5812 b83c b921 08bd 6ef1 19bd
000003a0: dd05 c6ba bd71 363c 6861 74bc 8c2a cbbc
000003b0: 83d5 553d 00fc 75b9 fba3 24bb ece4 213c
000003c0: cc9f ecb9 6fc8 e0bc 1fba b7bb 689b 37bd
000003d0: 00f3 b63a e22f 3e3d 7ece 3cbc c5d6 353d
000003e0: 7cfb 0c3b 60b2 7cbd ffd2 efbc 8702 f53c
000003f0: d0ac f4bc 9e30 4ebd 46cd 193d 9804 32bc
0.00036640465 -0.003813222 0.061006963 0.033769872 0.0011708826 -0.017843222 0.02968952 0.031644095
-0.007242861 0.029611006 -0.02901742 0.04170298 0.020728512 -0.009715637 -0.021571726 -0.004032292
-0.030982526 0.017575476 0.021890378 0.017472692 -0.040101483 -0.029973682 0.041392013 -0.013274764
-0.033248037 -0.024631275 -0.018089302 0.044585057 -0.013420165 -0.06293292 0.027132882 0.00092209777
-0.037786726 -0.064299636 -0.009474943 -0.067256115 -0.04620754 -0.00078333163 0.054590136 0.005259102
0.02668639 -0.012347051 0.017385721 0.007325314 -0.012870506 -0.035877354 -0.020747444 0.06009949
-0.06741026 -0.010814875 -0.047140665 0.016589874 -0.04998947 0.030372938 -0.0183208 -0.019216046
-0.04966662 -0.023748327 -0.062420316 0.0045110947 0.030071445 -0.010763707 -0.011446133 -0.031185767
-0.036967956 0.045162186 0.016587555 0.033300318 -0.03554819 0.017744172 0.009711307 -0.025801627
-0.028964406 0.005186558 -0.039988503 -0.039776314 0.014617514 0.052421015 0.051337063 0.016448952
-0.070175484 0.014077865 0.0064909053 -0.044319175 0.0033477847 -0.026964078 -0.028605927 -0.059936594
0.017503493 0.037541185 0.015326076 0.013768697 0.0021204387 -0.008309109 0.027489673 -0.0390496
0.030229343 0.006195188 -0.0033190812 -0.056776237 0.03851291 -0.057679158 -0.060111344 -0.00045672804
-0.032383494 -0.02348963 0.029701611 -0.0072882324 -0.040421054 -0.0563345 -0.016930733 -0.035118118
-0.0025577263 0.014185754 -0.071683325 0.024659779 0.046805866 -0.08416763 0.04108101 -0.027818782
-0.03698859 0.019267235 -0.02895943 0.008348447 0.005870042 -0.035754696 -0.011498743 -0.040447727
-0.061591215 -0.052725557 -0.0018426701 -0.06067621 0.03951275 0.036670543 -0.030340508 -4.762709e-05
0.023814 0.049700644 0.024210487 0.020507233 -0.036268357 -0.014404656 0.023168594 -0.01168412
0.00866972 -0.05960616 0.029050836 -0.062489424 -0.050143953 0.0020616371 0.025622725 0.035160273
0.04482244 0.036265664 -0.024745699 -0.03141952 -0.038457148 -0.010137916 0.019512063 -0.03725268
-0.05970306 -0.006107379 -0.019573573 -0.015646033 0.035989486 -0.013822364 -0.0161435 -0.010651677
-0.011683182 -0.03971373 -0.0015787466 -0.020151626 0.005103473 0.047189645 0.04295913 0.05121179
0.037829544 0.002429397 0.016887402 0.0050259605 -0.006782622 0.014129295 -0.0511811 0.041082826
-0.011116545 0.0115945935 0.054436915 -0.013601284 -0.004678052 0.0017932281 -0.024194993 -0.05922141
-0.03756278 -0.051617414 -0.023104066 0.032609418 -0.050489865 0.05166451 -0.06728276 0.026286023
0.040254414 -0.08409687 0.04287351 0.058628835 0.0018472202 -0.03700859 0.021969503 -0.04671733
-0.040030606 0.013239468 -0.052535545 0.008132628 -0.041623004 -0.018420158 -0.045244195 0.009737223
0.03263557 0.02696658 -0.025082389 -0.019023398 -0.038422998 0.008383212 0.033451468 -0.050181504
-0.019527288 0.009150036 -0.04523655 -0.06257304 -0.04986807 0.022469684 -0.033235285 -0.03758376
-0.0015107949 0.011135516 -0.014915802 -0.024800561 0.052205574 -0.00023458898 -0.0025122154 0.009881239
-0.00045132486 -0.027439324 -0.005606904 -0.04482594 0.0013957918 0.046432383 -0.011523841 0.044394273
0.00215122 -0.06169355 -0.029275415 0.029908432 -0.02986756 -0.050339334 0.03754928 -0.010865353

linear2.bias f4 [256]
00000000: 75ec 313d f207 03bc b73a 0bbd 562f 7bbd
00000010: 71ec 0bbd d466 d33b 45b3 b63c 0c57 93bc
00000020: 6dce 05bd 408f 14bd bae2 1b3d 881a 8abc
00000030: dbaa 673c 4be1 3739 ed5d 00bd 5554 acbb
00000040: 0584 d8bd 00ad 2fbd 80af 1d3b fbed 073d
00000050: 220c 22bd c5d5 72bd 48e7 0e3d 92b1 d8bd
00000060: 896c c039 1018 02bd 8876 083d 1e3e 0bbd
00000070: aadd d2bc 701a cabd 25be cbbd 540d 983d
00000080: 75a8 47bd 9f58 a4bd 5f7e 28bc b55f bcbb
00000090: f463 74bd 056f 073d 15a4 183d 6ba4 973d
000000a0: 6926 94bd fb4b 64ba 9c79 b2bd 1ae9 36bd
000000b0: 3816 213c d8c5 d53c bd1d 9cbc d40a 38bb
000000c0: 5531 dabc 0da5 96bd 60fe ff3c f3f5 78bd
000000d0: 6004 23bc cef4 9dbd 12b8 c1bd 3df0 4abc
000000e0: 1c29 e1bc b5b0 8abc b419 33bd 8663 1cbd
000000f0: e95e 853e 38ae 933d dae5 0cbd 4dda 0e3d
00000100: 3ae4 c1bd d0ba 583d cd92 8f3c d8d3 af3c
00000110: 1c5f 0bbd fd0d 21bc 27e4 06bd 4102 4ebd
00000120: 1f39 d7bd 312a a23c f457 a6bc eedf 78bd
00000130: b7ae 64bc 6fdf 84bc b7bf 8ebc 7e16 95bd
00000140: 1c6f 933e 13e0 5f3d 78cd 9c3c 6a1c 873b
00000150: 4323 81bd 60d4 0dbd 9d7c e1bc 0a6a 44bc
00000160: 7466 2bbd ba30 e53c 272a 42bd 67de 8f3d
00000170: e328 75bd 75cf b2ba 9d2c 63bd 8a7d 36bd
00000180: 8943 a5bb 9050 c03c dfd1 933d be1c 91bb
00000190: 8c9f 1dbd a01a fdbb 0388 0ebd 0cf3 0fbd
000001a0: 94a6 1e3e 7324 3a3b 9603 a6bc c703 89bd
000001b0: 9653 313d 95d3 c6bd 057c c5bc 260d fabc
000001c0: d0b1 0c3c 3753 193c 5600 8abd b853 6ebd
000001d0: 6e50 babb 772d 9fbd 51d8 4d3d 0f6a f5bb
000001e0: bc09 22bd 2fed 14bc 86b9 b5bd 78f7 05bd
000001f0: 0df7 d03c e41c 84bd ffda b23d ce65 263c
00000200: 028d 7bbd fd92 1e3c 745d 47bd 30c6 5cbd
00000210: 4571 81bd 107d 27bd 794f 513d 7a05 883e
00000220: 4e51 77bd ff6f 993c 0c2f 94bb 09b4 863d
00000230: 3840 a5bd 614f 78bd 6f79 52bd 65ca e2bc
00000240: 1bcf b7bd 30c1 223d ecf5 a3bd 7ae9 9a3c
00000250: c10f b2bb c26d 70bd 1f5f 213c 1b22 5ebc
00000260: 1740 8dbd 5a65 9fbd d713 ae3c 7dc8 18bd
00000270: 43ca 2ebd 7bae 49bd 6afd d23d 3cff bd3b
00000280: 322a 4fbd 9c83 4dbd c529 e6bc 200e 58bd
00000290: 068c be3d faf3 d23c 4cc7 5cbd 03af 283d
000002a0: d399 fdbc c270 873c 76ef 143c 191e ed3d
000002b0: 94df 533e 8517 35bd 7fa7 09bd be3e 2e3d
000002c0: a50e 5cbd 6dbc c03d 0d5b 9bbd 538f 9cbd
000002d0: cd70 46bd 63b0 84bc 8db5 4abd 4cbe d8bc
000002e0: 88aa 94bd 96eb 50bd b16f 733e d910 72bd
000002f0: 5450 b0bd fd83 5e3c f18e 063e d3a7 643c
00000300: 997c bebc 0338 093d 606c 02bd 8fb2 e73b
00000310: 1d98 4dbd 80d6 50bd f778 89bd 2820 7bbd
00000320: a4fe dbbb a5ca acbc e15d a9ba 1bc0 75bb
00000330: 8428 be3c fa48 a5bd 207b a33b b7a7 84bc
00000340: c26a 2cbd 5022 32bd 185f 6fbd 5136 833e
00000350: ad83 7c3d e3e4 183d 2ea5 af3c 6cf1 91bd
00000360: 82f2 293e 0c9e 47bd 96cb 21bd b3b3 cbbc
00000370: 2726 663b 1af1 2b3c ea3a 4d3e 5092 44bd
00000380: fb8a ca3c 576f 0f3d 726e 84bd 6d8e 203d
00000390: a458 fbbc 3a06 0c3d 91a9 4bbd f529 7cbc
000003a0: 7276 53bd 617e 073d 5629 bb3b f712 02bd
000003b0: 39d5 25bd 7a22 15bc 2821 913c 29eb d13d
000003c0: 1d63 4fbc 5e69 38bd 6b26 023d 65ba 22bd
000003d0: f754 a8bd 2df4 b13c 45bb e73c fbcc 58bd
000003e0: 07d3 6dbc c762 8dbd 665f 203d 2b77 d3bd
000003f0: c46b f8bc 20ff 65bd f276 2ebd 8f07 6fbd
0.043438394 -0.0079975 -0.03399154 -0.06132444 -0.034161035 0.006451467 0.02230228 -0.017985843
-0.032667566 -0.036269426 0.03805802 -0.016858354 0.014139856 0.00017536168 -0.031339575 -0.0052590766
-0.10572056 -0.042889595 0.0024060905 0.03318594 -0.039562352 -0.059285898 0.034888536 -0.10580744
0.0003670196 -0.03176123 0.033316165 -0.033994786 -0.025740463 -0.09868324 -0.099483766 0.07424417
-0.048744638 -0.08024716 -0.0102840355 -0.005748714 -0.059665635 0.03306486 0.037265856 0.07404407
-0.07233889 -0.0008708832 -0.087146014 -0.044655897 0.0098319575 0.026095316 -0.019057149 -0.0028082626
-0.026634851 -0.073557 0.031249225 -0.06078143 -0.009949774 -0.077127084 -0.09458937 -0.012386379
-0.027485423 -0.016929964 -0.043725684 -0.03818085 0.26048973 0.07210964 -0.03439889 0.034876157
-0.09467359 0.052912533 0.017526055 0.02146332 -0.03402625 -0.009829995 -0.032932427 -0.05029512
-0.10508942 0.019795509 -0.020305611 -0.06076043 -0.013957671 -0.016219823 -0.017425401 -0.07279681
0.28795707 0.054657053 0.019140944 0.0041232603 -0.06305554 -0.034626365 -0.02752524 -0.011988172
-0.041845754 0.027977336 -0.04740348 0.07024842 -0.059853446 -0.0013642149 -0.05546247 -0.044553317
-0.005043451 0.023475915 0.07217764 -0.004428475 -0.038482234 -0.007724121 -0.03479768 -0.035143897
0.15493232 0.0028403073 -0.020265382 -0.066901736 0.043292604 -0.09708325 -0.024106989 -0.030523848
0.008587316 0.009358219 -0.06738345 -0.05818531 -0.0056858575 -0.077723436 0.050255124 -0.00748945
-0.039560065 -0.009089752 -0.088732764 -0.032706708 0.025508428 -0.06450823 0.087331764 0.010156108
-0.061413772 0.009678599 -0.04867311 -0.053899944 -0.063204326 -0.040890753 0.05110118 0.26566678
-0.060380273 0.018730162 -0.00452221 0.06577308 -0.080688894 -0.060622577 -0.05138534 -0.0276844
-0.08975049 0.03973502 -0.0800589 0.018910158 -0.005434007 -0.058698423 0.009849339 -0.013557936
-0.0689699 -0.07783003 0.021249695 -0.037300576 -0.04267336 -0.049238663 0.10302241 0.0057982486
-0.05057735 -0.05017434 -0.02809609 -0.052747846 0.09304051 0.025751103 -0.053901 0.04118253
-0.030957138 0.01653326 0.009090295 0.11578006 0.20690757 -0.044211883 -0.033607002 0.042540304
-0.053724904 0.09410939 -0.07585726 -0.076445244 -0.04844742 -0.016197389 -0.049489547 -0.026457928
-0.07259089 -0.051005922 0.23773076 -0.0590981 -0.086090714 0.013581273 0.13140465 0.013956028
-0.023252772 0.033500683 -0.031841636 0.0070708464 -0.050193895 -0.050985813 -0.06712525 -0.061309963
-0.006713705 -0.021092722 -0.0012921655 -0.0037498537 0.023212679 -0.0807056 0.004989043 -0.016193254
-0.042094 -0.043489754 -0.058440298 0.25627378 0.061649013 0.03732766 0.021441069 -0.07126126
0.16596416 -0.04873471 -0.039500795 -0.02486596 0.0035117955 0.010494495 0.20042005 -0.047991097
0.024724474 0.03501829 -0.06466378 0.039198328 -0.030681916 0.034185626 -0.049722258 -0.015390863
-0.05162663 0.03307951 0.0057117147 -0.031756368 -0.040486548 -0.009102458 0.017716005 0.10249931
-0.012657908 -0.04502236 0.03177492 -0.03972854 -0.08219331 0.021722877 0.02828754 -0.05292986
-0.014515645 -0.06903606 0.03915348 -0.10325464 -0.030324824 -0.05615151 -0.042593904 -0.058356818

linear3.weight f4 [3, 256]
00000000: 7054 9b3c 198a 943c 2696 7b3c 56e0 6a3d
00000010: 7354 08bb ab75 40be 71c7 383d d17d 04bd
00000020: cc16 19be 2345 b23c 3ed0 7dbe 13be d63c
00000030: a497 31bd d60b 9cbc 38a6 613c e284 49be
00000040: 6970 0c3d d834 8c3c 7591 21bd 5238 583d
00000050: b3dc 94bc 7224 253d 3cc9 973d 18ad 8abd
00000060: e408 d53d d010 8bbb 3a3e 353d e871 7bbc
00000070: fc11 953c 7aff ac3c bb91 c23c adb3 d93d
00000080: be79 51bc f1ec 30be 1ceb a2bd 50eb 103d
00000090: b656 6fbd dcdc a63d af3b 1fbd 2cb4 5cbe
000000a0: 60be 4a3b 0d56 d43c 0ece 4bbd 18f6 803c
000000b0: 2feb a4bd 6742 24bd f1e0 dd3b 607e f33d
000000c0: ad52 853d c5e4 84bc 3ed5 4f3d 3604 563c
000000d0: 74bb 583b b4b4 7c3d 5f68 f3bc 39eb b13c
000000e0: 9415 d9bc d2ad d1b9 2291 c63c 8010 56be
000000f0: b194 1c3e 33bf 59be 70d8 31bc 0d26 d2bd
00000100: dec4 d53c 8011 453d fa11 a43c c1a6 cd3c
00000110: 856a 9039 83b6 bcbd f3df 633d 0f00 373d
00000120: c18b 43b9 164e e6bb 7cfa 44bd b7b6 5fbe
00000130: 20b7 44be b03b 363a 1fb7 c439 2264 003d
00000140: f08d 173e b094 343d 8173 77bc 8223 2abe
00000150: 560b b63c 3733 783c 9ce5 c7bc 48e8 363c
00000160: a29b 413d ffda b63b f60c ed3a 0ae3 0c3d
00000170: 80e6 cfbd 8783 e7bd 2994 dfbb 4dfc 5b3c
00000180: a262 033d 3bfb 8dbc 4929 62bd 9db1 16bb
00000190: 2250 87bc 1ef9 ad3c c2c0 0f3c 7f9e 8bbb
000001a0: 680e e83d fbd7 423d ef70 773c a84f 26bd
000001b0: 7660 77bd 25b2 213c ca08 623d f740 a5bc
000001c0: 7c49 273d 32c4 3b3d 96c3 00bd 326c 6c3d
000001d0: 7127 33bd 0ff4 b13c ddcf 02be ecd5 b5bd
000001e0: cdda 3c3d 658a ac3d 8e39 f63a e73d f2bc
000001f0: 574a a03d 5029 153d d760 ea3c 3122 01bc
00000200: 478e 10bb a60b 10bd 2fd8 583d 4e2a 74bd
00000210: 9776 223a bfa0 d8bb 50fc 133e e2dd 173e
00000220: 5dc0 e33c e9c6 25bd 5bf5 313b 885a 9bbe
00000230: 3d20 b6bc fb70 3c3c c2f2 243d b00b fc3c
00000240: cf9b b6bc 04de 16be 3d2c d9bb 54ec 11bc
00000250: f6e8 133d eb87 44bc 3482 41bc 896d 05be
00000260: dc58 fdbc d388 e23c fdd7 b7bd c028 9cbc
00000270: 508f 40bd 603c 113d e767 7e3d dc7e 07bc
00000280: 4bfa 1cbe 58bd d9bc 0727 e4bc b86a 59bc
00000290: 7fde 9b3d f793 bc3c 51f7 3c3d ab22 b3bc
000002a0: c82f 883d f845 f6b9 bab6 833d cc1f 683d
000002b0: 95ca 033e 7feb a2bd 4aa4 293d a5e4 4dbe
000002c0: 25a1 183c 6695 ed3d 80fd dbbc e933 28be
000002d0: 007e 45ba 9df0 9a3c 39b8 5d3d 657e 983c
000002e0: e2a2 603d 22fb 223d ea4d 163e 4e06 e83c
000002f0: dbd8 393c 4b9c 263d 16f1 6b3d 9f35 263b
00000300: f0ac b13c 377e 063e 6050 2b3e 514e 243d
00000310: af97 1a3d 5638 f33c 147d 4d3d 9c9d 7f3c
00000320: 97fb 6bbc 448f 47bd 7258 64bd bd53 fb3d
00000330: ff66 9bbd 3d18 3e3b d961 a839 8c88 34be
00000340: e853 d83d 0cbf 3e3e 167b 133d 2a5a 123e
00000350: 580a 62bd 50c9 8d3c 6a24 713d 37d5 fd3c
00000360: 6d58 bc3d adfd f3bc c1ae a1bc 662d cdbc
00000370: ce5c a53b fbaf f53c f9b0 003e c02a 0f3d
00000380: 116b e83c 27f1 aebd 9d50 34bc 3be0 f33c
00000390: 14fe e03c 9492 abbd 93af 93bc 2ce1 493d
000003a0: 0d63 b03d 0ebc 05bd 54ea 123d 74f2 e43d
000003b0: 5de5 6a3c 8b04 d3bb 7406 b4bd 0995 9e3d
000003c0: 9eca ecbd 0059 f5bb e624 0d3d 809f 073d
000003d0: d2da 54bd 96e4 70bd b0f2 4abd aa74 d63b
000003e0: 63cf 923b ae4a 503c ee2d b2bd 920a a2bd
000003f0: 59d5 e1bc 1ae2 33bd 83c5 22bd 26b4 3a3d
0.018961161 0.018132256 0.015355622 0.05734285 -0.0020802289 -0.18794887 0.045112077 -0.03234655
-0.14950103 0.021761483 -0.2478647 0.026213681 -0.043357506 -0.019048613 0.01377254 -0.19679597
0.03428689 0.017115042 -0.03944536 0.052788086 -0.018171644 0.04031796 0.07411429 -0.06771296
0.104020864 -0.0042439476 0.044248797 -0.015346982 0.018197052 0.021117914 0.02375113 0.106299736
-0.012785373 -0.17277886 -0.07955 0.03538066 -0.058432303 0.08147594 -0.038875278 -0.21553105
0.0030936226 0.025919938 -0.049757056 0.015742347 -0.0805267 -0.04010239 0.0067712 0.118893385
0.0650991 -0.016222367 0.050740473 0.013062527 0.0033070715 0.06169577 -0.029712854 0.021718608
-0.026499547 -0.00039993093 0.024239127 -0.20904732 0.15291096 -0.21264343 -0.010854825 -0.10261164
0.02609485 0.048112392 0.020028103 0.025103929 0.00027545184 -0.09214499 0.055633496 0.04467779
-0.00018648712 -0.0070283515 -0.048090443 -0.21847044 -0.19210482 0.0006951643 0.0003752047 0.031345494
0.14800239 0.044087112 -0.015103222 -0.16615108 0.022222202 0.015148929 -0.024401478 0.011163779
0.047267564 0.0055803056 0.0018085528 0.03439621 -0.10151386 -0.11304384 -0.006823082 0.013426852
0.032076485 -0.01733171 -0.055215154 -0.002299405 -0.016517702 0.021236952 0.008773984 -0.0042608376
0.11330873 0.047569256 0.015102609 -0.04060331 -0.060394727 0.009869133 0.055184163 -0.02017258
0.040841565 0.045841403 -0.031436525 0.05772037 -0.043738786 0.021722822 -0.12774606 -0.08878693
0.046107102 0.08424834 0.0018785463 -0.029570533 0.07826679 0.03641635 0.02861063 -0.007881687
-0.002205746 -0.03516736 0.052940544 -0.059610657 0.0006197481 -0.0066109593 0.14451718 0.14830735
0.027801687 -0.0404729 0.00271543 -0.30342507 -0.02223217 0.011501546 0.040270574 0.030767292
-0.022291092 -0.1473313 -0.006627588 -0.008906443 0.03611084 -0.011995296 -0.011810828 -0.13030066
-0.03092616 0.027653133 -0.08976743 -0.0190624 -0.047011673 0.03545797 0.062110808 -0.008269992
-0.15329854 -0.026579544 -0.027850641 -0.013270073 0.07610797 0.023019774 0.046134297 -0.021867117
0.066497386 -0.00046972907 0.06431337 0.05667095 0.12870248 -0.079550736 0.041416444 -0.20106752
0.009315764 0.11600761 -0.026854277 -0.16426052 -0.0007533729 0.018913561 0.054130767 0.018614957
0.054842837 0.03979028 0.1467816 0.028323319 0.011343206 0.040676396 0.057602964 0.002536155
0.021688908 0.13134085 0.1672988 0.04011375 0.037742313 0.029689949 0.050168112 0.015601542
-0.014403245 -0.048720613 -0.05574841 0.12271831 -0.07588004 0.0029006146 0.0003211636 -0.17630213
0.10562879 0.18627566 0.036006056 0.14292207 -0.055185646 0.017307907 0.058872618 0.030985458
0.091965534 -0.029784048 -0.01973665 -0.025046062 0.0050464636 0.02999114 0.1256751 0.03495288
0.028371366 -0.0854209 -0.011005548 0.029770007 0.027464904 -0.08377567 -0.018028056 0.049287006
0.086126424 -0.032650046 0.035868004 0.11179057 0.014336911 -0.0064397505 -0.08790293 0.0774327
-0.11562084 -0.0074874163 0.034459017 0.033111095 -0.051966496 -0.058811747 -0.04954785 0.006544669
0.004480289 0.0127131175 -0.08700167 -0.079121724 -0.027567552 -0.0439168 -0.039739143 0.04558196

linear3.bias f4 [3]
00000000: 7d19 9a3d bcee 003d a87f 6c3d
0.07524393 0.031477675 0.05773893
