checkpoint_game_1300.pth (torch, 281418 bytes, 6 tensors)

linear1.weight f4 [256, 11]
0	0xbe540c29	-0.20707764
1	0x3e377a97	0.17917858
2	0xbdff4a64	-0.12465361
3	0x3e16ad35	0.1471451
4	0x3db32b12	0.087484494
5	0x3dedbb3b	0.11607977
6	0xbe457244	-0.1928187
7	0xbe286009	-0.16442885
8	0xbddf3d11	-0.10900319
9	0xbe16199c	-0.14658207
10	0xbe878f9d	-0.26476756
11	0x3e462ee1	0.1935382
12	0x3e05a227	0.13050137
13	0xbe1df010	-0.15423608
14	0xbdf66edd	-0.12032864
15	0xbcbc4db9	-0.02298628
16	0xbd7d6e81	-0.061872963
17	0xbe43cd14	-0.191212
18	0xbd3d3cb9	-0.046200488
19	0xbe8207e9	-0.2539666
20	0xbc781e3a	-0.015143925
21	0xbe30ad07	-0.17253505
22	0x3e656ef1	0.22405602
23	0x3e6dd798	0.23226774
24	0x3dbd4572	0.09241761
25	0xbf20ca6a	-0.6280886
26	0x3e474e91	0.19463564
27	0xbef83fe4	-0.48486245
28	0x3f20f8e0	0.62879753
29	0xbeaa1c72	-0.33224827
30	0xbf4b4c38	-0.79413176
31	0xbf7308a5	-0.94935066
32	0x3e815f20	0.25267887
33	0xbd8777ce	-0.06614648
34	0x3d96e9a2	0.07368781
35	0x3e22cc26	0.15898189
36	0x3c4669ac	0.012110155
37	0xbd26def9	-0.040739987
38	0xbf05a723	-0.52208155
39	0xbeb573aa	-0.35439807
40	0xbe3ae83a	-0.1825265
41	0x3d0f7182	0.03502036
42	0xbed53f08	-0.41649652
43	0xbea12931	-0.3147674
44	0xbd682684	-0.056677356
45	0xbe9d07d8	-0.30670047
46	0xbe958cc0	-0.29208946
47	0xbcd0fb89	-0.025510566
48	0xbdd3e173	-0.103457354
49	0xbea1f843	-0.3163472
50	0x3f0c6deb	0.5485522
51	0xbf21da73	-0.6322395
52	0xbf1cca10	-0.6124582
53	0x3ea6eb7e	0.3260154
54	0xbeb57f0f	-0.354485
55	0xbd9dadaa	-0.076991394
56	0x3e412c8d	0.18864651
57	0xbe9a7c0b	-0.30172762
58	0xbee2efa9	-0.4432347
59	0xbd18fc95	-0.037350256
60	0xbf073572	-0.52815926
61	0xbb997eea	-0.004684319
62	0xbe92e919	-0.28693464
63	0xbe84313a	-0.25818807
64	0xbdad8228	-0.08472091
65	0xbef1688e	-0.4715008
66	0x3f140ff6	0.57836854
67	0xbf02b34c	-0.51054835
68	0xbe837702	-0.25676733
69	0x3e7ea47f	0.24867438
70	0xbd65b991	-0.056085173
71	0xbefe123c	-0.49623287
72	0xbf07ec60	-0.53095055
73	0xbdefccaa	-0.117089584
74	0x3e2ff9af	0.1718509
75	0x3ed96b11	0.42464498
76	0x3f12d309	0.57353264
77	0xbf011c65	-0.5043395
78	0x3d8f8c58	0.0700919
79	0x3ef9ee18	0.48814464
80	0xbeeec79e	-0.4663667
81	0xbef92470	-0.48660612
82	0x3dd783f4	0.10523215
83	0x3e83fd5d	0.25779238
84	0xbed6a268	-0.4192078
85	0xbe70f6c0	-0.23531628
86	0xbaf19c3b	-0.0018433401
87	0x3e9ca089	0.3059123
88	0x3e38b636	0.18038258
89	0x3e20650d	0.15663548
90	0x3da2c0f5	0.0794696
91	0x3eb3f276	0.3514592
92	0x3e85d719	0.2614067
93	0xbf3dd3b8	-0.7415118
94	0xbee24a26	-0.44197196
95	0xbf774247	-0.96585506
96	0xbf434505	-0.7627719
97	0x3e178c14	0.1479953
98	0x3ea40e9a	0.3204239
99	0xbe72bc2b	-0.23704593
100	0x3ec6a1a8	0.3879521
101	0x3f119c4d	0.5687912
102	0xbe6bf31e	-0.2304196
103	0xbe278e6d	-0.16362925
104	0xbedff91c	-0.43744743
105	0xbe4f1a16	-0.20224795
106	0xbd81c8c1	-0.06337119
107	0xbe04b356	-0.12959036
108	0xbe375637	-0.17903982
109	0xbe5f6618	-0.2181629
110	0xbe8f04d0	-0.2793336
111	0xbc16dd68	-0.009208061
112	0x3e5fdd95	0.2186187
113	0xbea5d37e	-0.32387918
114	0x3e242f15	0.16033585
115	0x3ebfab85	0.37435547
116	0xbea392fa	-0.31948072
117	0xbef2fa9f	-0.47456834
118	0xbe9192c1	-0.28432277
119	0x3eced1cf	0.40394446
120	0xbe6feefa	-0.23431006
121	0xbe7f4f1a	-0.24932519
122	0x3f0e07c6	0.5548061
123	0x3c584f0a	0.013202438
124	0x3e806a19	0.25080946
125	0x3d9abe0e	0.07555781
126	0xbeb71b30	-0.3576293
127	0xbf61cf7e	-0.8820723
128	0x3e3ee322	0.18641332
129	0x3e9b11bd	0.3028697
130	0xbef2e535	-0.47440496
131	0xbf0564a6	-0.521067
132	0xbe29400e	-0.16528341
133	0x3e710ed6	0.23540816
134	0x3d0729b0	0.03299874
135	0xbe53b9be	-0.20676324
136	0xbed97ece	-0.42479557
137	0xbe373f0e	-0.17895147
138	0xbe0e9da8	-0.13927329
139	0xbdaae468	-0.08344346
140	0xbcd3b16b	-0.025841435
141	0xbe6dbee8	-0.23217356
142	0xbe582fc4	-0.21111971
143	0x3ddd7d5f	0.10814928
144	0x3e7d04cc	0.24708861
145	0xbd73ee4d	-0.059553433
146	0x3d4d1eb8	0.050078124
147	0x3c4907a3	0.012269887
148	0xbe50c192	-0.20386341
149	0x3cee406f	0.029083459
150	0x37f1a9ef	2.880857e-05
151	0xbe031c9c	-0.12803882
152	0x3d9bb417	0.07602709
153	0xbe534449	-0.20631517
154	0x3daddb02	0.08489038
155	0x3e521537	0.20515905
156	0xbf0fb05f	-0.56128496
157	0x3d9611f2	0.073276415
158	0xbf088036	-0.53320634
159	0x3f11e81d	0.569948
160	0xbec53be2	-0.3852225
161	0xbed448ea	-0.4146188
162	0xbf12e9c6	-0.5738796
163	0xbf36befc	-0.7138517
164	0x3e928d8c	0.28623617
165	0xbef47418	-0.47744823
166	0x3e8a0d28	0.26963162
167	0x3e91f265	0.28505245
168	0xbef7422b	-0.4829267
169	0x3e5904c2	0.21193221
170	0x3e47d706	0.19515619
171	0xbdee2f80	-0.11630154
172	0xbf2ade4a	-0.66745436
173	0xbee52041	-0.4475117
174	0xbf469c17	-0.77581924
175	0xbe971ce0	-0.29514217
176	0x3d8b3c78	0.06798643
177	0x3e123e43	0.14281563
178	0x3d91dbe2	0.071220174
179	0xbc503f1e	-0.012710361
180	0xbcea0e70	-0.028571337
181	0x3c6b8d41	0.014376939
182	0xbea60cf5	-0.3243176
183	0xbef864ea	-0.4851449
184	0xbe6c8505	-0.23097618
185	0xbde4be9f	-0.111691706
186	0xbf0095d3	-0.50228614
187	0x3dc1d108	0.09463698
188	0xbefa90b8	-0.48938537
189	0xbcf9ffd3	-0.030517494
190	0xbc91988c	-0.017772935
191	0xbddbe34e	-0.10736714
192	0xbdee1d1f	-0.11626648
193	0xbcd05d36	-0.025435071
194	0x3d0b4ac6	0.034006856
195	0xbedaab99	-0.42709044
196	0xbb0fc4bd	-0.0021937334
197	0xbba4d619	-0.0050304052
198	0x3e15ca38	0.14627922
199	0xbe527b4a	-0.20554844
200	0xbd6ea316	-0.058261
201	0xbe9c2b3b	-0.30501732
202	0x3eee4bbc	0.46542156
203	0xbf013982	-0.50478375
204	0xbf0dcb21	-0.55388075
205	0x3f129a0b	0.572663
206	0xbe7e810f	-0.2485392
207	0xbf77b984	-0.9676745
208	0xbf6935ff	-0.91098017
209	0xbe833525	-0.25626484
210	0xbe33c194	-0.17554313
211	0xbe6d85c6	-0.23195562
212	0xbe375de5	-0.17906912
213	0xbddc24ee	-0.10749231
214	0x3e16088b	0.14651696
215	0xbe250081	-0.16113473
216	0xbea98168	-0.33106542
217	0xbe6ad67d	-0.22933383
218	0xbe0947f7	-0.13406359
219	0x3e011147	0.12604247
220	0xbdee0560	-0.11622119
221	0x3d2144ee	0.039372377
222	0x3d8e4672	0.0694703
223	0x3c6fa066	0.014625644
224	0xbf0487ea	-0.5176989
225	0xbe9a84ee	-0.30179542
226	0xbdef70c5	-0.11691431
227	0xbf02459a	-0.50887454
228	0xbed61806	-0.41815203
229	0xbdc28591	-0.09498132
230	0xbd29936e	-0.041400366
231	0xbd30bb04	-0.043147102
232	0x3f541b63	0.8285429
233	0xbe206191	-0.15662219
234	0x3ec5b08a	0.3861125
235	0xbe331d23	-0.17491584
236	0xbe6955b6	-0.22786602
237	0x3e4dc657	0.20095192
238	0xbd3b0290	-0.04565674
239	0x3ddac230	0.106815696
240	0xbe656a25	-0.22403772
241	0x3e4045f2	0.18776682
242	0x3dcbd7d2	0.09953274
243	0xbe56dade	-0.20981929
244	0x3dba3c63	0.09093549
245	0xbf27b4b5	-0.6551011
246	0xbe8b4769	-0.2720292
247	0xbeb20e16	-0.34776372
248	0x3b673080	0.003527671
249	0x3bc66b28	0.0060552545
250	0xbe54854a	-0.2075397
251	0xbebd578c	-0.36980855
252	0xbecedd5b	-0.40403256
253	0x3e783e8d	0.24242611
254	0x3ed8341a	0.4222725
255	0x3ec3d458	0.38247943

linear1.bias f4 [256]
0	0xbe9d2207	-0.30690023
1	0xbeb06a55	-0.34456125
2	0x3d4138c5	0.04717328
3	0xbe98f2ec	-0.29872835
4	0xbec3263b	-0.38115105
5	0xbe01f4c6	-0.1269103
6	0xbe0a1feb	-0.13488738
7	0xbec9f134	-0.39441836
8	0xbd8b038d	-0.06787787
9	0xbe1901e8	-0.14942133
10	0xbe9fef10	-0.31237078
11	0xbdd3e0bb	-0.10345598
12	0xbe13e4e9	-0.14442791
13	0xbef7aa91	-0.4837232
14	0x3bbbf514	0.0057360027
15	0xbe1e7167	-0.15472947
16	0xbe8a4522	-0.2700587
17	0xbe7e6e9e	-0.24846885
18	0xbeb60a5a	-0.35554773
19	0xbe98b442	-0.29825026
20	0xbde41a76	-0.111378595
21	0xbda87c62	-0.08226849
22	0xbeae571e	-0.3405084
23	0xbea5ba8d	-0.3236889
24	0xbe20204d	-0.15637322
25	0xbe8e0e43	-0.27745256
26	0xbdf5e1b7	-0.12005942
27	0xbec86c15	-0.3914496
28	0xbef403b9	-0.4765909
29	0x3e9af864	0.30267632
30	0xbea334f1	-0.3187633
31	0xbdddd317	-0.10831278
32	0xbdf33dcb	-0.118770204
33	0x3e81668c	0.2527355
34	0xbd58623b	-0.052828055
35	0xbeb9e303	-0.3630601
36	0xbe41921c	-0.18903393
37	0xbe888bcc	-0.26669157
38	0xbe9db2d4	-0.30800498
39	0xbda64eeb	-0.08120521
40	0xbe6cc61f	-0.23122452
41	0x3c0bb64a	0.008527348
42	0xbde05d01	-0.10955239
43	0xbe384b74	-0.17997533
44	0xbe609b8e	-0.2193434
45	0xbda595b6	-0.08085196
46	0xbe8540e7	-0.2602608
47	0xbe90d690	-0.28288698
48	0x3e5700d9	0.20996417
49	0xbe8dc7b6	-0.2769143
50	0xbd754637	-0.059881415
51	0xbeb60370	-0.35549498
52	0xbeaa4fd4	-0.3326403
53	0x3db2a249	0.0872236
54	0x3d287935	0.041131217
55	0x3f5c4c6d	0.86054116
56	0xbd4cbd4c	-0.049985215
57	0xbeabba0e	-0.33540386
58	0x3f463bde	0.774351
59	0xbda37e22	-0.07983042
60	0xbdce46de	-0.100721106
61	0xbec84086	-0.39111727
62	0xbe361271	-0.17780472
63	0x3c32b444	0.0109072365
64	0xbea52ffc	-0.32263172
65	0xbed0da5f	-0.40791604
66	0xbe94945b	-0.29019436
67	0xbceebacc	-0.029141806
68	0xbdb80338	-0.08984989
69	0xbf145943	-0.579487
70	0xbe441781	-0.19149591
71	0x3c9d3c67	0.019193841
72	0x3fb12f29	1.3842517
73	0xbedc8e1a	-0.43077165
74	0xbec3e3c7	-0.38259718
75	0xbd556429	-0.052097473
76	0xbe3de7d4	-0.18545467
77	0xbe51d121	-0.20489933
78	0xbe68add9	-0.22722568
79	0xbecdc549	-0.4018958
80	0x3e73bfe0	0.23803663
81	0x3eddaa08	0.43293786
82	0xbdbfb339	-0.09360356
83	0xbe1baf75	-0.1520365
84	0xbe119aaa	-0.14219156
85	0xbecbb166	-0.39783782
86	0xbdbc8032	-0.09204139
87	0xbefbcf72	-0.49181706
88	0x3d89db1f	0.06731247
89	0xbe9a42ac	-0.30128992
90	0xbea5fbf0	-0.32418776
91	0x3db455ff	0.08805465
92	0x3e1555f8	0.14583576
93	0xbd413201	-0.047166828
94	0xbed4ed80	-0.41587448
95	0xbedb3024	-0.42810166
96	0xbebe2b50	-0.3714242
97	0xbdffd6e1	-0.12492157
98	0xbe0588e1	-0.13040496
99	0xbee109e1	-0.4395285
100	0xbe7da19a	-0.24768677
101	0x3d3e6701	0.04648495
102	0x3d0262df	0.031832572
103	0xbf14326d	-0.57889444
104	0xbe3d864f	-0.18508266
105	0x3b51b07f	0.003199607
106	0xbd25f985	-0.040521163
107	0xbe2b25d5	-0.1671365
108	0xbe0a9f92	-0.13537434
109	0xbf0107bb	-0.5040242
110	0xbe7f718f	-0.24945663
111	0xbdf9715d	-0.121798255
112	0xbe8e4121	-0.27784064
113	0xbd8c9395	-0.068640865
114	0x3d0660c9	0.032807145
115	0x3e1cb319	0.15302695
116	0x3ca97e81	0.020690205
117	0x3f423c35	0.7587312
118	0xbdfba221	-0.12286783
119	0xbeaae131	-0.33374932
120	0x3ebc519e	0.3678102
121	0x3da6018a	0.08105762
122	0xbeed06f2	-0.4629436
123	0xbe536736	-0.2064484
124	0xbd1356d1	-0.035971466
125	0xbe9e065a	-0.3086422
126	0xbec814cd	-0.3907837
127	0xbd4ea56b	-0.050450724
128	0x3efd2c8e	0.49448055
129	0xbe97804a	-0.29590064
130	0xbd3dd715	-0.046347696
131	0x3c92f27f	0.017937897
132	0xbd62f31f	-0.05540764
133	0x3d983dfa	0.07433696
134	0xbd57bfb2	-0.05267305
135	0xbe818ff2	-0.25305134
136	0xbd92f744	-0.071760684
137	0x3e8c47b0	0.27398443
138	0x3e0c297d	0.13687702
139	0x3eb25739	0.3483217
140	0xbde8545e	-0.11344217
141	0xbe1e7ef3	-0.15478115
142	0xbe4cd165	-0.20001753
143	0xbed6300b	-0.4183353
144	0xbe2f9ce6	-0.17149696
145	0xbe87e10b	-0.26538882
146	0x3fe3a0a2	1.7783396
147	0xbc17b187	-0.009258634
148	0xbecf13f8	-0.40444922
149	0x3e1672f7	0.14692293
150	0xbe31762b	-0.17330234
151	0x3e8f1b17	0.27950355
152	0xbe79fdf9	-0.24413289
153	0xbe1c33b9	-0.15254106
154	0xba089926	-0.0005210809
155	0xbe347543	-0.17622857
156	0xbe4baddc	-0.19890541
157	0xbe5542c4	-0.2082625
158	0x3e1bcc35	0.15214618
159	0x3d80a051	0.06280578
160	0xbe1f68bb	-0.15567295
161	0x3e77234c	0.24134558
162	0xbeeb0d7c	-0.45908725
163	0xbe9c6db4	-0.30552447
164	0x3de3f29c	0.111302584
165	0x3f672b80	0.9030075
166	0xbedd26a0	-0.4319353
167	0xbe7cf5c4	-0.24703127
168	0xbea90e0a	-0.33018523
169	0xbe700b47	-0.23441802
170	0xbd2f3dee	-0.04278367
171	0x3e226232	0.15857771
172	0x3eb394d3	0.3507448
173	0xbcef846d	-0.02923795
174	0xbe0e49da	-0.1389536
175	0x3e8db882	0.2767983
176	0x3e8ca536	0.27469796
177	0xbe352053	-0.17688112
178	0xbe1db961	-0.15402748
179	0xbebec0dd	-0.37256518
180	0x3dadddc2	0.084895626
181	0x3df7ba05	0.12096027
182	0xbe463ebc	-0.19359869
183	0x3b11dd69	0.0022257215
184	0xbec30534	-0.38089907
185	0x3da7ca75	0.081929125
186	0x3db7df7b	0.089781724
187	0x3cdcd42a	0.026956636
188	0x3e63a17b	0.22229569
189	0xbec191e5	-0.3780662
190	0xbd40c449	-0.047062192
191	0xbdedc39e	-0.11609577
192	0xbe7b7688	-0.24556935
193	0xbeba914d	-0.3643898
194	0xbe39eef1	-0.18157555
195	0xbdcf04fe	-0.10108374
196	0xbdcdfd68	-0.10058099
197	0xbf16ae83	-0.58860034
198	0x3dd909d0	0.10597575
199	0xbd9c0539	-0.07618184
200	0xbdba62e7	-0.091008954
201	0xbf09c355	-0.5381368
202	0xbe5adc25	-0.21373041
203	0xbea01b4b	-0.31270823
204	0x3d971b33	0.07378235
205	0xbe9ac855	-0.30230966
206	0xbe408668	-0.18801272
207	0xbd48beaa	-0.049009956
208	0xbee74529	-0.45169953
209	0xbd82b275	-0.06381694
210	0x3fcb9646	1.5905235
211	0x3eba4342	0.3637944
212	0xbe903876	-0.28168076
213	0xbd852594	-0.06501308
214	0xbe86d52f	-0.2633452
215	0xbe98c8cd	-0.298407
216	0xbd505ac2	-0.050867803
217	0xbeba8e59	-0.36436728
218	0xbf024193	-0.5088131
219	0xbdadeb3e	-0.084921345
220	0x3d5520cb	0.052033227
221	0x3e396b23	0.18107276
222	0xbe8eb0ae	-0.2786917
223	0x3ec0c1a4	0.37647736
224	0xbe09a6d8	-0.13442552
225	0x3e1e730b	0.15473573
226	0xbe8cb1b7	-0.27479336
227	0xbe87c514	-0.26517546
228	0xbe0fa162	-0.14026406
229	0xbee580c1	-0.44824794
230	0xbe72fc91	-0.23729159
231	0xbf16b461	-0.58868986
232	0x3e1fbafa	0.1559867
233	0xbeb6678a	-0.3562587
234	0x3caca965	0.021076867
235	0xbebb1b61	-0.36544326
236	0xbd346390	-0.044040263
237	0xbe68b175	-0.22723944
238	0x3c393ecf	0.011306479
239	0x3e11bd44	0.14232355
240	0xbe22e107	-0.15906154
241	0xbe984b16	-0.29744786
242	0xbdaef7b2	-0.08543338
243	0xbe46002f	-0.19336008
244	0xbe26f710	-0.16305184
245	0x3cb21f56	0.021743458
246	0xbea59d7e	-0.3234672
247	0xbe84b215	-0.25917116
248	0xbe29a53d	-0.1656694
249	0x3e83d559	0.2574871
250	0x3ff863fc	1.9405513
251	0x3ccb6071	0.02482626
252	0xbe757bca	-0.23973003
253	0xbeb4d757	-0.3532054
254	0xbdd00cdb	-0.10158702
255	0xbea1a1b2	-0.31568676

linear2.weight f4 [256, 256]
0	0x39c01a00	0.00036640465
1	0xbb79e740	-0.003813222
2	0x3db3ef6a	0.08785899
3	0x3b5c7447	0.0033638643
4	0xbbb86ccf	-0.0056282054
5	0xbc318929	-0.010835924
6	0x3c97f707	0.018550409
7	0xbd0b1e4a	-0.033964433
8	0xbd49215f	-0.04910409
9	0xbd07862b	-0.033086937
10	0xbd7381e7	-0.059450056
11	0x3c3ae848	0.011407919
12	0x3ca9ced7	0.020728512
13	0xbc1f2e56	-0.009715637
14	0xb9950643	-0.0002842416
15	0xbd464d8f	-0.04841381
16	0xbd7b65d8	-0.061376423
17	0xbbcedeab	-0.006313165
18	0x3d1fb914	0.038994864
19	0x3c8f22e4	0.017472692
20	0xbd859004	-0.065216094
21	0xbb81e178	-0.0039636455
22	0xbc5df652	-0.013547497
23	0xbbde59cc	-0.006785607
24	0xbd082f18	-0.033248037
25	0xbd455ca1	-0.04818404
26	0xbd886fbd	-0.066619374
27	0xbca8c59f	-0.020602046
28	0xbd3e5b7c	-0.046473965
29	0xbd457e12	-0.048215933
30	0xbb97bdc8	-0.004630778
31	0xba9420ef	-0.0011301319
32	0xbdf078b8	-0.11741775
33	0xbda0e5e5	-0.07856349
34	0xbd6b8969	-0.05750409
35	0xbdb66516	-0.08905999
36	0xbd9cb182	-0.076510444
37	0xbd53eab6	-0.05173751
38	0x3d5f99e8	0.054590136
39	0xbcec025c	-0.028809719
40	0x3ca61183	0.020272022
41	0x3cb1099f	0.021611033
42	0x3c87bff2	0.016571019
43	0x3bf00930	0.007325314
44	0xbbab8ca6	-0.0052352725
45	0xbceba2ec	-0.02876421
46	0xbd6d3bd3	-0.05791838
47	0x3d920fce	0.07131921
48	0xbcb6caca	-0.022313494
49	0xbc3130e0	-0.010814875
50	0xbd411692	-0.047140665
51	0x3c87e77d	0.016589874
52	0xbd68ddf2	-0.05685229
53	0xbc3cbfb1	-0.011520312
54	0xbd819134	-0.063265234
55	0xbd6e6e48	-0.05821064
56	0xbd035951	-0.0320676
57	0x3c03c62e	0.008042855
58	0xbdd8728f	-0.10568725
59	0x3d2c23a5	0.04202618
60	0x3d0ddceb	0.034634512
61	0xbd2e3100	-0.0425272
62	0xbc3b8890	-0.011446133
63	0xbd944b4b	-0.072409235
64	0xbd83ef27	-0.06442099
65	0x3c67b63d	0.01414257
66	0x3c87e2a0	0.016587555
67	0x3d98ba74	0.07457438
68	0xbd7b08df	-0.061287757
69	0x3ce8ea6d	0.028432095
70	0xba2b3f4b	-0.0006532564
71	0xbdb90d86	-0.090357825
72	0xbd86e44c	-0.06586513
73	0xbc9442fd	-0.018098349
74	0xbd550b97	-0.052013006
75	0xbd392587	-0.045201804
76	0xbaa24d8e	-0.0012382732
77	0x3d6ac345	0.05731513
78	0x3d5246d0	0.051337063
79	0x3c86bff4	0.016448952
80	0xbdd84c50	-0.105614305
81	0xbd1b7437	-0.037952628
82	0x3bd4b1a9	0.0064909053
83	0xbd23bf31	-0.039977256
84	0xbdd3f53e	-0.103495106
85	0xbccf047c	-0.025270693
86	0xbd5636e7	-0.052298453
87	0xbd9a4540	-0.0753274
88	0xbc12f371	-0.008969174
89	0xbd440115	-0.047852594
90	0xbc868be9	-0.016424136
91	0xbd655c62	-0.055996306
92	0x3aad04df	0.0013200304
93	0x3c1ea0b8	0.009681873
94	0x3d014744	0.031562105
95	0xbd1ff279	-0.0390496
96	0x3d479414	0.048725203
97	0xbbfeb95b	-0.007773561
98	0x3cb0225b	0.021500757
99	0xbdb54f08	-0.08852965
100	0xbba354b9	-0.004984465
101	0xbdceba8a	-0.10094173
102	0xbd874368	-0.066046536
103	0xbd7fd8a6	-0.06246247
104	0xbd0c48f9	-0.03424928
105	0xbd53dffc	-0.05172728
106	0x3d1ee6b8	0.03879425
107	0xbd5baefc	-0.053633675
108	0xbd823fcc	-0.063598245
109	0xbd9f62fe	-0.07782553
110	0xbc7e520e	-0.015522493
111	0xbd7f85d4	-0.062383488
112	0xbc402a5b	-0.011728848
113	0xbd299720	-0.04140389
114	0xbd8c02eb	-0.06836494
115	0xbc422bc0	-0.011851251
116	0x3b87036b	0.0041202805
117	0xbdd6ac42	-0.10482074
118	0x3d29017c	0.04126118
119	0xbd0d520c	-0.034502074
120	0xbdc00d52	-0.09377541
121	0xbd14f281	-0.036364082
122	0xbd688685	-0.056768913
123	0xbd1ad6a1	-0.037802342
124	0xbc23649b	-0.009972717
125	0xbd881814	-0.066452175
126	0xbd53e436	-0.05173131
127	0xbd7a5b0a	-0.061121978
128	0xbdf3961b	-0.11893865
129	0xbdb80cd6	-0.08986823
130	0x3cbbbfc6	0.022918593
131	0xbd1918fa	-0.037377335
132	0x3d9367c2	0.071975246
133	0x3d518ce8	0.05115977
134	0xbd97005b	-0.07373115
135	0xbc5f66f5	-0.013635387
136	0xbc7030e1	-0.014660091
137	0x3d8669cd	0.06563149
138	0x3c149bd0	0.009070352
139	0xbd3fa5ef	-0.046789106
140	0xbcdd276d	-0.026996339
141	0xbd2e125d	-0.04249798
142	0xbcab428b	-0.020905754
143	0xbc3f6ec0	-0.01168412
144	0x3c6ef961	0.014585824
145	0xbdbb2084	-0.09137061
146	0xbc894fca	-0.01676168
147	0xbd471de8	-0.048612505
148	0xbc81c920	-0.015842974
149	0xbd2cbf98	-0.042174906
150	0x3cb3c7a9	0.021945791
151	0xbcd35793	-0.025798595
152	0xbc1731a2	-0.009228142
153	0x3da12ff5	0.07870475
154	0xbd3b21f9	-0.045686696
155	0xbd46a150	-0.048493683
156	0xbce70350	-0.028199822
157	0xbd1d58cc	-0.03841476
158	0x3ca24347	0.019807471
159	0xbd3a66e4	-0.04550828
160	0xbdb108b8	-0.08644241
161	0xbd5c82d2	-0.053835697
162	0xbd526a91	-0.05137116
163	0xbc802c1c	-0.015646033
164	0x3d1369b6	0.035989486
165	0xbdaa4b66	-0.08315162
166	0xbd5ced58	-0.053937286
167	0xbbf6b17a	-0.007528481
168	0xbc3f3a60	-0.0116716325
169	0xbd9f91d1	-0.07791484
170	0xbaceedf2	-0.0015787466
171	0xbd8264fa	-0.06366916
172	0x3c16ebbc	0.009211477
173	0x3d3fc039	0.046814177
174	0x3d3b194a	0.045678414
175	0x3bbe914e	0.0058156615
176	0x3c4adbfe	0.012381552
177	0x3d075e22	0.033048756
178	0xbcf92421	-0.030412735
179	0x3c8dc68a	0.017306585
180	0xbd545a1a	-0.05184374
181	0xbc9d5ab3	-0.019208288
182	0xbdf9a496	-0.121895954
183	0x3d704648	0.058660775
184	0xbc36222b	-0.011116545
185	0xbd12831a	-0.03576956
186	0x3c8fcee9	0.017554717
187	0xbcee104c	-0.029060505
188	0x39ca2a04	0.00038559746
189	0x3aeb0ac0	0.0017932281
190	0xbd7ccea4	-0.061720505
191	0xbd6186f5	-0.055060346
192	0xbd19db6e	-0.03756278
193	0xbd6aca15	-0.057321627
194	0xbd5e00c1	-0.054199938
195	0x3cf53cd4	0.029936232
196	0xbda50805	-0.0805817
197	0x3d39a1a9	0.045320187
198	0xbddf00cd	-0.108888246
199	0x3d2c63b2	0.042087264
200	0x3c9ca6dd	0.019122535
201	0xbde709b1	-0.11281145
202	0x3d7e836c	0.062137052
203	0x3d74b964	0.059747115
204	0x3a934684	0.0011236225
205	0xbd179652	-0.03700859
206	0xbc1e932e	-0.009678645
207	0xbd3f5aac	-0.04671733
208	0xbd4459c9	-0.04793719
209	0xbd17e2ed	-0.037081648
210	0xbdbe4820	-0.092911005
211	0xbd2a81b1	-0.04162759
212	0xbd2a7ce2	-0.041623004
213	0x3c80511e	0.01566368
214	0xbd9db617	-0.077007465
215	0x3c1f88e0	0.009737223
216	0x3d05ace0	0.03263557
217	0x3d4fc29b	0.0507227
218	0xbccd7995	-0.025082389
219	0x3a6fb406	0.0009143952
220	0xbdbf9df2	-0.093562976
221	0x3c139f4a	0.009010145
222	0x3d090468	0.033451468
223	0xbd2da2fb	-0.04239176
224	0xbc9ff7b1	-0.019527288
225	0xbd4b755a	-0.049672462
226	0xbd3949f6	-0.04523655
227	0xbd10a608	-0.03531459
228	0xbd1bcdc5	-0.038038034
229	0xbbbb0145	-0.0057069384
230	0xbd0821b9	-0.033235285
231	0xbda68622	-0.081310526
232	0xbd1283e1	-0.0357703
233	0x3ccb2173	0.024796223
234	0xbd3b3d25	-0.04571261
235	0xbd07b34b	-0.03312997
236	0x3d287e75	0.041136224
237	0xbd0fd96c	-0.03511946
238	0xbd2ed7b8	-0.042686194
239	0xbd8b24b4	-0.0679411
240	0xb9ec9fcc	-0.00045132486
241	0xbd97db2a	-0.07414849
242	0xbc3fd37d	-0.011708138
243	0xbd8ec173	-0.06970491
244	0x3ab6f300	0.0013957918
245	0xbc527a78	-0.012846582
246	0xbd42b925	-0.04753985
247	0x3d8a6491	0.06757463
248	0x3c9903dc	0.018678598
249	0xbd8a960b	-0.067669
250	0xbd9736b8	-0.07383484
251	0x3c8b1eb9	0.016982423
252	0xbcf4acd0	-0.02986756
253	0xbd900d6a	-0.070338085
254	0x3d1a127d	0.037615288
255	0xbc3c5b2e	-0.011496348

linear2.bias f4 [256]
0	0xb91e45a3	-0.00015093996
1	0xbca9a007	-0.02070619
2	0xbda0adf9	-0.07845683
3	0xbd7b2f56	-0.06132444
4	0xbd0bec71	-0.034161035
5	0xbdc15a35	-0.09441034
6	0x3cb6b345	0.02230228
7	0xbd4ba263	-0.04971541
8	0xbe66ae25	-0.22527368
9	0xbd148f40	-0.036269426
10	0x3df14456	0.11780612
11	0xbd376b29	-0.04477993
12	0xbd3cac23	-0.0460626
13	0xbcd2de9c	-0.025740914
14	0xbd4fda7e	-0.05074548
15	0xbe0a4d83	-0.13506131
16	0xbdd88405	-0.10572056
17	0xbd8e2cbc	-0.06942126
18	0xbcedb604	-0.029017456
19	0x3b79bb35	0.003810597
20	0xbe0a88b0	-0.13528705
21	0xbdba7830	-0.09104955
22	0x3e95b50a	0.29239684
23	0xbe11fdf4	-0.14257032
24	0xbdfba6d7	-0.122876815
25	0xbd021810	-0.03176123
26	0xbcda1543	-0.026621467
27	0xbd2f00a6	-0.042725228
28	0xbd6b333a	-0.0574219
29	0xbdca1a70	-0.09868324
30	0xbdcbbe25	-0.099483766
31	0x3ef4ca5d	0.4781064
32	0xbe36ed30	-0.17863917
33	0xbdda8411	-0.10669721
34	0xbd2c27d4	-0.04203017
35	0xbbbc5fb5	-0.005748714
36	0xbdfd0239	-0.123539396
37	0x3cf35576	0.029703837
38	0x3bd93442	0.006628544
39	0xbdcdc47e	-0.100472435
40	0xbd942669	-0.07233889
41	0xbd050df1	-0.032484
42	0xbdb2799c	-0.087146014
43	0xbd9c82f3	-0.07642164
44	0xbe220b3f	-0.15824603
45	0xbe88722a	-0.266496
46	0xbdd6bc15	-0.104850926
47	0x3e58cf60	0.21172857
48	0x3d4c929d	0.04994451
49	0xbddd6f33	-0.10812225
50	0x3c48639f	0.012230783
51	0xbdbc4a48	-0.091938555
52	0xbd2a22c8	-0.041537076
53	0xbdce0637	-0.10059779
54	0xbdc1b812	-0.09458937
55	0xbd2d4bd8	-0.04230866
56	0xbd72aff0	-0.05924982
57	0xbd382edd	-0.044966567
58	0xbd3319b4	-0.043725684
59	0xbc5e8461	-0.013581366
60	0x4039e65d	2.9046853
61	0x3d382285	0.044954795
62	0xbd877609	-0.0661431
63	0xbd62fd5e	-0.05541741
64	0xbdc1e43a	-0.09467359
65	0x3cbbccd6	0.022924822
66	0xbd8f79c8	-0.0700565
67	0xbbc6c64f	-0.0060661207
68	0xbd7e0309	-0.062014613
69	0xbe4276c4	-0.18990618
70	0xbdc2e9dc	-0.095172614
71	0xbd4e0241	-0.05029512
72	0xbe1bc672	-0.1521242
73	0xbceff771	-0.029292794
74	0xbdfe5a32	-0.12419547
75	0xbc4cdc99	-0.012503766
76	0xbda45f59	-0.080259986
77	0xbdcfedac	-0.10152754
78	0xbd1a637f	-0.037692543
79	0xbdd624d9	-0.10456247
80	0x4026c2a0	2.605629
81	0x3ebf1aec	0.37325227
82	0x3c9ccd78	0.019140944
83	0xbe905390	-0.28188753
84	0xbda218c7	-0.07914882
85	0xbd0dd460	-0.034626365
86	0xbd4d5d53	-0.05013783
87	0xbd3323fb	-0.043735486
88	0xbd95479b	-0.07289048
89	0x3c832ecd	0.016013527
90	0xbd422a27	-0.04740348
91	0x3e8cb556	0.27482098
92	0xbe1aeb93	-0.15128927
93	0xbde19adb	-0.110158645
94	0xbe0edd83	-0.13951688
95	0xbdaeb745	-0.0853105
96	0xbd130c7f	-0.03590059
97	0xbdf30b91	-0.118674405
98	0xbda57e00	-0.08080673
99	0xbcda1197	-0.026619716
100	0xbd1d9f8c	-0.038482234
101	0xbcb232ab	-0.021752676
102	0xbd94bc1b	-0.07262441
103	0xbd81d230	-0.06338918
104	0x3fdbc5a5	1.7169691
105	0xbc61c498	-0.013779782
106	0xbd551e99	-0.052031133
107	0xbd8903c7	-0.066901736
108	0x3c7ec053	0.015548783
109	0xbe26f192	-0.1630309
110	0xbd64d9ec	-0.05587189
111	0xbd7cafbf	-0.061691042
112	0xbd335f23	-0.0437919
113	0xbce525f5	-0.0279722
114	0xbe0fd95f	-0.14047764
115	0xbd6e53b8	-0.05818531
116	0xbd39856f	-0.045293268
117	0xbdcee35e	-0.101019606
118	0xbd768d45	-0.06019332
119	0xbe352bd5	-0.17692502
120	0xbd2209bc	-0.039560065
121	0xbc14ed2f	-0.009089752
122	0xbdb5b986	-0.088732764
123	0xbe3b354f	-0.18282054
124	0x3d0ede1a	0.03487978
125	0xbdc4ddf3	-0.09612646
126	0x3e81f8e6	0.25385207
127	0x3c2665ce	0.010156108
128	0xbd83d5f6	-0.06437294
129	0x3c1e92fd	0.009678599
130	0xbd475d74	-0.04867311
131	0xbda355e9	-0.079753704
132	0xbeef8134	-0.46778262
133	0xbd277d10	-0.040890753
134	0xbd745135	-0.059647758
135	0x401d8a17	2.4615533
136	0xbdc4a910	-0.096025586
137	0xbde35983	-0.111010574
138	0xbb942f0c	-0.00452221
139	0x3e020b06	0.12699518
140	0xbdd1e5d9	-0.10248918
141	0xbd83e9b9	-0.064410634
142	0xbd81dae2	-0.06340577
143	0xbd7380c9	-0.05944899
144	0xbdb7cf1b	-0.08975049
145	0xbe058059	-0.13037242
146	0xbda3f5ec	-0.0800589
147	0xbc518352	-0.012787657
148	0xbd422fae	-0.047408752
149	0xbdb8c6dd	-0.09022305
150	0xbd448feb	-0.047988813
151	0xbe5f1c03	-0.2178803
152	0xbd8d4017	-0.0689699
153	0xbd9f655a	-0.07783003
154	0xbdaf1074	-0.0854806
155	0xbd18c87d	-0.037300576
156	0xbd98736e	-0.074438915
157	0xbda504d5	-0.08057562
158	0x3f22e781	0.63634497
159	0xbcd38082	-0.025818113
160	0xbe40e262	-0.18836358
161	0xbd4d839c	-0.05017434
162	0xbd9b3fbb	-0.07580515
163	0xbddbb4d8	-0.107278526
164	0xbe2ca8c0	-0.16861248
165	0x3cd2f3fa	0.025751103
166	0xbd8b9cd7	-0.06817024
167	0xbd4fd95f	-0.05074441
168	0xbde64f3f	-0.11245584
169	0xbe829744	-0.25506032
170	0xbdddd779	-0.10832114
171	0x3ca38ec9	0.019965546
172	0x3f0eeb4b	0.5582778
173	0xbeb6f480	-0.35733414
174	0xbd09a77f	-0.033607002
175	0x3c3c22cc	0.011482906
176	0xbdaf1148	-0.08548218
177	0x3e678cdf	0.22612332
178	0xbd9b5b0d	-0.07585726
179	0xbde9feab	-0.11425527
180	0xbd9e548b	-0.07730969
181	0xbcde1749	-0.027110713
182	0xbdfdcaa9	-0.1239217
183	0xbe2e5692	-0.17025211
184	0xbd94aa88	-0.07259089
185	0xbd8cd24c	-0.068760484
186	0x40391c69	2.892359
187	0xbd7210d9	-0.0590981
188	0xbdf0d570	-0.1175946
189	0xbc906c20	-0.017629683
190	0x3e47626c	0.19471139
191	0xbc4e7193	-0.01260032
192	0xbd517836	-0.051140033
193	0xbe215407	-0.1575471
194	0xbdbb31d1	-0.09140361
195	0xbc66a384	-0.014077071
196	0xbdadac0c	-0.08480081
197	0xbd50d680	-0.050985813
198	0xbd8978f7	-0.06712525
199	0xbdee6acc	-0.11641464
200	0xbdc8a904	-0.09797862
201	0xbdd16c14	-0.102256924
202	0xbeac21e2	-0.336196
203	0xbe54d0a3	-0.20782714
204	0xbe77a3b8	-0.24183547
205	0xbda548fa	-0.0807056
206	0xbcdaf4d1	-0.026728066
207	0xbe81452c	-0.25248086
208	0xbc93830c	-0.018006824
209	0x3d2f7baf	0.042842563
210	0xbdb8312d	-0.089937545
211	0x404beff3	3.1865203
212	0xbdd03f3b	-0.1016831
213	0x3d18e4e3	0.03732766
214	0x3cafa52e	0.021441069
215	0xbd91f16c	-0.07126126
216	0x3f0100b0	0.50391674
217	0xbda495f3	-0.08036413
218	0xbd26ab20	-0.04069054
219	0xbccbb3b3	-0.02486596
220	0x3b662627	0.0035117955
221	0xbd975696	-0.07389562
222	0x40100621	2.250374
223	0xbd449250	-0.047991097
224	0xbc8b962d	-0.017039383
225	0xbdd05f0f	-0.10174381
226	0xbd846e72	-0.06466378
227	0x3d208e6d	0.039198328
228	0xbe04dd36	-0.1297501
229	0xbdf414b1	-0.11918009
230	0xbda6e2b4	-0.08148709
231	0xbce0a198	-0.027420804
232	0xbe4d557a	-0.20052138
233	0xbd6ccba1	-0.057811383
234	0xbcc05a3c	-0.023480527
235	0xbd41ae9f	-0.047285672
236	0xbe44806c	-0.19189614
237	0xbc15227a	-0.009102458
238	0xbe157c20	-0.14598131
239	0x3eb09865	0.34491268
240	0xbe6994f1	-0.22810723
241	0xbd98337d	-0.074316956
242	0xbd74fc30	-0.059810817
243	0xbdf5a902	-0.11995126
244	0xbde803f7	-0.11328881
245	0xbc2483dc	-0.010041203
246	0xbb63e4c1	-0.00347738
247	0xbd94806f	-0.07251059
248	0xbd45c8d0	-0.048287213
249	0xbdcf0f51	-0.10110343
250	0xbe80da69	-0.25166634
251	0xbdd3772b	-0.10325464
252	0xbe5a87bd	-0.21340843
253	0xbde948ac	-0.11390814
254	0xbd709a04	-0.05874063
255	0x3cfcbb44	0.030851014

linear3.weight f4 [3, 256]
0	0x3c0685d4	0.008210618
1	0xbc46302b	-0.012096445
2	0xbbdadcfa	-0.0066791745
3	0x3d6ae056	0.05734285
4	0xbb085473	-0.0020802289
5	0xbf17af25	-0.59251624
6	0x3d38c771	0.045112077
7	0xbd047dd1	-0.03234655
8	0x3cb683d6	0.022279661
9	0x3cb24523	0.021761483
10	0xbfa4c925	-1.2873884
11	0x3cd6be13	0.026213681
12	0xbc0b430e	-0.008499874
13	0xbbb414d2	-0.005495646
14	0x3b1dc2f4	0.00240725
15	0xbeb81472	-0.359531
16	0x3d0c7069	0.03428689
17	0xbc07b870	-0.008283719
18	0xbd219175	-0.03944536
19	0x3d583852	0.052788086
20	0xbd2235e9	-0.039602194
21	0x3d252472	0.04031796
22	0x3e345f8a	0.1761457
23	0xbdd49915	-0.103807606
24	0xbb377739	-0.0027994646
25	0xbb8b10d0	-0.0042439476
26	0x3d9a950e	0.07547961
27	0xbc7b71e8	-0.015346982
28	0xbc5bf070	-0.013424024
29	0x3cacff7a	0.021117914
30	0x3cc291bb	0.02375113
31	0xbc7eb280	-0.015545487
32	0xbc73f899	-0.014890813
33	0xbf1c4b92	-0.6105281
34	0xbd443b27	-0.047907975
35	0x3d10eb50	0.03538066
36	0xbca0a122	-0.019608084
37	0x3dd1204b	0.102112375
38	0xbd1dfa82	-0.03856898
39	0xbeaa35fb	-0.3324431
40	0x3b4abe60	0.0030936226
41	0x3cd4560d	0.025919938
42	0xbd4bce0e	-0.049757056
43	0x3c80f618	0.015742347
44	0xbe36834a	-0.1782352
45	0xbdd55e14	-0.104183346
46	0x3c7b566c	0.015340429
47	0x3d87a104	0.06622508
48	0x3d0fec21	0.0351373
49	0xbbfb5c19	-0.007670891
50	0x3c8fa77d	0.01753592
51	0x3c560436	0.013062527
52	0x3b8a385b	0.004218144
53	0x3cf53188	0.029930845
54	0xbcf3685f	-0.029712854
55	0x3bfcdde9	0.0077168834
56	0xbcd91594	-0.026499547
57	0xbce42655	-0.02785031
58	0x3cc69122	0.024239127
59	0xbf471650	-0.7776842
60	0x3e9360d6	0.28784817
61	0xbed93a63	-0.42427358
62	0x3c810a17	0.015751882
63	0xbde9dc5e	-0.11418985
64	0x3cd5c4de	0.02609485
65	0x3cd69852	0.026195679
66	0xbdbd3310	-0.09238255
67	0x3ca77d23	0.020445412
68	0xbf299b20	-0.66252327
69	0xbd964226	-0.073368356
70	0x3c05f6d6	0.008176526
71	0x3d37000f	0.04467779
72	0xbbe182c0	-0.0068820417
73	0xbbe64e16	-0.0070283515
74	0x3c0bba6e	0.008528335
75	0xbf7387d9	-0.9512916
76	0xbe95bcbe	-0.2924556
77	0xba0df2a4	-0.00054148794
78	0xbd0092cf	-0.031390008
79	0x3d006422	0.031345494
80	0x3e8bb34a	0.27285224
81	0x3d37f1b1	0.04490823
82	0xbc777381	-0.015103222
83	0xbecc4659	-0.3989742
84	0xbc920acb	-0.017827412
85	0x3c783337	0.015148929
86	0xbcc7e59c	-0.024401478
87	0xbc18f3ca	-0.009335468
88	0x3d419ba2	0.047267564
89	0xbc3e64a6	-0.011620676
90	0x3aed0cf6	0.0018085528
91	0x3d3fb4ad	0.046803165
92	0xbd9f10e2	-0.07766892
93	0xbdd6d1ac	-0.104892105
94	0x3cf1246a	0.029436309
95	0x3dfe2abf	0.12410497
96	0x3d0362a2	0.032076485
97	0x3cc8ac21	0.02449614
98	0xba05b030	-0.00050998013
99	0xbb16b19d	-0.002299405
100	0xbc875022	-0.016517702
101	0x3bd18529	0.0063940478
102	0xbcbc591e	-0.022991713
103	0xbb8b9e7f	-0.0042608376
104	0x3ddebfa6	0.10876398
105	0x3c8a5bff	0.01688957
106	0x3c7770ef	0.015102609
107	0xbd264fa8	-0.04060331
108	0xbd776076	-0.060394727
109	0x3c88d0fd	0.016701216
110	0x3cc7a379	0.024369942
111	0xbbc0c4a2	-0.0058828155
112	0x3d955d0d	0.07293139
113	0xbcf91963	-0.030407613
114	0xbd88fe30	-0.066891074
115	0x3d6c6c32	0.05772037
116	0xbd332771	-0.043738786
117	0xbd189492	-0.037251063
118	0xbe2191cd	-0.15778275
119	0xbd7ed9b7	-0.062219348
120	0x3d3cdacd	0.046107102
121	0x3dac8a65	0.08424834
122	0x3af6398e	0.0018785463
123	0x3b7a6e6e	0.0038212794
124	0x3d7c194a	0.061547555
125	0x3d152950	0.03641635
126	0x3d086310	0.0332976
127	0xbc012231	-0.007881687
128	0xbb108e47	-0.002205746
129	0xbd100ba6	-0.03516736
130	0x3d58d82f	0.052940544
131	0x3c1c4fa6	0.009540474
132	0xbef5354d	-0.47892228
133	0xbbd8a0bf	-0.0066109593
134	0x3d364ce0	0.044506907
135	0x3e73c9c7	0.2380744
136	0x3cd7252e	0.026262846
137	0xbe426f23	-0.18987708
138	0x3b31f55b	0.00271543
139	0xbf6c114e	-0.92213905
140	0xbcb6203d	-0.02223217
141	0x3c3c70fb	0.011501546
142	0x3d881d8b	0.0664626
143	0x3cfc0bb0	0.030767292
144	0xbcb69bcf	-0.022291092
145	0xbea0746e	-0.3133883
146	0xbbd92c3d	-0.006627588
147	0x3cba059c	0.022707753
148	0x3d87e34c	0.0663515
149	0xbc4487eb	-0.011995296
150	0xbbe96fd7	-0.007123928
151	0xbc9b19cb	-0.018933197
152	0xbcfd58dc	-0.03092616
153	0x3ce288d3	0.027653133
154	0xbde5afbc	-0.11215159
155	0xbc9c28c0	-0.0190624
156	0xbd408f50	-0.047011673
157	0x3d113c60	0.03545797
158	0x3db8c885	0.09022621
159	0xbc077edc	-0.008269992
160	0xbe8fd89b	-0.28094944
161	0xbcd9bd58	-0.026579544
162	0xbce42707	-0.027850641
163	0xbd126705	-0.03574278
164	0x3c9f907a	0.019478071
165	0x3cbc93f7	0.023019774
166	0x3cfc17b1	0.030773016
167	0x3cf570ce	0.029961016
168	0x3ce5bb54	0.028043427
169	0xbd7d05c5	-0.06177308
170	0x3acc9112	0.0015607199
171	0x3e05c322	0.13062719
172	0x3c8482bf	0.016175626
173	0xbe9fd03b	-0.31213555
174	0x3d29a44a	0.041416444
175	0xbee679cd	-0.45014802
176	0x3c18a125	0.009315764
177	0x3db59650	0.088665605
178	0xbcdbfd80	-0.026854277
179	0xbbefe293	-0.007320711
180	0xba457e00	-0.0007533729
181	0xbc512b87	-0.012766725
182	0x3ca62d44	0.020285256
183	0x3e602454	0.21888858
184	0x3d60a2e2	0.054842837
185	0x3c037d48	0.008025475
186	0x3e93b772	0.28850895
187	0x3ce8064e	0.028323319
188	0x3c39d8db	0.011343206
189	0x3d269c4b	0.040676396
190	0x3cd77b57	0.02630393
191	0x3b26359f	0.002536155
192	0x3cb1acf0	0.021688908
193	0x3d2115b1	0.039327327
194	0x3e149fbe	0.14514062
195	0xbb7611b9	-0.0037547185
196	0x3bc3d80f	0.005976684
197	0x3cf33856	0.029689949
198	0x3d4d7d14	0.050168112
199	0xbc9bcc9d	-0.019018466
200	0x3c231d29	0.009955683
201	0xbccdad6e	-0.025107112
202	0xbe836145	-0.25660148
203	0xbc9f5988	-0.019451872
204	0xbd7d4942	-0.061837442
205	0x3b3e183d	0.0029006146
206	0xbd00bca8	-0.031429917
207	0xbf1b45d1	-0.60653406
208	0xbe5daab3	-0.21647148
209	0x3d9f97bc	0.07792613
210	0x3d137b16	0.036006056
211	0x3e9bf3f3	0.30459556
212	0xbbf4d3e4	-0.0074715484
213	0x3c8dc950	0.017307907
214	0x3d71246a	0.058872618
215	0x3cfdd537	0.030985458
216	0xbcc5c767	-0.024142934
217	0xbcf3fdad	-0.029784048
218	0xbca1aec1	-0.01973665
219	0xbccd2d66	-0.025046062
220	0x3ba55cce	0.0050464636
221	0xbcb63931	-0.022244068
222	0x3e61b3df	0.22041272
223	0x3d0f2ac0	0.03495288
224	0xbc2d65b5	-0.010583331
225	0xbd813feb	-0.063110195
226	0xbc34509d	-0.011005548
227	0x3cf3e03b	0.029770007
228	0x3cd05b74	0.025434233
229	0xbcbcc3c6	-0.02304257
230	0xbc93af93	-0.018028056
231	0xbc742e0a	-0.014903555
232	0xbcabc5a2	-0.020968262
233	0xbb1efa35	-0.0024258022
234	0x3cec542e	0.028848734
235	0x3d0bee3a	0.034162737
236	0xbcace8fb	-0.021107187
237	0xbbd3048b	-0.0064397505
238	0x3d1cb342	0.03825689
239	0x3d39bfd7	0.04534897
240	0xbd859a55	-0.06523577
241	0xbbe3c2a7	-0.0069506946
242	0x3d7cc896	0.06171473
243	0xbc9ce352	-0.019151364
244	0xbd54dad2	-0.051966496
245	0xbce07218	-0.027398154
246	0xbd4af2b0	-0.04954785
247	0x3caddce8	0.0212235
248	0xb8c48a2b	-9.371744e-05
249	0x3c503ba6	0.012709534
250	0xbd977cc4	-0.07396844
251	0xbda20a92	-0.079121724
252	0x3c8d3466	0.0172369
253	0x3c2883be	0.010285316
254	0xbcb22b96	-0.021749299
255	0x3ddfe491	0.109322675

linear3.bias f4 [3]
0	0x3f0279b8	0.5096698
1	0x3f1e1efd	0.61766034
2	0x3f18b17b	0.59645814
