checkpoint_game_3100.pth (torch, 281418 bytes, 6 tensors)

linear1.weight f4 [256, 11]
00000000: 290c 54be 977a 373e 644a ffbd 35ad 163e
00000010: 122b b33d 3bbb ed3d 4472 45be 0960 28be
00000020: 113d dfbd 9c19 16be 9d8f 87be e12e 463e
00000030: 27a2 053e 10f0 1dbe dd6e f6bd b94d bcbc
00000040: 816e 7dbd 14cd 43be b93c 3dbd e907 82be
00000050: 3a1e 78bc 07ad 30be 9f68 9dbd 115b 363e
00000060: b908 d93e eb10 46bf dfba e5bd a7b7 2cbf
00000070: ada2 333f 0d37 c3be f402 85bf 8bae 5fbf
00000080: 0fb4 5b3e ce77 87bd a2e9 963d 26cc 223e
00000090: ac69 463c f9de 26bd 23a7 05bf aa73 b5be
000000a0: 3ae8 3abe 8271 0f3d 083f d5be 3129 a1be
000000b0: 8580 a5bc 0256 15bc 9df0 6cbe cbda 823b
000000c0: ea4a 2a3d 43f8 a1be a7a6 153f 301b 8cbf
000000d0: 3fa1 88bf aad0 343e 9ad8 c4be aaad 9dbd
000000e0: 8d2c 413e 0b7c 9abe a9ef e2be 95fc 18bd
000000f0: 7235 07bf ea7e 99bb 19e9 92be 3a31 84be
00000100: 2882 adbd 8e68 f1be 4abf 433f b122 78bf
00000110: 1eb4 1dbe 4c67 423e d7e5 89bd 0a0d 34be
00000120: 42c0 7abf f967 c5be d5d4 993d f842 fd3e
00000130: d5fc 273f 943c 09bf dd03 123c 8b9a a73e
00000140: 2968 fdbe 7024 f9be 4e02 ebbd 08b0 e63d
00000150: d473 e4be db45 68be 58b5 debd aacb fe3d
00000160: 5b76 f13e 8fa9 863e b110 7a3d 9b44 5d3e
00000170: d009 653d db38 91bf 415c 6ebf 914d 84bf
00000180: 4ded 98bf 6ef3 bfbd 4ecc e53d 5e5e 77be
00000190: 9cd0 803e 4f16 d93e 61be 92be 5d00 87be
000001a0: 7ecc e3be fd38 86be 50af 40be a163 19be
000001b0: 4dd2 87be af65 8cbe c4d5 5cbe cb54 283e
000001c0: e726 7b3e 7a83 c6be dbd5 4cbe 160c 593d
000001d0: 5172 febd 92b8 b1bd fd41 c3be 5a42 203e
000001e0: f9ed cbbe 2d5b 44bf b7b2 1b3f 596f f13e
000001f0: c7eb c93d 1e40 29be bcd2 37bf a645 82bf
00000200: 049c d43e 71c9 903d f9fb 403e e30c ed3d
00000210: 0e40 29be d60e 713e b029 073d beb9 53be
00000220: ce7e d9be 0e3f 37be a89d 0ebe 68e4 aabd
00000230: 6bb1 d3bc e8be 6dbe c42f 58be 5f7d dd3d
00000240: cc04 7d3e 4dee 73bd b81e 4d3d a307 493c
00000250: 92c1 50be 6f40 ee3c efa9 f137 9c1c 03be
00000260: 17b4 9b3d 4944 53be a909 80be a393 ebbe
00000270: fe85 9dbe aee2 ed3e 4d54 3cbf 8d62 af3e
00000280: 52f4 13bf 66b0 75bf 1606 84bf 3776 52bf
00000290: a51e cd3e 8135 e4be 1056 703e fa42 753e
000002a0: 2b42 f7be 6565 033e cf00 573e 4b1c 26bd
000002b0: fcbe 20bf 2325 1abf 38f5 49bf 3e37 d6be
000002c0: 783c 8b3d 433e 123e e2db 913d 1e3f 50bc
000002d0: 700e eabc 418d 6b3c f50c a6be ea64 f8be
000002e0: 0585 6cbe 9fbe e4bd d395 00bf 08d1 c13d
000002f0: b890 fabe d3ff f9bc 8c98 91bc 4ee3 dbbd
00000300: 1f1d eebd 365d d0bc c64a 0b3d 99ab dabe
00000310: bdc4 0fbb 19d6 a4bb 0ccd a03e 15d3 1fbe
00000320: 7f03 853d 4c24 19be 93b3 253f 4f4e 33bf
00000330: d935 05bf 87d2 4c3f 8011 fcbe c88b b1bf
00000340: 1bac 97bf 2535 83be 94c1 33be c685 6dbe
00000350: e55d 37be ee24 dcbd 8b08 163e 8100 25be
00000360: 6881 a9be 7dd6 6abe f747 09be 4711 013e
00000370: 6005 eebd ee44 213d 7246 8e3d 66a0 6f3c
00000380: ea87 04bf ee84 9abe c570 efbd 9a45 02bf
00000390: 0618 d6be 9185 c2bd 6e93 29bd 07e0 87be
000003a0: bebc 5b3f a242 cdbe 1b49 fb3e 2693 73be
000003b0: 8d27 a2be 0d21 9d3e 9077 9fbe 3f61 553e
000003c0: 10fb 08bf eba1 513d d2d7 cb3d deda 56be
000003d0: 633c ba3d b5b4 27bf 6947 8bbe 160e b2be
000003e0: 8030 673b 286b c63b 4a85 54be 8c57 bdbe
000003f0: 5bdd cebe 69bf 583e 7b74 c83e b914 b43e
-0.20707764 0.17917858 -0.12465361 0.1471451 0.087484494 0.11607977 -0.1928187 -0.16442885
-0.10900319 -0.14658207 -0.26476756 0.1935382 0.13050137 -0.15423608 -0.12032864 -0.02298628
-0.061872963 -0.191212 -0.046200488 -0.2539666 -0.015143925 -0.17253505 -0.076859705 0.17808177
0.42389467 -0.77369565 -0.112172835 -0.6746773 0.701701 -0.38127938 -1.0391526 -0.87375706
0.21455406 -0.06614648 0.07368781 0.15898189 0.012110155 -0.040739987 -0.52208155 -0.35439807
-0.1825265 0.03502036 -0.41649652 -0.3147674 -0.020202884 -0.009114744 -0.23138662 0.0039933673
0.04157535 -0.3163472 0.58457416 -1.0945797 -1.0674208 0.17657724 -0.38446504 -0.076991394
0.18864651 -0.30172762 -0.4432347 -0.037350256 -0.52815926 -0.004684319 -0.28693464 -0.25818807
-0.08472091 -0.4715008 0.7646376 -0.96927935 -0.1540074 0.18984717 -0.067332916 -0.17583099
-0.9794961 -0.38555887 0.075112976 0.49465156 0.65620166 -0.5360806 0.008912054 0.32735094
-0.4949353 -0.48660612 -0.11475049 0.11264044 -0.4461962 -0.22682898 -0.10874432 0.124411896
0.4716061 0.26301238 0.061051074 0.21608202 0.05591756 -1.1345476 -0.9310952 -1.0336171
-1.1947418 -0.093726024 0.11220609 -0.24157092 0.25159156 0.42399833 -0.28660873 -0.26367465
-0.44491953 -0.26215354 -0.18816876 -0.14979412 -0.26527634 -0.27421328 -0.2156592 0.16438596
0.24526559 -0.38772184 -0.20003454 0.05299004 -0.12424148 -0.08677782 -0.38136283 0.15650311
-0.39829996 -0.76701623 0.6081957 0.47155264 0.09859424 -0.16528365 -0.7180593 -1.0177505
0.4152528 0.07069672 0.1884612 0.115747236 -0.16528341 0.23540816 0.03299874 -0.20676324
-0.42479557 -0.17895147 -0.13927329 -0.08344346 -0.025841435 -0.23217356 -0.21111971 0.10814928
0.24708861 -0.059553433 0.050078124 0.012269887 -0.20386341 0.029083459 2.880857e-05 -0.12803882
0.07602709 -0.20631517 -0.2500737 -0.46011075 -0.3076629 0.46462005 -0.7356613 0.34254876
-0.5779468 -0.9597229 -1.0314357 -0.8221163 0.40062442 -0.4457207 0.2347033 0.23951331
-0.4829267 0.12831648 0.20996402 -0.040554326 -0.6279142 -0.60212916 -0.788898 -0.4183902
0.06798643 0.14281563 0.071220174 -0.012710361 -0.028571337 0.014376939 -0.3243176 -0.4851449
-0.23097618 -0.111691706 -0.50228614 0.09463698 -0.48938537 -0.030517494 -0.017772935 -0.10736714
-0.11626648 -0.025435071 0.034006856 -0.42709044 -0.0021937334 -0.0050304052 0.31406438 -0.15607865
0.064948075 -0.14955252 0.64727134 -0.70041364 -0.5203529 0.8000874 -0.492321 -1.3870783
-1.1849397 -0.25626484 -0.17554313 -0.23195562 -0.17906912 -0.10749231 0.14651696 -0.16113473
-0.33106542 -0.22933383 -0.13406359 0.12604247 -0.11622119 0.039372377 0.0694703 0.014625644
-0.5176989 -0.30179542 -0.11691431 -0.50887454 -0.41815203 -0.09498132 -0.041400366 -0.26538107
0.8583487 -0.400899 0.49079213 -0.23786601 -0.316708 0.30689278 -0.31145906 0.20837878
-0.5350809 0.051179808 0.09953274 -0.20981929 0.09093549 -0.6551011 -0.2720292 -0.34776372
0.003527671 0.0060552545 -0.2075397 -0.36980855 -0.40403256 0.21166767 0.39151368 0.3517206

linear1.bias f4 [256]
00000000: 0722 9dbe 556a b0be 2d0a 73bd ecf2 98be
00000010: 3a15 48bf c6f4 01be 6ec3 33be 4d35 21bf
00000020: bbcf 673b 76a3 96be eb7d 28bf b5c4 1cbf
00000030: e9e4 13be 91aa f7be 8200 3bbd 6df5 94be
00000040: 2245 8abe 9e6e 7ebe 2d54 b7be 42b4 98be
00000050: 761a e4bd 2c5d afbd 1e57 aebe 2c7a b5be
00000060: 84af 01bf 430e 8ebe 7daf 27be 156c c8be
00000070: b903 f4be 6224 e23e f134 a3be b855 9cbe
00000080: 4980 11bf 0727 e4bd 3668 b4be 03e3 b9be
00000090: 1c92 41be cc8b 88be d4b2 9dbe df12 71bd
000000a0: 1fc6 6cbe 16c7 0ebf b8b5 10be 744b 38be
000000b0: dd95 5dbe 21cd 83be e740 85be ae7e babe
000000c0: c0de 863e b6c7 8dbe 3746 75bd 7003 b6be
000000d0: d44f aabe c563 33be 3579 283d a48f ed3e
000000e0: 975a 113a 1e4a b5be 4a8e 643e beed 7dbe
000000f0: ab9c 89be e8ec e1be 7112 36be 3bd3 9cbe
00000100: fc2f a5be c023 02bf 5b94 94be 8b00 d0bb
00000110: bf30 7fbe ab7c 26bf 9b52 83be 673c 9d3c
00000120: 4d02 963f c4ee 1abf 91bf f2be 2964 55bd
00000130: 192f 0ebf 21d1 51be d9ad 68be 49c5 cdbe
00000140: 8b6d 5abe bc6c 8bbe 39b3 bfbd 499b f0be
00000150: aa9a 11be 37d0 34bf 3280 bcbd 305c 3dbf
00000160: 1fdb 893d 9ca1 1dbf f0fb a5be 482c 263d
00000170: f9fe 7d3e f76a 8cbc 80ed d4be 2430 dbbe
00000180: 502b bebe 04ad 21be 446d d1be e109 e1be
00000190: cb6e 60be e22b 4f3d df62 023d 6d32 14bf
000001a0: 7021 cbbe a5aa 1cbd 8c51 b1bc cc23 e6be
000001b0: c50f dcbe bb07 01bf 8f71 7fbe 7891 dcbe
000001c0: 2141 8ebe 0682 afbe 5681 0c3f cef2 613e
000001d0: f573 023c 3a61 563e 21a2 fbbd 31e1 aabe
000001e0: d801 7a3e 7a73 88bd f206 edbe ee42 b9be
000001f0: b903 bebe 0e69 0abf cd14 c8be 95d1 603d
00000200: bd24 c33e 4a80 97be 80e0 6dbe ee2a 793d
00000210: 0392 05be 975e 3abe 9c7e 49be f28f 81be
00000220: 2698 03be cf40 dd3e 719f c9bc 3957 b23e
00000230: cdb0 b9be f37e 1ebe 9cab 6bbe 0b30 d6be
00000240: cda0 84be 0be1 87be 8369 2440 cbb3 03be
00000250: f813 cfbe ba79 e93d cb0a c3be 2eed 633e
00000260: 729e d4be a7d2 b6be 8248 aabd 4f98 81be
00000270: bb2b 88be defe 1ebf bf70 eb3d 49e2 2c3e
00000280: bb68 1fbe 2cea 3abe 7c0d ebbe b46d 9cbe
00000290: da5f 9b3e 6ab8 703f ab3a 40bf dfd5 97be
000002a0: 0a0e a9be 470b 70be 3d4e 02bd c9d4 20be
000002b0: 0c27 943f ccf7 14be 75ac 32be e116 793d
000002c0: cecf 6f3e ec3b f5be 1f62 e0be ddc0 bebe
000002d0: 5040 fb3d f450 933d bc3e 46be 814d b4be
000002e0: 3405 c3be d255 42bd 8df7 003e 358a abbe
000002f0: 4916 73be e591 c1be 6283 803d b174 c93d
00000300: 8876 7bbe 4d91 babe 1e72 afbe fe04 cfbd
00000310: c107 d7bd 83ae 16bf 32b4 71be 0e63 e0be
00000320: 622b 29bc 55c3 09bf f0cb 39be 4b1b a0be
00000330: 6c2e 00bf 55c8 9abe 6886 40be aabe 48bd
00000340: 7089 15bf 75b2 82bd 7512 1240 e392 5f3e
00000350: 7638 90be d1f7 7fbe 2fd5 86be cdc8 98be
00000360: c25a 50bd 032c 9bbe 9341 02bf 68ee 5f3a
00000370: 20ff e7bd 55ab 4f3e aeb0 8ebe 4748 083f
00000380: 072c b2be 0b73 1e3e b7b1 8cbe d100 4abe
00000390: f6bc e3be 6e7b 00bf 91fc 72be 61b4 16bf
000003a0: 5878 debb 751c a4be 66b4 40be 611b bbbe
000003b0: e304 5abe 54a9 8abe 4c71 f9bd 44bd 113e
000003c0: 07e1 22be 505d 59bf b2f7 aebd f922 aebe
000003d0: 10f7 26be 561f b23c 7e9d a5be 2a6a f5be
000003e0: 27ec c6be 3680 8fbd 628c 5540 7160 cb3c
000003f0: ca7b 75be 57d7 b4be db0c d0bd b2a1 a1be
-0.30690023 -0.34456125 -0.059335876 -0.29872835 -0.7815739 -0.1269103 -0.1755502 -0.62971956
0.003537162 -0.29421586 -0.65817136 -0.6123765 -0.14442791 -0.4837232 -0.04565478 -0.29093495
-0.2700587 -0.24846885 -0.3580641 -0.29825026 -0.111378595 -0.08562693 -0.3405084 -0.35444772
-0.5065844 -0.27745256 -0.16375537 -0.3914496 -0.4765909 0.44168383 -0.3187633 -0.30534148
-0.5683637 -0.111402564 -0.35235757 -0.3630601 -0.18903393 -0.26669157 -0.30800498 -0.058855888
-0.23122452 -0.5577253 -0.1413182 -0.17997533 -0.216392 -0.25742438 -0.2602608 -0.36424774
0.2634182 -0.2769143 -0.059881415 -0.35549498 -0.3326403 -0.17518528 0.041131217 0.46398652
0.000554481 -0.3540811 0.22319904 -0.24797723 -0.2687734 -0.44126058 -0.17780472 -0.30629906
-0.32263172 -0.508358 -0.29019436 -0.006347721 -0.24920939 -0.6503398 -0.2564896 0.019193841
1.1719452 -0.6052058 -0.4741178 -0.052097473 -0.55540615 -0.20489933 -0.22722568 -0.4018958
-0.2133085 -0.27231395 -0.09360356 -0.46993473 -0.14219156 -0.7063021 -0.09204139 -0.7396879
0.06731247 -0.6157472 -0.32418776 0.040569574 0.24804296 -0.017140849 -0.41587448 -0.42810166
-0.3714242 -0.15788656 -0.40903676 -0.4395285 -0.21917264 0.05057896 0.031832572 -0.57889444
-0.39673948 -0.038248677 -0.02164533 -0.44949186 -0.4298078 -0.5040242 -0.24945663 -0.43079734
-0.27784064 -0.34278888 0.5488485 0.22065279 0.007962217 0.20935526 -0.12286783 -0.33374932
0.24414766 -0.066626504 -0.4629436 -0.36183876 -0.37112215 -0.5406655 -0.3907837 0.054887373
0.38113967 -0.29590064 -0.23230171 0.060831957 -0.1304398 -0.18200146 -0.19677204 -0.25305134
-0.12851009 0.43213508 -0.02461216 0.3483217 -0.362677 -0.15478115 -0.23014683 -0.4183353
-0.2590393 -0.26538882 2.56894 -0.12861554 -0.40444922 0.114001706 -0.38094172 0.22258446
-0.41527134 -0.3570759 -0.08314611 -0.25311515 -0.26595864 -0.62107646 0.11496114 0.16883196
-0.15567295 -0.18253392 -0.45908725 -0.30552447 0.30346566 0.94031394 -0.7508952 -0.29655358
-0.33018523 -0.23441802 -0.031812895 -0.15706171 1.1574416 -0.14547652 -0.174486 0.060812835
0.23419115 -0.4789728 -0.4382486 -0.37256518 0.12268126 0.07193175 -0.19359869 -0.3521538
-0.38089907 -0.047445126 0.12594433 -0.3350388 -0.2373897 -0.3780662 0.06275059 0.0983671
-0.24556935 -0.3643898 -0.34266752 -0.10108374 -0.10499526 -0.58860034 -0.23603895 -0.43825573
-0.010325285 -0.5381368 -0.18144202 -0.31270823 -0.50070834 -0.30230966 -0.18801272 -0.049009956
-0.5841284 -0.06381694 2.2823765 0.21833377 -0.28168076 -0.24996878 -0.2633452 -0.298407
-0.050867803 -0.30307016 -0.5088131 0.00085423 -0.11327958 0.20280202 -0.2786917 0.53235286
-0.34799215 0.15473573 -0.27479336 -0.19726874 -0.44480103 -0.5018834 -0.23729159 -0.58868986
-0.0067892484 -0.3205296 -0.18818817 -0.36544326 -0.21290927 -0.27082312 -0.12179813 0.14232355
-0.15906154 -0.8490801 -0.08543338 -0.34011057 -0.16305184 0.021743458 -0.3234672 -0.4793256
-0.38852045 -0.07006876 3.3366933 0.02482626 -0.23973003 -0.3532054 -0.10158702 -0.31568676

linear2.weight f4 [256, 256]
00000000: 001a c039 40e7 79bb 6aef b33d 4774 5c3b
00000010: cf6c b8bb 2989 31bc 07f7 973c 4a1e 0bbd
00000020: 5f21 49bd 2b86 07bd e781 73bd 48e8 3a3c
00000030: d7ce a93c 562e 1fbc 4306 95b9 8f4d 46bd
00000040: d865 7bbd abde cebb 14b9 1f3d e422 8f3c
00000050: 0490 85bd 78e1 81bb 52f6 5dbc cc59 debb
00000060: 182f 08bd a15c 45bd bd6f 88bd 9fc5 a8bc
00000070: 7c5b 3ebd 127e 45bd c8bd 97bb ef20 94ba
00000080: b878 f0bd e5e5 a0bd 6989 6bbd 1665 b6bd
00000090: 82b1 9cbd b6ea 53bd e899 5f3d 5c02 ecbc
000000a0: 8311 a63c 9f09 b13c f2bf 873c 3009 f03b
000000b0: a68c abbb eca2 ebbc d33b 6dbd ce0f 923d
000000c0: caca b6bc e030 31bc 9216 41bd 7de7 873c
000000d0: f2dd 68bd b1bf 3cbc 3491 81bd 486e 6ebd
000000e0: 5159 03bd 2ec6 033c 8f72 d8bd a523 2c3d
000000f0: ebdc 0d3d 0031 2ebd 9088 3bbc 4b4b 94bd
00000100: 27ef 83bd 3db6 673c a0e2 873c 74ba 983d
00000110: df08 7bbd 6dea e83c 4b3f 2bba 860d b9bd
00000120: 4ce4 86bd fd42 94bc 970b 55bd 8725 39bd
00000130: 8e4d a2ba 45c3 6a3d d046 523d f4bf 863c
00000140: 504c d8bd 3774 1bbd a9b1 d43b 31bf 23bd
00000150: 3ef5 d3bd 7c04 cfbc e736 56bd 4045 9abd
00000160: 71f3 12bc 1501 44bd e98b 86bc 625c 65bd
00000170: df04 ad3a b8a0 1e3c 4447 013d 79f2 1fbd
00000180: 1494 473d 5bb9 febb 5b22 b03c 084f b5bd
00000190: b954 a3bb 8aba cebd 6843 87bd a6d8 7fbd
000001a0: f948 0cbd fcdf 53bd b8e6 1e3d fcae 5bbd
000001b0: cc3f 82bd fe62 9fbd 0e52 7ebc d485 7fbd
000001c0: 5b2a 40bc 2097 29bd eb02 8cbd c02b 42bc
000001d0: 6b03 873b 42ac d6bd 7c01 293d 0c52 0dbd
000001e0: 520d c0bd 81f2 14bd 8586 68bd a1d6 1abd
000001f0: 9b64 23bc 1418 88bd 36e4 53bd 0a5b 7abd
00000200: 1b96 f3bd d60c b8bd c6bf bb3c fa18 19bd
00000210: c267 933d e88c 513d 5b00 97bd f566 5fbc
00000220: e130 70bc cd69 863d d09b 143c efa5 3fbd
00000230: 6d27 ddbc 5d12 2ebd 8b42 abbc c06e 3fbc
00000240: 61f9 6e3c 8420 bbbd ca4f 89bc e81d 47bd
00000250: 20c9 81bc 98bf 2cbd a9c7 b33c 9357 d3bc
00000260: a231 17bc f52f a13d f921 3bbd 50a1 46bd
00000270: 5003 e7bc cc58 1dbd 4743 a23c e466 3abd
00000280: b808 b1bd d282 5cbd 916a 52bd 1c2c 80bc
00000290: b669 133d 664b aabd 58ed 5cbd 7ab1 f6bb
000002a0: 603a 3fbc d191 9fbd f2ed ceba fa64 82bd
000002b0: bceb 163c 39c0 3f3d 4a19 3b3d 4e91 be3b
000002c0: fedb 4a3c 225e 073d 2124 f9bc 8ac6 8d3c
000002d0: 1a5a 54bd b35a 9dbc 96a4 f9bd 4846 703d
000002e0: 2b22 36bc 1a83 12bd e9ce 8f3c 4c10 eebc
000002f0: 042a ca39 c00a eb3a a4ce 7cbd f586 61bd
00000300: 6edb 19bd 15ca 6abd c100 5ebd d43c f53c
00000310: 0508 a5bd a9a1 393d cd00 dfbd b263 2c3d
00000320: dda6 9c3c b109 e7bd 6c83 7e3d 64b9 743d
00000330: 8446 933a 5296 17bd 2e93 1ebc ac5a 3fbd
00000340: c959 44bd ede2 17bd 2048 bebd b181 2abd
00000350: e27c 2abd 1e51 803c 17b6 9dbd e088 1f3c
00000360: e0ac 053d 9bc2 4f3d 9579 cdbc 06b4 6f3a
00000370: f29d bfbd 4a9f 133c 6804 093d fba2 2dbd
00000380: b1f7 9fbc 5a75 4bbd f649 39bd 08a6 10bd
00000390: c5cd 1bbd 4501 bbbb b921 08bd 2286 a6bd
000003a0: e183 12bd 7321 cb3c 253d 3bbd 4bb3 07bd
000003b0: 757e 283d 6cd9 0fbd b8d7 2ebd b424 8bbd
000003c0: cc9f ecb9 2adb 97bd 7dd3 3fbc 73c1 8ebd
000003d0: 00f3 b63a 787a 52bc 25b9 42bd 9164 8a3d
000003e0: dc03 993c 0b96 8abd b836 97bd b91e 8b3c
000003f0: d0ac f4bc 6a0d 90bd 7d12 1a3d 2e5b 3cbc
0.00036640465 -0.003813222 0.08785899 0.0033638643 -0.0056282054 -0.010835924 0.018550409 -0.033964433
-0.04910409 -0.033086937 -0.059450056 0.011407919 0.020728512 -0.009715637 -0.0002842416 -0.04841381
-0.061376423 -0.006313165 0.038994864 0.017472692 -0.065216094 -0.0039636455 -0.013547497 -0.006785607
-0.033248037 -0.04818404 -0.066619374 -0.020602046 -0.046473965 -0.048215933 -0.004630778 -0.0011301319
-0.11741775 -0.07856349 -0.05750409 -0.08905999 -0.076510444 -0.05173751 0.054590136 -0.028809719
0.020272022 0.021611033 0.016571019 0.007325314 -0.0052352725 -0.02876421 -0.05791838 0.07131921
-0.022313494 -0.010814875 -0.047140665 0.016589874 -0.05685229 -0.011520312 -0.063265234 -0.05821064
-0.0320676 0.008042855 -0.10568725 0.04202618 0.034634512 -0.0425272 -0.011446133 -0.072409235
-0.06442099 0.01414257 0.016587555 0.07457438 -0.061287757 0.028432095 -0.0006532564 -0.090357825
-0.06586513 -0.018098349 -0.052013006 -0.045201804 -0.0012382732 0.05731513 0.051337063 0.016448952
-0.105614305 -0.037952628 0.0064909053 -0.039977256 -0.103495106 -0.025270693 -0.052298453 -0.0753274
-0.008969174 -0.047852594 -0.016424136 -0.055996306 0.0013200304 0.009681873 0.031562105 -0.0390496
0.048725203 -0.007773561 0.021500757 -0.08852965 -0.004984465 -0.10094173 -0.066046536 -0.06246247
-0.03424928 -0.05172728 0.03879425 -0.053633675 -0.063598245 -0.07782553 -0.015522493 -0.062383488
-0.011728848 -0.04140389 -0.06836494 -0.011851251 0.0041202805 -0.10482074 0.04126118 -0.034502074
-0.09377541 -0.036364082 -0.056768913 -0.037802342 -0.009972717 -0.066452175 -0.05173131 -0.061121978
-0.11893865 -0.08986823 0.022918593 -0.037377335 0.071975246 0.05115977 -0.07373115 -0.013635387
-0.014660091 0.06563149 0.009070352 -0.046789106 -0.026996339 -0.04249798 -0.020905754 -0.01168412
0.014585824 -0.09137061 -0.01676168 -0.048612505 -0.015842974 -0.042174906 0.021945791 -0.025798595
-0.009228142 0.07870475 -0.045686696 -0.048493683 -0.028199822 -0.03841476 0.019807471 -0.04550828
-0.08644241 -0.053835697 -0.05137116 -0.015646033 0.035989486 -0.08315162 -0.053937286 -0.007528481
-0.0116716325 -0.07791484 -0.0015787466 -0.06366916 0.009211477 0.046814177 0.045678414 0.0058156615
0.012381552 0.033048756 -0.030412735 0.017306585 -0.05184374 -0.019208288 -0.121895954 0.058660775
-0.011116545 -0.03576956 0.017554717 -0.029060505 0.00038559746 0.0017932281 -0.061720505 -0.055060346
-0.03756278 -0.057321627 -0.054199938 0.029936232 -0.0805817 0.045320187 -0.108888246 0.042087264
0.019122535 -0.11281145 0.062137052 0.059747115 0.0011236225 -0.03700859 -0.009678645 -0.04671733
-0.04793719 -0.037081648 -0.092911005 -0.04162759 -0.041623004 0.01566368 -0.077007465 0.009737223
0.03263557 0.0507227 -0.025082389 0.0009143952 -0.093562976 0.009010145 0.033451468 -0.04239176
-0.019527288 -0.049672462 -0.04523655 -0.03531459 -0.038038034 -0.0057069384 -0.033235285 -0.081310526
-0.0357703 0.024796223 -0.04571261 -0.03312997 0.041136224 -0.03511946 -0.042686194 -0.0679411
-0.00045132486 -0.07414849 -0.011708138 -0.06970491 0.0013957918 -0.012846582 -0.04753985 0.06757463
0.018678598 -0.067669 -0.07383484 0.016982423 -0.02986756 -0.070338085 0.037615288 -0.011496348

linear2.bias f4 [256]
00000000: a345 1eb9 07a0 a9bc f9ad a0bd 562f 7bbd
00000010: 8e53 43bd 7030 febd 6ed3 9fbc 63a2 4bbd
00000020: 25ae 66be e255 8bbd 8f62 be3d 54c0 83bd
00000030: c231 9ebd 9cde d2bc 7eda 4fbd 834d 0abe
00000040: 7306 0cbe bc2c 8ebd 04b6 edbc 35bb 793b
00000050: 8731 48be 3078 babd 4a2d b83e f4fd 11be
00000060: d7a6 fbbd 1018 02bd 6f9b 5ebd a600 2fbd
00000070: 3a33 6bbd 701a cabd 25be cbbd 28e4 1b3e
00000080: 30ed 36be a949 2abe d427 2cbd b55f bcbb
00000090: 4608 1fbe 8e15 bb3d 4234 d93b 7ec4 cdbd
000000a0: 6926 94bd f10d 05bd 9c79 b2bd f382 9cbd
000000b0: 3f0b 22be f2cd 92be 15bc d6bd b474 853e
000000c0: a3f2 68bb 973c 0fbe 9f63 483c 484a bcbd
000000d0: c822 2abd 3706 cebd 12b8 c1bd d84b 2dbd
000000e0: f0af 72bd dd2e 38bd b419 33bd 1117 83be
000000f0: 9dee 9f40 bb4b a6bc 0976 87bd 23ad afbd
00000100: 4879 01be d6cc bb3c 1788 d0bd 4fc6 c6bb
00000110: 50f5 94be c476 42be dce9 c2bd 4102 4ebd
00000120: 72c6 1bbe 71f7 efbc 325a febd e6ff 9fbe
00000130: 0e54 e4bd aced cfbd 7f63 1abd d924 d6bd
00000140: bb88 6440 a273 8d3e 78cd 9c3c a892 a0be
00000150: e23e e2bd 60d4 0dbd 535d 4dbd fb23 33bd
00000160: 9b47 95bd 169e 95bd 272a 42bd f307 3cbd
00000170: 7d1b 49be db9a e1bd 83dd 0ebe 45b7 aebd
00000180: 7f0c 13bd 910b f3bd 007e a5bd 9711 dabc
00000190: 8c9f 1dbd ab32 b2bc 1bbc 94bd 30d2 81bd
000001a0: 920f bf3f 4f8d 3abd 991e 55bd c703 89bd
000001b0: 53c0 7e3c 92f1 26be ecd9 64bd bfaf 7cbd
000001c0: 235f 33bd f525 e5bc 5fd9 0fbe 2d29 cabd
000001d0: 6f85 39bd 5ee3 cebd 458d 76bd 570a 55be
000001e0: bc09 22bd 2fed 14bc 86b9 b5bd 4f35 3bbe
000001f0: 4539 a8bd f3dd c4bd 86ac c53e ce65 263c
00000200: df14 c4bd fd92 1e3c d60d 77bd c551 9fbe
00000210: cbc4 ffbe 107d 27bd 5fe9 dcbe 393e 1040
00000220: 10a9 c4bd 8359 e3bd 0c2f 94bb 8324 83bc
00000230: d9e5 d1bd b9e9 83bd e2da 81bd c980 73bd
00000240: 1bcf b7bd d8a5 33be ecf5 a3bd 5283 51bc
00000250: ae2f 42bd ddc6 b8bd eb8f 44bd 6d7b 94be
00000260: 1d32 cebd 5a65 9fbd 7410 afbd 7dc8 18bd
00000270: 6e73 98bd d504 a5bd c5c5 1a3f 8280 d3bc
00000280: a559 a8be 9c83 4dbd bb3f 9bbd d8b4 dbbd
00000290: 1ad4 31be faf3 d23c d79c 8bbd 5fd9 4fbd
000002a0: 3f4f e6bd 4497 82be 79d7 ddbd 6612 f8bc
000002b0: 4beb 0e3f 9cbe b6be 3f9c 28be ae52 d1bd
000002c0: 4811 afbd 45d4 a73e 0d5b 9bbd 4dc9 98be
000002d0: 8b54 9ebd 348a 39bd a9ca fdbd 2fca 08bf
000002e0: 88aa 94bd 4cd2 8cbd 92be 9c40 d016 babd
000002f0: 70d5 f0bd 206c 90bc 6c62 473e 9371 4ebc
00000300: 3678 51bd 0754 21be 3f8d 97be 84a3 66bc
00000310: 0cac adbd 80d6 50bd f778 89bd cc6a eebd
00000320: 04a9 c8bd 146c d1bd 1f78 b6be a3d0 54be
00000330: b8a3 77be fa48 a5bd d096 6fbd 2c45 81be
00000340: 0a88 49be 127e c0bd 2d31 b8bd 53c4 bb40
00000350: 3b3f d0bd d92f ba3b 2ea5 af3c 6cf1 91bd
00000360: 45c7 f13e f395 a4bd fe55 9cbd b3b3 cbbc
00000370: 2726 663b 9656 97bd aaee 0040 5092 44bd
00000380: 2d96 8bbc 0f5f d0bd 726e 84bd 5e41 8d3c
00000390: 36dd 04be b114 f4bd b4e2 a6bd 98a1 e0bc
000003a0: 7a55 4dbe a1cb 6cbd 3c5a c0bc ba48 05be
000003b0: 6c80 44be b1dc 85bd de69 68be 61ad d03d
000003c0: f194 69be 7d33 98bd 30fc 74bd 02a9 f5bd
000003d0: f703 e8bd dc83 24bc c1e4 63bb 6f80 94bd
000003e0: d0c8 45bd 510f cfbd 69da 80be 4507 0abe
000003f0: bd87 5abe ac48 e9bd 049a 70bd eadf e7bd
-0.00015093996 -0.02070619 -0.07845683 -0.06132444 -0.047687106 -0.124115825 -0.019509997 -0.04971541
-0.22527368 -0.0680349 0.09296142 -0.06433168 -0.07724334 -0.025740914 -0.05074548 -0.13506131
-0.13674335 -0.06942126 -0.029017456 0.003810597 -0.19550143 -0.09104955 0.35972053 -0.14257032
-0.122876815 -0.03176123 -0.05434745 -0.042725228 -0.0574219 -0.09868324 -0.099483766 0.15223753
-0.17863917 -0.16629662 -0.04203017 -0.005748714 -0.155305 0.091349706 0.006628544 -0.100472435
-0.07233889 -0.032484 -0.087146014 -0.07642164 -0.15824603 -0.2867275 -0.104850926 0.260656
-0.0035545013 -0.13987957 0.012230783 -0.091938555 -0.041537076 -0.10059779 -0.09458937 -0.04230866
-0.05924982 -0.044966567 -0.043725684 -0.25603536 4.9978776 -0.020299783 -0.0661431 -0.08577945
-0.12643921 0.022924822 -0.10182207 -0.0060661207 -0.2909341 -0.18990618 -0.095172614 -0.05029512
-0.1521242 -0.029292794 -0.12419547 -0.31249923 -0.11148845 -0.10152754 -0.037692543 -0.10456247
3.5708454 0.27627283 0.019140944 -0.3136189 -0.1104715 -0.034626365 -0.05013783 -0.043735486
-0.07289048 -0.07305543 -0.04740348 -0.04590602 -0.19639392 -0.110158645 -0.13951688 -0.0853105
-0.03590059 -0.118674405 -0.08080673 -0.026619716 -0.038482234 -0.021752676 -0.07262441 -0.06338918
1.4926627 -0.04554492 -0.052031133 -0.066901736 0.015548783 -0.1630309 -0.05587189 -0.061691042
-0.0437919 -0.0279722 -0.14047764 -0.09871135 -0.045293268 -0.101019606 -0.06019332 -0.20804726
-0.039560065 -0.009089752 -0.088732764 -0.18282054 -0.08214048 -0.09612646 0.38608187 0.010156108
-0.09574293 0.009678599 -0.06031593 -0.31117073 -0.4995483 -0.040890753 -0.43146798 2.2537978
-0.096025586 -0.111010574 -0.00452221 -0.016008621 -0.10248918 -0.064410634 -0.06340577 -0.05944899
-0.08975049 -0.17543733 -0.0800589 -0.012787657 -0.047408752 -0.09022305 -0.047988813 -0.29000416
-0.10068152 -0.07783003 -0.0854806 -0.037300576 -0.074438915 -0.08057562 0.6045802 -0.025818113
-0.32880893 -0.05017434 -0.07580515 -0.107278526 -0.17366067 0.025751103 -0.06817024 -0.05074441
-0.11245584 -0.25506032 -0.10832114 -0.03028221 0.5582778 -0.35692298 -0.16465853 -0.10220848
-0.08548218 0.32779136 -0.07585726 -0.2984108 -0.07730969 -0.045297816 -0.1239217 -0.5343351
-0.07259089 -0.068760484 4.898263 -0.090863824 -0.1175946 -0.017629683 0.19471139 -0.01260032
-0.051140033 -0.1575471 -0.2959995 -0.014077071 -0.08480081 -0.050985813 -0.06712525 -0.11641464
-0.09797862 -0.102256924 -0.3563852 -0.20782714 -0.24183547 -0.0807056 -0.058493435 -0.25248086
-0.19680801 -0.09399046 -0.089937545 5.8677154 -0.1016831 0.0056819734 0.021441069 -0.07126126
0.47222343 -0.08036413 -0.07633589 -0.02486596 0.0035117955 -0.07389562 2.014567 -0.047991097
-0.017039383 -0.10174381 -0.06466378 0.017243084 -0.1297501 -0.11918009 -0.08148709 -0.027420804
-0.20052138 -0.057811383 -0.023480527 -0.13016024 -0.19189614 -0.06536234 -0.22696635 0.101893194
-0.22810723 -0.074316956 -0.059810817 -0.11995126 -0.11328881 -0.010041203 -0.00347738 -0.07251059
-0.048287213 -0.10110343 -0.25166634 -0.13479336 -0.21340843 -0.11390814 -0.05874063 -0.11322005

linear3.weight f4 [3, 256]
00000000: d485 063c 2b30 46bc fadc dabb 56e0 6a3d
00000010: 7354 08bb 25af 17bf 5bcc 943c d17d 04bd
00000020: d683 b63c 00a1 23bc 5608 cbbf 13be d63c
00000030: 0e43 0bbc d214 b4bb f4c2 1d3b 7214 b8be
00000040: 5eb9 d33b 70b8 07bc 7591 21bd 5238 583d
00000050: b31a 92bd 7224 253d 1a20 1b3e 1599 d4bd
00000060: 3977 37bb d010 8bbb b135 313d e871 7bbc
00000070: 70f0 5bbc 7aff ac3c bb91 c23c 4d6d 753d
00000080: 99f8 73bc 982a 14bf 273b 44bd 50eb 103d
00000090: 22a1 a0bc 9cd8 043d 82fa 1dbd fb35 aabe
000000a0: 60be 4a3b 0d56 d43c 0ece 4bbd 18f6 803c
000000b0: 4a83 36be f8a0 5fbe 6c56 7b3c fc9e 853b
000000c0: b453 7d3c 195c fbbb 7da7 8f3c 3604 563c
000000d0: 5b38 8a3b 8831 f53c 5f68 f3bc e9dd fc3b
000000e0: 9415 d9bc 5526 e4bc 2291 c63c b49e 82bf
000000f0: 6241 b23e 1aec 55bf 170a 813c 5edc e9bd
00000100: dec4 d53c 5298 d63c 1033 bdbd 237d a73c
00000110: 9d0b c3be 2642 96bd d6f6 053c 0f00 373d
00000120: c082 e1bb 164e e6bb 6eba 0b3c e1f1 cfbf
00000130: bebc 95be a4f2 0dba cf92 00bd 2264 003d
00000140: 3de3 923e cc59 063d 8173 77bc 5946 ccbe
00000150: cb0a 92bc 3733 783c 9ce5 c7bc caf3 18bc
00000160: a29b 413d f1ee 863c f60c ed3a 3b9c 1d3c
00000170: 7432 9fbd acd1 d6bd 6a24 f13c bf2a fe3d
00000180: a262 033d 21ac c83c 30b0 05ba 9db1 16bb
00000190: 2250 87bc 2985 d13b 1e59 bcbc 7f9e 8bbb
000001a0: f2f9 c1bc ff5b 8a3c ef70 773c a84f 26bd
000001b0: 7660 77bd fdd0 883c 79a3 c73c a2c4 c0bb
000001c0: 0d5d 953d 6319 f9bc 30fe 88bd 601b d43c
000001d0: 7127 33bd 9294 18bd cd91 21be b7d9 7ebd
000001e0: cdda 3c3d 658a ac3d 8e39 f63a 6e6e 7a3b
000001f0: 621c 46bb 5029 153d f85c 4d3a 3122 01bc
00000200: 4354 7c3c a60b 10bd 7681 ad3c a7e3 78bd
00000210: bbf1 e4be bfa0 d8bb 56e7 b1bc 31bd a0bc
00000220: 2e25 d73c 236f 42be 5bf5 313b b707 fbbf
00000230: 3d20 b6bc fb70 3c3c 8b1d 883d b00b fc3c
00000240: cf9b b6bc 6e74 a0be 3d2c d9bb 9c05 ba3c
00000250: 4ce3 873d eb87 44bc d76f e9bb 8c93 67bd
00000260: 08e7 3fbb d388 e23c bcaf e5bd c028 9cbc
00000270: 508f 40bd 603c 113d 85c8 b83d dc7e 07bc
00000280: 8801 8ebe 58bd d9bc 0727 e4bc 0567 12bd
00000290: 5b98 413e f793 bc3c b117 fc3c ce70 f53c
000002a0: 54bb e53c c505 7dbd 1291 cc3a 0c8e 293e
000002b0: bf82 843c 1281 2e3d 7a3b 2d3d 609f 11bf
000002c0: 25a1 183c 517b 26bd 80fd dbbc a225 f53d
000002d0: 007e 45ba 872b 51bc 442d a63c 457e 8b3e
000002e0: e2a2 603d 487d 033c 99f1 bb3e 4e06 e83c
000002f0: dbd8 393c 4b9c 263d 577b d73c 9f35 263b
00000300: f0ac b13c b115 213d f013 81bc b911 76bb
00000310: 0fd8 c33b 5638 f33c 147d 4d3d 9dcc 9bbc
00000320: 291d 233c 6ead cdbc e54b 25be 8859 9fbc
00000330: 4249 7dbd 3d18 3e3b a8bc 00bd d145 1bbf
00000340: eacc a33d 6860 d73d 167b 133d d34a ca3e
00000350: e4d3 f4bb 816d 693a 6a24 713d 37d5 fd3c
00000360: 900f f33b adfd f3bc cd80 3a3c 662d cdbc
00000370: ce5c a53b 3139 b6bc 9ea6 f5bc c02a 0f3d
00000380: b565 2dbc eb3f 81bd 9d50 34bc 719b 233c
00000390: 745b d03c c6c3 bcbc 93af 93bc 0a2e 74bc
000003a0: a2c5 abbc 35fa 1ebb 2e54 ec3c 8f07 b93e
000003b0: fbe8 acbc 3b74 abba 15e6 edbd 84a9 bfbc
000003c0: 559a 85bd a7c2 e3bb 96c8 7c3d 52e3 9cbc
000003d0: d2da 54bd 1872 e0bc b0f2 4abd e8dc ad3c
000003e0: 2b8a c4b8 a63b 503c c47c 97bd a9b2 44bd
000003f0: 6634 8d3c be83 283c 962b b2bc f755 263c
0.008210618 -0.012096445 -0.0066791745 0.05734285 -0.0020802289 -0.59251624 0.01816385 -0.03234655
0.022279661 -0.009987116 -1.5861919 0.026213681 -0.008499874 -0.005495646 0.00240725 -0.359531
0.0064613065 -0.008283719 -0.03944536 0.052788086 -0.07133999 0.04031796 0.15148965 -0.103807606
-0.0027994646 -0.0042439476 0.043264095 -0.015346982 -0.013424024 0.021117914 0.02375113 0.05991869
-0.014890813 -0.5787749 -0.047907975 0.03538066 -0.019608084 0.032433137 -0.03856898 -0.3324431
0.0030936226 0.025919938 -0.049757056 0.015742347 -0.1782352 -0.21838748 0.015340429 0.0040777903
0.015461851 -0.007670891 0.01753592 0.013062527 0.004218144 0.029930845 -0.029712854 0.0077168834
-0.026499547 -0.02785031 0.024239127 -1.0204682 0.34815508 -0.8356339 0.015751882 -0.11418985
0.02609485 0.026195679 -0.09238255 0.020445412 -0.38094798 -0.073368356 0.008176526 0.04467779
-0.0068820417 -0.0070283515 0.008528335 -1.624569 -0.2924556 -0.00054148794 -0.031390008 0.031345494
0.28688994 0.03280048 -0.015103222 -0.3989742 -0.017827412 0.015148929 -0.024401478 -0.009335468
0.047267564 0.016471358 0.0018085528 0.009619768 -0.07773295 -0.104892105 0.029436309 0.12410497
0.032076485 0.02449614 -0.00050998013 -0.002299405 -0.016517702 0.0063940478 -0.022991713 -0.0042608376
-0.023678754 0.01688957 0.015102609 -0.04060331 -0.060394727 0.016701216 0.024369942 -0.0058828155
0.07293139 -0.030407613 -0.066891074 0.02589196 -0.043738786 -0.037251063 -0.15778275 -0.062219348
0.046107102 0.08424834 0.0018785463 0.0038212794 -0.003022932 0.03641635 0.0007833983 -0.007881687
0.015400949 -0.03516736 0.021179896 -0.06076398 -0.44715676 -0.0066109593 -0.021716755 -0.019621463
0.026262846 -0.18987708 0.00271543 -1.9611729 -0.02223217 0.011501546 0.0664626 0.030767292
-0.022291092 -0.3133883 -0.006627588 0.022707753 0.0663515 -0.011995296 -0.007123928 -0.056537196
-0.0029281992 0.027653133 -0.11215159 -0.0190624 -0.047011673 0.03545797 0.09022621 -0.008269992
-0.27735543 -0.026579544 -0.027850641 -0.03574278 0.18905775 0.023019774 0.030773016 0.029961016
0.028043427 -0.06177308 0.0015607199 0.16558093 0.016175626 0.04260356 0.04229305 -0.5688381
0.009315764 -0.040644947 -0.026854277 0.119700685 -0.0007533729 -0.012766725 0.020285256 0.27244774
0.054842837 0.008025475 0.36707762 0.028323319 0.011343206 0.040676396 0.02630393 0.002536155
0.021688908 0.039327327 -0.015756577 -0.0037547185 0.005976684 0.029689949 0.050168112 -0.019018466
0.009955683 -0.025107112 -0.16142233 -0.019451872 -0.061837442 0.0029006146 -0.031429917 -0.60653406
0.07998069 0.10516435 0.036006056 0.3951021 -0.0074715484 0.0008904562 0.058872618 0.030985458
0.0074176267 -0.029784048 0.011383248 -0.025046062 0.0050464636 -0.022244068 -0.029986676 0.03495288
-0.010583331 -0.063110195 -0.011005548 0.009985791 0.025434233 -0.02304257 -0.018028056 -0.014903555
-0.020968262 -0.0024258022 0.028848734 0.3613858 -0.021107187 -0.0013080904 -0.1161615 -0.023396261
-0.06523577 -0.0069506946 0.06171473 -0.019151364 -0.051966496 -0.027398154 -0.04954785 0.0212235
-9.371744e-05 0.012709534 -0.07396844 -0.048021946 0.0172369 0.010285316 -0.021749299 0.010152332

linear3.bias f4 [3]
00000000: fe8f 0d3f 82f9 903f 6e47 843f
0.5529784 1.1326144 1.0334299
