checkpoint_game_500.pth (torch, 281408 bytes, 6 tensors)

linear1.weight f4 [256, 11]
0	0xbe540c29	-0.20707764
1	0x3e377a97	0.17917858
2	0xbdff4a64	-0.12465361
3	0x3e16ad35	0.1471451
4	0x3db32b12	0.087484494
5	0x3dedbb3b	0.11607977
6	0xbe457244	-0.1928187
7	0xbe286009	-0.16442885
8	0xbddf3d11	-0.10900319
9	0xbe16199c	-0.14658207
10	0xbe878f9d	-0.26476756
11	0x3e462ee1	0.1935382
12	0x3e05a227	0.13050137
13	0xbe1df010	-0.15423608
14	0xbdf66edd	-0.12032864
15	0xbcbc4db9	-0.02298628
16	0xbd7d6e81	-0.061872963
17	0xbe43cd14	-0.191212
18	0xbd3d3cb9	-0.046200488
19	0xbe8207e9	-0.2539666
20	0xbc781e3a	-0.015143925
21	0xbe30ad07	-0.17253505
22	0x3db6d457	0.08927219
23	0x3d0186b5	0.031622607
24	0x3d6c59ed	0.057702947
25	0xbece97a3	-0.40350065
26	0x3e3436a5	0.1759897
27	0xbe76fdd8	-0.24120271
28	0x3ef697be	0.48162645
29	0xbe482240	-0.19544315
30	0xbef35924	-0.47528946
31	0xbf189104	-0.59596276
32	0x3e6d0c4d	0.23149224
33	0x3cc1f220	0.023675025
34	0x3eabc765	0.33550563
35	0x3e8bf324	0.2733394
36	0x3ded0162	0.115725294
37	0x3df6335c	0.12021515
38	0xbf05a723	-0.52208155
39	0xbe678183	-0.22607999
40	0x3de18a0b	0.11012658
41	0x3e038b12	0.1284602
42	0xbeac9f4e	-0.3371529
43	0xbe9c05e1	-0.30473235
44	0x3e83971a	0.2570122
45	0xbdf54709	-0.119764395
46	0xbe53e780	-0.20693779
47	0x3d89821e	0.06714271
48	0x3db2783f	0.08714341
49	0xbea1f843	-0.3163472
50	0x3ee61631	0.44938806
51	0xbdd6400d	-0.104614355
52	0xbebb2bf9	-0.36556986
53	0x3df44d4a	0.11928804
54	0xbe8ccac9	-0.27498463
55	0x3c5212b2	0.01282184
56	0x3ea8fac9	0.33003834
57	0xbe9ac2e5	-0.30226818
58	0xbee2efa9	-0.4432347
59	0x3cdc569c	0.026896767
60	0xbf073572	-0.52815926
61	0x3e1e6e94	0.1547187
62	0xbe1bcddc	-0.15215248
63	0xbe476e3a	-0.19475642
64	0x3cf08170	0.029358596
65	0xbef16ada	-0.47151834
66	0x3eee718a	0.46570998
67	0xbea41234	-0.32045138
68	0xbe25d9e5	-0.16196401
69	0x3e2f8e1d	0.17144056
70	0xbe2ca168	-0.16858447
71	0xbe943755	-0.28948465
72	0xbe8d54af	-0.2760367
73	0xbdf92be8	-0.121665776
74	0x3e2bc463	0.16774134
75	0x3eb63bdb	0.3559254
76	0x3eae77c0	0.34075737
77	0xbe551731	-0.20809628
78	0x3de86122	0.113466516
79	0x3e9b7ff2	0.30371052
80	0xbe5331f0	-0.20624518
81	0xbe01c2c3	-0.12671952
82	0x3ea2c700	0.3179245
83	0x3eb80f91	0.35949376
84	0xbe1ca990	-0.15299058
85	0xbef0ebe3	-0.47054967
86	0x3eb0bae5	0.3451759
87	0x3da9312d	0.08261333
88	0x3ea4ebb7	0.32211086
89	0x3d60ccdb	0.054882865
90	0xbdfd8283	-0.12378409
91	0x3e8161dc	0.25269973
92	0x3e931459	0.28726462
93	0xbeb74e86	-0.35802096
94	0xbea2c03b	-0.31787285
95	0xbf1fd28e	-0.62430656
96	0xbeda0165	-0.4257919
97	0x3e396e47	0.18108474
98	0x3ea10a66	0.31453246
99	0xbe0c023d	-0.13672729
100	0x3f0b5b76	0.54436433
101	0x3f108678	0.56455183
102	0x3c8d3cf9	0.017240988
103	0xbe73ae82	-0.23797038
104	0xbdf0f565	-0.11765555
105	0xbe1bc9db	-0.1521372
106	0x3da85bd1	0.082206376
107	0xbded2ba1	-0.11580587
108	0xbdda9284	-0.10672477
109	0xbdbeb4d5	-0.09311835
110	0xbdc040c2	-0.093873516
111	0xbd82bab1	-0.06383265
112	0xbe66f804	-0.22555548
113	0xbe88bdc6	-0.26707286
114	0x3eb20400	0.34768677
115	0x3e3b5694	0.18294746
116	0xbc5b5e15	-0.01338913
117	0xbdebb5b8	-0.115092695
118	0xbe6e3fcf	-0.23266529
119	0x3ee66aca	0.4500335
120	0xbd8ca0d8	-0.06866616
121	0xbe8b760a	-0.27238494
122	0x3edcbbe3	0.43112096
123	0xbe0d90c5	-0.13824756
124	0x3e178a43	0.14798836
125	0x3e342731	0.17593075
126	0xbe3c8d3f	-0.18413256
127	0xbf1756cb	-0.5911681
128	0x3e90944b	0.2823814
129	0x3e8b4dc5	0.2720777
130	0xbeb0ea4c	-0.34553754
131	0xbe8e7cee	-0.2782969
132	0xbe29400e	-0.16528341
133	0x3e710ed6	0.23540816
134	0x3d0729b0	0.03299874
135	0xbe53b9be	-0.20676324
136	0xbed97ece	-0.42479557
137	0xbe373f0e	-0.17895147
138	0xbe0e9da8	-0.13927329
139	0xbdaae468	-0.08344346
140	0xbcd3b16b	-0.025841435
141	0xbe6dbee8	-0.23217356
142	0xbe582fc4	-0.21111971
143	0x3ddd7d5f	0.10814928
144	0x3e7d04cc	0.24708861
145	0xbd73ee4d	-0.059553433
146	0x3d4d1eb8	0.050078124
147	0x3c4907a3	0.012269887
148	0xbe50c192	-0.20386341
149	0x3cee406f	0.029083459
150	0x37f1a9ef	2.880857e-05
151	0xbe031c9c	-0.12803882
152	0x3d9bb417	0.07602709
153	0xbe534449	-0.20631517
154	0x3eb62510	0.3557515
155	0x3e2e90a3	0.17047362
156	0xbe8e5442	-0.2779866
157	0x3e46f474	0.19429189
158	0xbe9e65e7	-0.3093712
159	0x3ebc487e	0.36774057
160	0xbe872fb4	-0.26403582
161	0xbdbc4d7f	-0.09194469
162	0xbe93fbf2	-0.28903157
163	0xbf121e28	-0.57077265
164	0x3dac7576	0.084208414
165	0xbe943123	-0.28943738
166	0x3d7f8984	0.062387004
167	0x3e04a6fd	0.12954326
168	0xbee7014b	-0.45118174
169	0x3e9e0801	0.30865481
170	0x3ead1b2c	0.33809793
171	0x3e5cae93	0.2155097
172	0xbec83f3f	-0.39110753
173	0xbead5817	-0.3385627
174	0xbeb9bbb3	-0.36276016
175	0xbb2c3c4e	-0.0026281062
176	0x3dcd6e2c	0.10030779
177	0x3e1a8ec9	0.1509353
178	0xbda5ad0d	-0.080896474
179	0x3deacb0a	0.11464508
180	0x3dc44776	0.095839426
181	0x3e6e1439	0.23249902
182	0xbecfb26d	-0.40565816
183	0xbec3ee40	-0.38267708
184	0xbec2f01c	-0.38073814
185	0x3e2fc3b9	0.17164506
186	0xbeba4f6f	-0.36388728
187	0xbc58ae1d	-0.013225106
188	0xbeaee3a7	-0.3415806
189	0xbe5890c9	-0.21148981
190	0x3d7351d8	0.059404224
191	0xbcdb7b47	-0.026792182
192	0xbe42ad68	-0.19011462
193	0x3e22feb5	0.15917476
194	0xbc1d1939	-0.009588533
195	0xbeca7289	-0.39540508
196	0x3e5a9f45	0.21349819
197	0x3e3a2412	0.18177822
198	0x3e9f04e0	0.31058407
199	0xbe6a4b00	-0.22880173
200	0x3dd5cfab	0.1044
201	0xbe9624b7	-0.29324886
202	0x3ed77f33	0.42089233
203	0xbef305b3	-0.47465286
204	0xbeed5a8e	-0.4635815
205	0x3ed2b5e6	0.41154402
206	0xbe3ed08a	-0.18634239
207	0xbec36abb	-0.38167366
208	0xbec6e194	-0.38843977
209	0xbed610eb	-0.41809782
210	0xbeaddf4c	-0.33959424
211	0xbd1ec37f	-0.03876066
212	0x3c13908c	0.009006631
213	0xbcb3b7a3	-0.02193815
214	0x3dcd6ee5	0.10030917
215	0xbe23dd42	-0.16002372
216	0xbe61c6a2	-0.22048429
217	0xbe4e08e3	-0.20120578
218	0xbc9575fc	-0.018244736
219	0x3e081463	0.13289027
220	0x3b42db5f	0.0029732806
221	0x3e76cffa	0.24102774
222	0xbd841fda	-0.06451388
223	0x3da6b58e	0.081400976
224	0xbf0487ea	-0.5176989
225	0xbe88b231	-0.2669845
226	0xbddd2c8e	-0.10799514
227	0xbec82241	-0.39088634
228	0xbe8bc269	-0.2729676
229	0xbacdde8c	-0.0015706583
230	0x3d6a3f7d	0.057189453
231	0xbce50dc5	-0.027960667
232	0x3f115fa1	0.56786543
233	0xbe33f3fa	-0.17573538
234	0x3ea734e6	0.32657546
235	0xbe613568	-0.21993029
236	0xbda6bfc8	-0.08142048
237	0x3e45a5cc	0.19301528
238	0xbd12b1b1	-0.03581399
239	0x3dc5fa42	0.096668735
240	0xbe954811	-0.29156545
241	0x3e689fe0	0.22717237
242	0x3eb4f414	0.35342467
243	0xbe881be5	-0.26583782
244	0x3e8ddf24	0.27709305
245	0xbf0d8dcf	-0.5529451
246	0xbe04475b	-0.12917845
247	0xbe517b52	-0.20457199
248	0x3e4284ac	0.18995923
249	0x3e568082	0.2094746
250	0x3c74597d	0.014913914
251	0xbea36a67	-0.31917116
252	0xbed4778b	-0.41497454
253	0x3eb4667c	0.3523444
254	0x3edaa3ac	0.42702997
255	0x3ef22aa8	0.4729817

linear1.bias f4 [256]
0	0xbe9d2207	-0.30690023
1	0xbeb06a55	-0.34456125
2	0xbc6ae2e9	-0.014336326
3	0xbd78681f	-0.060646173
4	0xbec2448c	-0.37942922
5	0x3b94555b	0.0045267767
6	0xbe06170c	-0.13094729
7	0xbe8b6340	-0.2722416
8	0xbd8ac5f0	-0.06776035
9	0x3de967ab	0.11396726
10	0xbe52464f	-0.20534633
11	0xbc233278	-0.009960763
12	0xbe13e4e9	-0.14442791
13	0xbef7aa91	-0.4837232
14	0x3d4e5f41	0.05038381
15	0x3e1d04d1	0.15333869
16	0x3ccfad98	0.02535133
17	0xbdd960f3	-0.10614195
18	0xbeaf343c	-0.3421954
19	0xbe4142a8	-0.18873084
20	0x3d0b5cdd	0.03402411
21	0xbd54fffb	-0.052001934
22	0xbd81d5b2	-0.06339587
23	0xbdba6939	-0.09102101
24	0xbd3786aa	-0.04480616
25	0x3d78940f	0.060688075
26	0xbcb73777	-0.022365315
27	0xbd0cf14b	-0.034409802
28	0xbe9ff401	-0.31240848
29	0x3e5dae17	0.21648441
30	0xbe0be7e9	-0.13662685
31	0x3b284d5b	0.0025680873
32	0x3c9841f4	0.018586136
33	0x3ebb53a1	0.3658724
34	0xbccc8abf	-0.024968503
35	0xbe373ab8	-0.17893493
36	0xbd1cbf38	-0.038268298
37	0x3e88b91f	0.26703736
38	0xbe9db2d4	-0.30800498
39	0xbdf534ca	-0.11972959
40	0xbe001816	-0.12509188
41	0x3d9f28fe	0.077714905
42	0x3e30a03d	0.17248626
43	0xbe384b74	-0.17997533
44	0xbe7b44a6	-0.24537906
45	0xbdb2f991	-0.08739007
46	0xbe2d977e	-0.16952321
47	0xbe4797ab	-0.1949145
48	0x3b61018a	0.0034333193
49	0xbe3da2ac	-0.18519086
50	0xbd754637	-0.059881415
51	0xbeb60370	-0.35549498
52	0xbc1d01d6	-0.009582957
53	0x3db8ba5f	0.090199225
54	0x3f0320c1	0.51221853
55	0x3f299cf6	0.6625513
56	0xbdd6f22d	-0.1049541
57	0xbe053959	-0.13010158
58	0x3f267f0e	0.6503762
59	0x3dc57c8d	0.09642897
60	0xbc0eaa05	-0.008707528
61	0xbe77535c	-0.24152893
62	0xbe361271	-0.17780472
63	0x3c29cc1f	0.010363608
64	0xbe1ae90a	-0.1512796
65	0xbe8ed853	-0.27899417
66	0xbe94945b	-0.29019436
67	0xbd0012dd	-0.03126799
68	0xbdb29a38	-0.08720821
69	0xbe44b20c	-0.19208544
70	0x3e43b0d6	0.19110426
71	0x3ec39619	0.38200453
72	0x3f2f5d69	0.6850191
73	0xbe704b5b	-0.23466246
74	0xbe37a458	-0.17933786
75	0x3d6c3c4c	0.05767469
76	0xbe6a2a66	-0.22867736
77	0xbd6249ab	-0.055246036
78	0xbe68add9	-0.22722568
79	0xbec06681	-0.37578204
80	0x3e622055	0.22082646
81	0x3e9a690b	0.30158266
82	0xbdbfb339	-0.09360356
83	0x3d057ab0	0.032587707
84	0x3e543773	0.20724277
85	0xbe685d58	-0.22691858
86	0x3e3b67a9	0.18301262
87	0xbe855cf5	-0.26047483
88	0x3eebb1ef	0.4603419
89	0xbe3aeda2	-0.18254712
90	0xbdea8a70	-0.11452186
91	0x3e365a2a	0.17807832
92	0x3ddcb04f	0.10775816
93	0xbc95310b	-0.018211862
94	0xbe419cd5	-0.18907483
95	0xbedb3024	-0.42810166
96	0xbebe2b50	-0.3714242
97	0xbe161545	-0.14656551
98	0xbe3345e8	-0.17507136
99	0xbee109e1	-0.4395285
100	0xbe28c6ff	-0.16482161
101	0x3e02b91c	0.12765926
102	0x3e54e309	0.20789732
103	0xbe46249f	-0.19349907
104	0x3e75084f	0.2392895
105	0x3ed65f17	0.41869423
106	0x3b8396a1	0.004015759
107	0xbe157c52	-0.14598206
108	0x3d9fd5ef	0.078044765
109	0xbeb6d462	-0.3570891
110	0xbe6f0a01	-0.2334366
111	0xbd4ee96d	-0.05051558
112	0xbd6652eb	-0.05623142
113	0xbc6fd08a	-0.014637122
114	0xbd14d134	-0.036332324
115	0x3e1388b2	0.14407614
116	0xbd62ed3e	-0.055402033
117	0x3f320d59	0.69551617
118	0x3c0045f8	0.007829182
119	0xbe997f3f	-0.29979894
120	0x3eb6bbcb	0.3569015
121	0x3df9cc17	0.1219713
122	0xbe133897	-0.14377056
123	0xbd69221b	-0.05691729
124	0xbd9fe5c1	-0.07807494
125	0xbe9aaee2	-0.3021155
126	0xbdb4fb1d	-0.088369586
127	0xbd1ea2f4	-0.038729623
128	0x3f1623c4	0.58648324
129	0xbe447a30	-0.19187236
130	0xbd7c4606	-0.061590217
131	0xbd9b970c	-0.07597169
132	0xbe3899ad	-0.18027373
133	0x3d3a69b4	0.045510963
134	0xbe811b46	-0.2521612
135	0xbe39a8f7	-0.18130861
136	0x3b6f28ea	0.0036492893
137	0x3e38a404	0.18031317
138	0x3e1144d4	0.14186412
139	0x3f220cdd	0.6330088
140	0x3d991efb	0.07476612
141	0x3ca2df47	0.019881858
142	0x3e380aa0	0.17972803
143	0xbebeb2a9	-0.37245682
144	0x3bc6028c	0.006042784
145	0xbe87e10b	-0.26538882
146	0x3f80db82	1.0066988
147	0xbdbdca24	-0.09267071
148	0xbe0437ef	-0.12911962
149	0x3e629003	0.22125249
150	0xbd7baece	-0.061446004
151	0x3e43a0a6	0.19104251
152	0x3d12eb55	0.03586896
153	0xbe1fbc13	-0.15599088
154	0x3cede5fd	0.029040331
155	0xbda9193d	-0.08256767
156	0xbe3b9327	-0.18317853
157	0xbda6b166	-0.08139305
158	0x3e0408b5	0.12893946
159	0x3c926b12	0.01787332
160	0x3d073492	0.03300912
161	0x3e897498	0.26846766
162	0xbe6fa1eb	-0.2340161
163	0xbe9c6db4	-0.30552447
164	0x3d4e375d	0.050345767
165	0x3f0b14a3	0.54328364
166	0xbe9d8260	-0.3076353
167	0xbe305960	-0.17221594
168	0xbe861f0f	-0.2619557
169	0xbdb2a5de	-0.08723043
170	0xbd8a3431	-0.06748236
171	0x3eb08f80	0.34484482
172	0x3e239d0e	0.1597788
173	0xbc92fded	-0.017943347
174	0x3da5686b	0.08076557
175	0x3ef4f048	0.4783957
176	0x3e436aed	0.19083758
177	0xbe89d531	-0.26920465
178	0xbdd24174	-0.102663904
179	0xbea89e10	-0.32933092
180	0x3d11be84	0.03558208
181	0x3ef97d05	0.48728195
182	0x3e02f19d	0.1278748
183	0xbcd5a719	-0.026080655
184	0xbec30534	-0.38089907
185	0x3e65b8bd	0.22433753
186	0x3d8f390a	0.06993301
187	0x3d7308c1	0.05933452
188	0x3e3d956b	0.1851403
189	0xbec191e5	-0.3780662
190	0xbd5fac89	-0.0546079
191	0xba9b4893	-0.001184719
192	0xbe7b7688	-0.24556935
193	0xbd754771	-0.059882585
194	0x3e311135	0.1729172
195	0x3dbd7c58	0.09252232
196	0xbe84944e	-0.25894397
197	0xbf00f163	-0.50368327
198	0x3e833b3b	0.25631127
199	0x3d1b7ebc	0.03796266
200	0xbe8eab66	-0.27865142
201	0xbe5bc6dc	-0.21462578
202	0xbe8b4a52	-0.2720514
203	0xbe18dfb5	-0.14929087
204	0x3dbcec89	0.09224803
205	0xbe9ac855	-0.30230966
206	0xbcf60eda	-0.030036379
207	0xbd48beaa	-0.049009956
208	0xbe979c46	-0.29611415
209	0x3e81034f	0.25197837
210	0x3f72007c	0.9453199
211	0x3ebda2e7	0.37038347
212	0xbe903876	-0.28168076
213	0x3e6f8288	0.23389637
214	0xbe016c09	-0.12638868
215	0xbe98c8cd	-0.298407
216	0xbd505ac2	-0.050867803
217	0xbe5b976d	-0.21444483
218	0xbf024193	-0.5088131
219	0xbe30c2b0	-0.17261767
220	0x3d4cda17	0.050012674
221	0x3e4aaeaa	0.19793192
222	0xbe8eb0ae	-0.2786917
223	0x3e4f522e	0.20246193
224	0xbe3c5ae2	-0.18394044
225	0x3ef6da65	0.48213497
226	0xbe8cb1b7	-0.27479336
227	0xbe6ae493	-0.22938757
228	0xbd7fe9fa	-0.062478997
229	0xbe0fdf8f	-0.14050125
230	0xbe200cb5	-0.15629847
231	0xbe7a35ae	-0.2443454
232	0x3e9628d8	0.29328036
233	0xbe67f529	-0.22652115
234	0xbb36875b	-0.0027851674
235	0xbe549c66	-0.20762786
236	0xbcf78529	-0.030214863
237	0xbd61f29a	-0.055163004
238	0x3d9fc053	0.07800355
239	0x3ed01be0	0.40646267
240	0xbe0a7264	-0.13520199
241	0xbe6e5e2e	-0.23278114
242	0xbcce489e	-0.025181111
243	0xbe17d7c1	-0.14828397
244	0xbe26f710	-0.16305184
245	0x3e7ef0f6	0.24896607
246	0xbe62df71	-0.22155549
247	0xbe836a54	-0.2566706
248	0xbce7446b	-0.028230866
249	0x3ee92baf	0.4554114
250	0x3f804699	1.0021545
251	0x3eea227d	0.45729437
252	0xbe757bca	-0.23973003
253	0xbeb4d757	-0.3532054
254	0x3d3ae1b3	0.0456254
255	0xbe752935	-0.239415

linear2.weight f4 [256, 256]
0	0x39c01a00	0.00036640465
1	0xbb79e740	-0.003813222
2	0x3db3ef6a	0.08785899
3	0x3b5c7447	0.0033638643
4	0xbbb86ccf	-0.0056282054
5	0xbc318929	-0.010835924
6	0x3d1d5c82	0.0384183
7	0xbd0b1e4a	-0.033964433
8	0xbd49215f	-0.04910409
9	0xbd07862b	-0.033086937
10	0xbd7381e7	-0.059450056
11	0x3c3ae848	0.011407919
12	0x3ca9ced7	0.020728512
13	0xbc1f2e56	-0.009715637
14	0x3cdab0bd	0.026695604
15	0xbd464d8f	-0.04841381
16	0xbd7b65d8	-0.061376423
17	0xbbcedeab	-0.006313165
18	0x3d1fb914	0.038994864
19	0x3c8f22e4	0.017472692
20	0xbd859004	-0.065216094
21	0x3b903641	0.004400999
22	0xbc5df652	-0.013547497
23	0x3b513c91	0.003192697
24	0xbd082f18	-0.033248037
25	0xbd455ca1	-0.04818404
26	0xbd886fbd	-0.066619374
27	0xbca8c59f	-0.020602046
28	0xbd3e5b7c	-0.046473965
29	0xbd1028e7	-0.035195258
30	0xbb97bdc8	-0.004630778
31	0xba9420ef	-0.0011301319
32	0xbdbc111a	-0.09182949
33	0xbda0e5e5	-0.07856349
34	0xbd6b8969	-0.05750409
35	0xbdb66516	-0.08905999
36	0xbd9cb182	-0.076510444
37	0xbd53eab6	-0.05173751
38	0x3d5f99e8	0.054590136
39	0xbcec025c	-0.028809719
40	0x3ca61183	0.020272022
41	0x3cb1099f	0.021611033
42	0x3c87bff2	0.016571019
43	0x3bf00930	0.007325314
44	0x3c69a699	0.014260911
45	0xbceba2ec	-0.02876421
46	0xbd6d3bd3	-0.05791838
47	0x3dd22e04	0.10262683
48	0xbc38c285	-0.011276846
49	0xbc3130e0	-0.010814875
50	0xbd411692	-0.047140665
51	0x3c87e77d	0.016589874
52	0xbd68ddf2	-0.05685229
53	0xbc3cbfb1	-0.011520312
54	0xbd427e90	-0.04748398
55	0xbd3cc2c5	-0.046084184
56	0xbc5afac8	-0.013365455
57	0x3c03c62e	0.008042855
58	0xbdc94367	-0.09827309
59	0x3d2c23a5	0.04202618
60	0x3d0ddceb	0.034634512
61	0xbd2e3100	-0.0425272
62	0xbc3b8890	-0.011446133
63	0xbd944b4b	-0.072409235
64	0xbd83ef27	-0.06442099
65	0x3c67b63d	0.01414257
66	0x3c87e2a0	0.016587555
67	0x3d9adf90	0.075621724
68	0xbd571d06	-0.052517913
69	0x3ce8ea6d	0.028432095
70	0xba2b3f4b	-0.0006532564
71	0xbd990b99	-0.07472915
72	0xbd585c25	-0.05282225
73	0x3c321ee6	0.010871625
74	0xbd550b97	-0.052013006
75	0xbd392587	-0.045201804
76	0x3ceed368	0.02915354
77	0x3d98587b	0.07438751
78	0x3d5246d0	0.051337063
79	0x3c86bff4	0.016448952
80	0xbdd84c50	-0.105614305
81	0xbc1857b3	-0.009298253
82	0x3bd4b1a9	0.0064909053
83	0xbd23bf31	-0.039977256
84	0xbdd3f53e	-0.103495106
85	0xbccf047c	-0.025270693
86	0xbd5636e7	-0.052298453
87	0xbd9a4540	-0.0753274
88	0x3bb7f0b7	0.0056134122
89	0xbd440115	-0.047852594
90	0xbc868be9	-0.016424136
91	0xbcffa577	-0.03120683
92	0x3aad04df	0.0013200304
93	0x3c1ea0b8	0.009681873
94	0x3d014744	0.031562105
95	0xbd1ff279	-0.0390496
96	0x3d479414	0.048725203
97	0xbbfeb95b	-0.007773561
98	0x3d2c3311	0.04204089
99	0xbdb54f08	-0.08852965
100	0xbba354b9	-0.004984465
101	0xbdc5523c	-0.096348256
102	0xbd874368	-0.066046536
103	0xbd7fd8a6	-0.06246247
104	0xbd0c48f9	-0.03424928
105	0xbd53dffc	-0.05172728
106	0x3d70faf0	0.058833063
107	0xbd5baefc	-0.053633675
108	0xbd823fcc	-0.063598245
109	0xbd9f62fe	-0.07782553
110	0xbc7e520e	-0.015522493
111	0xbd7f85d4	-0.062383488
112	0xbc402a5b	-0.011728848
113	0xbd299720	-0.04140389
114	0xbd8c02eb	-0.06836494
115	0xbb45653a	-0.003012015
116	0x3b87036b	0.0041202805
117	0xbdd6ac42	-0.10482074
118	0x3d29017c	0.04126118
119	0xbd0d520c	-0.034502074
120	0xbd8e6bbf	-0.06954145
121	0xbcc01a01	-0.0234499
122	0xbd688685	-0.056768913
123	0xbd1ad6a1	-0.037802342
124	0xbc23649b	-0.009972717
125	0xbd881814	-0.066452175
126	0xbd53e436	-0.05173131
127	0xbcf196f2	-0.029490922
128	0xbde87c2a	-0.113518074
129	0xbdb80cd6	-0.08986823
130	0x3d367c7f	0.044552322
131	0xbd1918fa	-0.037377335
132	0x3d9367c2	0.071975246
133	0x3d518ce8	0.05115977
134	0xbd97005b	-0.07373115
135	0xbc5f66f5	-0.013635387
136	0xbc7030e1	-0.014660091
137	0x3d8669cd	0.06563149
138	0x3c149bd0	0.009070352
139	0xbd062abe	-0.032755606
140	0xbbf05e44	-0.007335456
141	0xbd2e125d	-0.04249798
142	0xbcab428b	-0.020905754
143	0xbc3f6ec0	-0.01168412
144	0x3c6ef961	0.014585824
145	0xbdbb2084	-0.09137061
146	0xbb211ff1	-0.002458569
147	0xbd471de8	-0.048612505
148	0xbc81c920	-0.015842974
149	0xbd220b3b	-0.03956149
150	0x3cb3c7a9	0.021945791
151	0xbcd35793	-0.025798595
152	0xbb19b223	-0.0023452125
153	0x3da12ff5	0.07870475
154	0xbd073970	-0.03301376
155	0xbd46a150	-0.048493683
156	0x3b041e1a	0.0020159543
157	0xbd1d58cc	-0.03841476
158	0x3ca24347	0.019807471
159	0xbd3a66e4	-0.04550828
160	0xbdb108b8	-0.08644241
161	0xbd5c82d2	-0.053835697
162	0xbd526a91	-0.05137116
163	0xbc802c1c	-0.015646033
164	0x3d1369b6	0.035989486
165	0xbd8748cd	-0.066056825
166	0xbd5ced58	-0.053937286
167	0xbbf6b17a	-0.007528481
168	0xbc3f3a60	-0.0116716325
169	0xbd834690	-0.06409943
170	0xbaceedf2	-0.0015787466
171	0xbd8264fa	-0.06366916
172	0x3ca7ebc7	0.02049817
173	0x3d3fc039	0.046814177
174	0x3d3b194a	0.045678414
175	0x3c6bae1e	0.0143847745
176	0x3c4adbfe	0.012381552
177	0x3d075e22	0.033048756
178	0xbcf92421	-0.030412735
179	0x3c8dc68a	0.017306585
180	0xbcfd108e	-0.030891683
181	0xbc9d5ab3	-0.019208288
182	0xbdf9a496	-0.121895954
183	0x3d81ce0f	0.06338131
184	0xbc36222b	-0.011116545
185	0xbd12831a	-0.03576956
186	0x3c8fcee9	0.017554717
187	0xbcdd8508	-0.027040973
188	0x39ca2a04	0.00038559746
189	0x3aeb0ac0	0.0017932281
190	0xbd4b3d54	-0.049619034
191	0xbd3fd227	-0.046831276
192	0xbd19db6e	-0.03756278
193	0xbd6aca15	-0.057321627
194	0xbd5e00c1	-0.054199938
195	0x3d469e40	0.048490763
196	0xbda50805	-0.0805817
197	0x3d8d20e5	0.0689104
198	0xbddf00cd	-0.108888246
199	0x3d805b1f	0.0626738
200	0x3c9ca6dd	0.019122535
201	0xbde709b1	-0.11281145
202	0x3db7d827	0.08976775
203	0x3d74b964	0.059747115
204	0x3c7ae2df	0.015312879
205	0xbd179652	-0.03700859
206	0xbc1e932e	-0.009678645
207	0xbd3f5aac	-0.04671733
208	0xbc97af8d	-0.018516326
209	0xbd17e2ed	-0.037081648
210	0xbda0cb8f	-0.07851326
211	0xbd1341bb	-0.035951357
212	0xbd2a7ce2	-0.041623004
213	0x3d253ac3	0.040339243
214	0xbd9db617	-0.077007465
215	0x3c1f88e0	0.009737223
216	0x3d05ace0	0.03263557
217	0x3da14256	0.07873981
218	0xbccd7995	-0.025082389
219	0x3c5f9f61	0.013648839
220	0xbdbf9df2	-0.093562976
221	0x3c756d75	0.01497971
222	0x3d090468	0.033451468
223	0xbd00a4e5	-0.031407256
224	0xbc9ff7b1	-0.019527288
225	0xbd0dda5d	-0.034632076
226	0xbd3949f6	-0.04523655
227	0xbba0f695	-0.0049122074
228	0xbd1bcdc5	-0.038038034
229	0x3c92fc54	0.017942585
230	0xbd0821b9	-0.033235285
231	0xbda68622	-0.081310526
232	0xbd1283e1	-0.0357703
233	0x3ccb2173	0.024796223
234	0xbd3b3d25	-0.04571261
235	0xbd07b34b	-0.03312997
236	0x3d287e75	0.041136224
237	0xbd0fd96c	-0.03511946
238	0xbcd58524	-0.026064463
239	0xbd485976	-0.04891344
240	0xb9ec9fcc	-0.00045132486
241	0xbd97db2a	-0.07414849
242	0xbc3fd37d	-0.011708138
243	0xbd8ec173	-0.06970491
244	0x3ab6f300	0.0013957918
245	0xbc527a78	-0.012846582
246	0xbd42b925	-0.04753985
247	0x3d8a6491	0.06757463
248	0x3caed7e5	0.02134318
249	0xbd7fba81	-0.062433723
250	0xbd6fbd0f	-0.05852991
251	0x3cbaec10	0.022817641
252	0xbcf4acd0	-0.02986756
253	0xbd900d6a	-0.070338085
254	0x3d1a127d	0.037615288
255	0xbc3c5b2e	-0.011496348

linear2.bias f4 [256]
0	0x3c6efa96	0.0145861115
1	0xbca9a007	-0.02070619
2	0xbda0adf9	-0.07845683
3	0xbd7b2f56	-0.06132444
4	0xbd0bec71	-0.034161035
5	0x3d3cc56c	0.046086714
6	0x3cb6b345	0.02230228
7	0xbd4ba263	-0.04971541
8	0xbdadf912	-0.08494772
9	0xbd148f40	-0.036269426
10	0x3d8a90bc	0.06765887
11	0xbd376b29	-0.04477993
12	0xbd370935	-0.044686515
13	0xbcd2de9c	-0.025740914
14	0xbd4fda7e	-0.05074548
15	0xbdd38cc2	-0.10329582
16	0xbdd88405	-0.10572056
17	0xbd8e2cbc	-0.06942126
18	0x3b1daf80	0.0024060905
19	0x3b79bb35	0.003810597
20	0xbe0a88b0	-0.13528705
21	0xbd72d5c5	-0.059285898
22	0x3e17067f	0.14748572
23	0xbe11fdf4	-0.14257032
24	0xbdae6238	-0.085148275
25	0xbd021810	-0.03176123
26	0x3e3bdfe9	0.18347134
27	0xbd2f00a6	-0.042725228
28	0xbcd2ddaa	-0.025740463
29	0xbdca1a70	-0.09868324
30	0xbdcbbe25	-0.099483766
31	0x3f1ed233	0.6203949
32	0xbe0fb3fc	-0.14033502
33	0xbaaa0630	-0.0012971815
34	0xbc287e5f	-0.0102840355
35	0xbbbc5fb5	-0.005748714
36	0xbdfd0239	-0.123539396
37	0x3dc8809c	0.09790155
38	0x3d18a415	0.037265856
39	0xbd0a599d	-0.033776868
40	0xbd942669	-0.07233889
41	0xbd050df1	-0.032484
42	0xbdb2799c	-0.087146014
43	0xbd9c82f3	-0.07642164
44	0xbdcba838	-0.099441946
45	0xbcb18d52	-0.021673832
46	0xbc9c1dbd	-0.019057149
47	0x3e0bb5a6	0.13643512
48	0x3d0b6cfa	0.034039475
49	0xbd96a50d	-0.073557
50	0x3cfffe60	0.031249225
51	0xbdbc4a48	-0.091938555
52	0xbd2a22c8	-0.041537076
53	0xbd9df4ce	-0.077127084
54	0xbdc1b812	-0.09458937
55	0xbd2d4bd8	-0.04230866
56	0xbd72aff0	-0.05924982
57	0xbd382edd	-0.044966567
58	0xbd3319b4	-0.043725684
59	0x3ce58c3c	0.02802097
60	0x3fb9362c	1.4469657
61	0x3d1308ef	0.03589719
62	0xbd877609	-0.0661431
63	0xbd62fd5e	-0.05541741
64	0xbdc1e43a	-0.09467359
65	0x3da61bb7	0.08110755
66	0x3bb4365b	0.0054996437
67	0x3cafd3d8	0.02146332
68	0xbd8bb00d	-0.068206884
69	0xbe4276c4	-0.18990618
70	0xbd06e427	-0.032932427
71	0xbd4e0241	-0.05029512
72	0xbe1bc672	-0.1521242
73	0xbceff771	-0.029292794
74	0xbdbd4c69	-0.0924309
75	0xbc5dfe44	-0.013549391
76	0xbda45f59	-0.080259986
77	0x3d3af02d	0.045639206
78	0xbd1a637f	-0.037692543
79	0xbdd624d9	-0.10456247
80	0x3fa6e705	1.3039252
81	0x3e734d85	0.2376004
82	0x3c9ccd78	0.019140944
83	0xbc338129	-0.010956087
84	0xbd812343	-0.06305554
85	0xbd0dd460	-0.034626365
86	0xbd4d5d53	-0.05013783
87	0xbd3323fb	-0.043735486
88	0xbd95479b	-0.07289048
89	0x3c832ecd	0.016013527
90	0xbd422a27	-0.04740348
91	0x3e3d23c2	0.18470672
92	0xbe0b739e	-0.13618323
93	0xbd9eb8fb	-0.07750126
94	0xbe0edd83	-0.13951688
95	0xbdaeb745	-0.0853105
96	0xbd130c7f	-0.03590059
97	0x3e0f6615	0.14003785
98	0xbda57e00	-0.08080673
99	0xbcda1197	-0.026619716
100	0xbd1d9f8c	-0.038482234
101	0xbbfd1aa0	-0.007724121
102	0xbd0e8803	-0.03479768
103	0xbd81d230	-0.06338918
104	0x3f89c000	1.0761719
105	0xbc61c498	-0.013779782
106	0xbd551e99	-0.052031133
107	0xbd8903c7	-0.066901736
108	0x3c7ec053	0.015548783
109	0xbe0950ea	-0.13409773
110	0xbd64d9ec	-0.05587189
111	0xbcfa0d26	-0.030523848
112	0x3e12084d	0.14260979
113	0xbce525f5	-0.0279722
114	0xbe0fd95f	-0.14047764
115	0xbd6e53b8	-0.05818531
116	0xbbba506e	-0.0056858575
117	0xbd9f2d77	-0.077723436
118	0xbd768d45	-0.06019332
119	0xbe177971	-0.1479242
120	0xbd2209bc	-0.039560065
121	0xbc14ed2f	-0.009089752
122	0xbdb5b986	-0.088732764
123	0xbe3b354f	-0.18282054
124	0x3da65ace	0.08122788
125	0xbdc4ddf3	-0.09612646
126	0x3e20cd39	0.15703286
127	0x3c2665ce	0.010156108
128	0xbd7b8d02	-0.061413772
129	0x3c1e92fd	0.009678599
130	0xbd475d74	-0.04867311
131	0xbd74d8a8	-0.059776932
132	0xbd7e612d	-0.062104393
133	0xbd277d10	-0.040890753
134	0x3dfba553	0.122873925
135	0x3fa31501	1.2740785
136	0xbdc4a910	-0.096025586
137	0xbde35983	-0.111010574
138	0xbb942f0c	-0.00452221
139	0x3dd69415	0.10477463
140	0xbda54038	-0.080688894
141	0xbd83e9b9	-0.064410634
142	0xbd52796f	-0.05138534
143	0xbd7380c9	-0.05944899
144	0xbdb7cf1b	-0.08975049
145	0x3cf778b1	0.030208917
146	0xbda3f5ec	-0.0800589
147	0x3c9ae97a	0.018910158
148	0x3b392388	0.0028249938
149	0xbdb8c6dd	-0.09022305
150	0xbc9f43e2	-0.019441549
151	0xbe2b8db8	-0.1675328
152	0xbd8d4017	-0.0689699
153	0xbd9f655a	-0.07783003
154	0xbdaf1074	-0.0854806
155	0xbd18c87d	-0.037300576
156	0xbd98736e	-0.074438915
157	0xbd49ae7b	-0.049238663
158	0x3f4a1b12	0.78947556
159	0xbcd38082	-0.025818113
160	0xbe231dee	-0.15929386
161	0xbd4d839c	-0.05017434
162	0xbd346693	-0.044043135
163	0xbddbb4d8	-0.107278526
164	0x3c56b20d	0.013103974
165	0x3cd2f3fa	0.025751103
166	0xbd8b9cd7	-0.06817024
167	0x3dc276bd	0.09495304
168	0xbde64f3f	-0.11245584
169	0x3dd04cda	0.10170908
170	0xbdddd779	-0.10832114
171	0x3e80d018	0.25158763
172	0x3f3154a7	0.69269794
173	0xbde86100	-0.11346626
174	0xbd09a77f	-0.033607002
175	0x3dc50970	0.09620941
176	0xbdaf1148	-0.08548218
177	0x3e3d19bd	0.1846685
178	0xbd9b5b0d	-0.07585726
179	0xbd88c9a3	-0.06679084
180	0xbd4670cd	-0.04844742
181	0xbcde1749	-0.027110713
182	0x3d117874	0.035515264
183	0xbe2d1ec0	-0.16906261
184	0xbd94aa88	-0.07259089
185	0xbd50eb96	-0.051005922
186	0x3fb4e86e	1.4133432
187	0xbd7210d9	-0.0590981
188	0xbdb05054	-0.086090714
189	0xbc906c20	-0.017629683
190	0x3e47626c	0.19471139
191	0xbc4e7193	-0.01260032
192	0xbcbe7c99	-0.023252772
193	0x3de5d8b3	0.11222973
194	0x3cf4144d	0.029794836
195	0xbc66a384	-0.014077071
196	0xbd4d981d	-0.050193895
197	0xbd50d680	-0.050985813
198	0xbd8978f7	-0.06712525
199	0xbd7b2028	-0.061309963
200	0xbdc8a904	-0.09797862
201	0xbdd16c14	-0.102256924
202	0x3b8150c4	0.0039463956
203	0xbdeb7ce3	-0.114984296
204	0xbded6248	-0.11591011
205	0xbda548fa	-0.0807056
206	0x3ba37b20	0.004989043
207	0xbd5353aa	-0.05159346
208	0xbca92db4	-0.020651676
209	0x3d4ca090	0.04995781
210	0xbd6f5f18	-0.058440298
211	0x3fca8113	1.582064
212	0xbdd03f3b	-0.1016831
213	0x3d18e4e3	0.03732766
214	0x3cafa52e	0.021441069
215	0xbd91f16c	-0.07126126
216	0x3f2c69cd	0.6734894
217	0xbd479e0c	-0.04873471
218	0xbd26ab20	-0.04069054
219	0xbccbb3b3	-0.02486596
220	0x3b662627	0.0035117955
221	0xbd975696	-0.07389562
222	0x3f8eed23	1.1166118
223	0xbd449250	-0.047991097
224	0x3cca8afb	0.024724474
225	0xbdd05f0f	-0.10174381
226	0xbd846e72	-0.06466378
227	0x3d208e6d	0.039198328
228	0xbe04dd36	-0.1297501
229	0xbdf414b1	-0.11918009
230	0xbd4ba991	-0.049722258
231	0xbce0a198	-0.027420804
232	0x3c11fccc	0.008910369
233	0xbd1d4f42	-0.038405664
234	0xbcc05a3c	-0.023480527
235	0x3c772297	0.01508393
236	0xbc079198	-0.008274458
237	0xbc15227a	-0.009102458
238	0xbde5a051	-0.112122186
239	0x3e7461a7	0.23865376
240	0xbe35abc3	-0.17741303
241	0xbd98337d	-0.074316956
242	0x3c9e6275	0.019334057
243	0xbdf5a902	-0.11995126
244	0xbda854f7	-0.08219331
245	0x3cb1f42d	0.021722877
246	0x3ce7bb45	0.02828754
247	0xbd94806f	-0.07251059
248	0xbd45c8d0	-0.048287213
249	0xbdcf0f51	-0.10110343
250	0x3c112591	0.008859054
251	0xbdd3772b	-0.10325464
252	0xbe5a87bd	-0.21340843
253	0xbde948ac	-0.11390814
254	0xbd709a04	-0.05874063
255	0x3b151487	0.002274783

linear3.weight f4 [3, 256]
0	0x3c0685d4	0.008210618
1	0xbc46302b	-0.012096445
2	0xbbdadcfa	-0.0066791745
3	0x3d6ae056	0.05734285
4	0xbb085473	-0.0020802289
5	0xbedb842f	-0.42874286
6	0x3d38c771	0.045112077
7	0xbd047dd1	-0.03234655
8	0x3c7bfa07	0.015379435
9	0x3cb24523	0.021761483
10	0xbf25dcbc	-0.6478994
11	0x3cd6be13	0.026213681
12	0xbc01e3d8	-0.007927857
13	0xbbb414d2	-0.005495646
14	0x3b1dc2f4	0.00240725
15	0xbeb81472	-0.359531
16	0x3d0c7069	0.03428689
17	0xbc07b870	-0.008283719
18	0xbd219175	-0.03944536
19	0x3d583852	0.052788086
20	0xbd2235e9	-0.039602194
21	0x3d252472	0.04031796
22	0x3e3512e9	0.17682995
23	0xbdd49915	-0.103807606
24	0xbb251b7a	-0.002519338
25	0xbb8b10d0	-0.0042439476
26	0x3d4592af	0.04823559
27	0xbc7b71e8	-0.015346982
28	0x3c9511fc	0.018197052
29	0x3cacff7a	0.021117914
30	0x3cc291bb	0.02375113
31	0x3de3ac84	0.11116889
32	0xbc6e53a0	-0.014546305
33	0xbed4abb6	-0.41537255
34	0xbda2eb1c	-0.07955
35	0x3d10eb50	0.03538066
36	0xbca0a122	-0.019608084
37	0x3dc4a0fd	0.096010186
38	0xbd1f3baf	-0.038875278
39	0xbebc4a0b	-0.3677524
40	0x3b4abe60	0.0030936226
41	0x3cd4560d	0.025919938
42	0xbd4bce0e	-0.049757056
43	0x3c80f618	0.015742347
44	0xbe5ca246	-0.21546277
45	0xbe918baa	-0.28426868
46	0x3bdde0f1	0.0067712
47	0x3dc2441f	0.09485649
48	0x3da981c7	0.08276706
49	0xbc84e4c5	-0.016222367
50	0x3d4fd53e	0.050740473
51	0x3c560436	0.013062527
52	0x3b8a385b	0.004218144
53	0x3d7cb4b4	0.06169577
54	0xbcf3685f	-0.029712854
55	0x3bfcdde9	0.0077168834
56	0xbcd91594	-0.026499547
57	0xbce42655	-0.02785031
58	0x3cc69122	0.024239127
59	0xbef31ec6	-0.47484416
60	0x3e6eae84	0.2330876
61	0xbeb9eeb0	-0.36314917
62	0x3c810a17	0.015751882
63	0xbde9dc5e	-0.11418985
64	0x3cd5c4de	0.02609485
65	0x3cd69852	0.026195679
66	0xbb9e4979	-0.004830536
67	0x3ccda6c1	0.025103929
68	0xbf0979a6	-0.53701246
69	0xbd964226	-0.073368356
70	0x3d63dff3	0.055633496
71	0x3d37000f	0.04467779
72	0xbbe182c0	-0.0068820417
73	0xbbe64e16	-0.0070283515
74	0x3c0bba6e	0.008528335
75	0xbefa5fd5	-0.4890124
76	0xbe95bcbe	-0.2924556
77	0x3d7e8429	0.062137756
78	0xbd0092cf	-0.031390008
79	0x3d006422	0.031345494
80	0x3e6e68cd	0.23282166
81	0x3d7f20c6	0.062287115
82	0xbc777381	-0.015103222
83	0xbf109c0d	-0.56488115
84	0x3cb60b56	0.022222202
85	0x3c783337	0.015148929
86	0xbcc7e59c	-0.024401478
87	0xbc18f3ca	-0.009335468
88	0x3d419ba2	0.047267564
89	0xbc3e64a6	-0.011620676
90	0x3aed0cf6	0.0018085528
91	0x3dcd163b	0.10014006
92	0xbdde562a	-0.10856278
93	0xbdd6d1ac	-0.104892105
94	0x3cf1246a	0.029436309
95	0x3dfe2abf	0.12410497
96	0x3d0362a2	0.032076485
97	0xbdb5dbc9	-0.08879811
98	0xba05b030	-0.00050998013
99	0xbb16b19d	-0.002299405
100	0xbc875022	-0.016517702
101	0x3cadf91e	0.021236952
102	0x3c0fc0c2	0.008773984
103	0xbb8b9e7f	-0.0042608376
104	0x3e3de900	0.18545914
105	0x3c8a5bff	0.01688957
106	0x3c7770ef	0.015102609
107	0xbd264fa8	-0.04060331
108	0xbd776076	-0.060394727
109	0x3daf74c8	0.08567196
110	0x3cc7a379	0.024369942
111	0xbca540f7	-0.02017258
112	0x3d367865	0.04454841
113	0xbcf91963	-0.030407613
114	0xbd88fe30	-0.066891074
115	0x3d6c6c32	0.05772037
116	0xbd332771	-0.043738786
117	0x3cb1f40f	0.021722822
118	0xbe2191cd	-0.15778275
119	0xbd882d76	-0.06649296
120	0x3d3cdacd	0.046107102
121	0x3dac8a65	0.08424834
122	0x3af6398e	0.0018785463
123	0x3b7a6e6e	0.0038212794
124	0x3ded9bc8	0.116019785
125	0x3d152950	0.03641635
126	0x3d7e4295	0.062075216
127	0xbc012231	-0.007881687
128	0xbb108e47	-0.002205746
129	0xbd100ba6	-0.03516736
130	0x3d58d82f	0.052940544
131	0x3c6ec493	0.014573234
132	0xbeb4fb0b	-0.3534778
133	0xbbd8a0bf	-0.0066109593
134	0x3d631c30	0.055446804
135	0x3e614e8b	0.22002618
136	0x3cd7252e	0.026262846
137	0xbe426f23	-0.18987708
138	0x3b31f55b	0.00271543
139	0xbef4eb54	-0.4783579
140	0xbcb6203d	-0.02223217
141	0x3c3c70fb	0.011501546
142	0x3d24f2c2	0.040270574
143	0x3cfc0bb0	0.030767292
144	0xbcb69bcf	-0.022291092
145	0xbef5b193	-0.4798704
146	0xbbd92c3d	-0.006627588
147	0xbc11ec54	-0.008906443
148	0xbbf93cba	-0.007606116
149	0xbc4487eb	-0.011995296
150	0xbbe96fd7	-0.007123928
151	0xbc9b19cb	-0.018933197
152	0xbcfd58dc	-0.03092616
153	0x3ce288d3	0.027653133
154	0xbde5afbc	-0.11215159
155	0xbc9c28c0	-0.0190624
156	0xbd408f50	-0.047011673
157	0x3d113c60	0.03545797
158	0x3dc58102	0.09643747
159	0xbc077edc	-0.008269992
160	0xbe66c14c	-0.22534674
161	0xbcd9bd58	-0.026579544
162	0xbce42707	-0.027850641
163	0xbd126705	-0.03574278
164	0xbe1f9d16	-0.15587267
165	0x3cbc93f7	0.023019774
166	0x3cfc17b1	0.030773016
167	0x3c34422f	0.0110021075
168	0x3ce5bb54	0.028043427
169	0xbc8655e3	-0.016398376
170	0x3acc9112	0.0015607199
171	0x3d603045	0.054733533
172	0x3e502901	0.20328142
173	0xbeebcb47	-0.46053526
174	0x3d29a44a	0.041416444
175	0xbec0db2e	-0.3766722
176	0x3c18a125	0.009315764
177	0x3dd15db4	0.102229506
178	0xbcdbfd80	-0.026854277
179	0xbe5544fa	-0.20827094
180	0xba457e00	-0.0007533729
181	0xbc512b87	-0.012766725
182	0x3d261a91	0.04055268
183	0x3ce6db3a	0.028180707
184	0x3d60a2e2	0.054842837
185	0x3d22fb22	0.03979028
186	0x3e697d83	0.22801785
187	0x3ce8064e	0.028323319
188	0x3c39d8db	0.011343206
189	0x3d269c4b	0.040676396
190	0x3cd77b57	0.02630393
191	0x3b26359f	0.002536155
192	0x3cb1acf0	0.021688908
193	0x3d9e451a	0.07728024
194	0x3d8da560	0.069163084
195	0xbb7611b9	-0.0037547185
196	0x3d1a97af	0.037742313
197	0x3cf33856	0.029689949
198	0x3d4d7d14	0.050168112
199	0x3c7f9d9c	0.015601542
200	0x3c231d29	0.009955683
201	0xbccdad6e	-0.025107112
202	0xbe8d994f	-0.27656028
203	0x3c019d80	0.007911086
204	0xbdec73d0	-0.11545527
205	0x3b3e183d	0.0029006146
206	0x39a861d9	0.0003211636
207	0xbef069a9	-0.46955612
208	0x3da27964	0.0793331
209	0x3de05c3c	0.10955092
210	0x3d137b16	0.036006056
211	0x3e6e4ca7	0.23271428
212	0xbbf4d3e4	-0.0074715484
213	0x3c8dc950	0.017307907
214	0x3d71246a	0.058872618
215	0x3cfdd537	0.030985458
216	0x3dd1211f	0.102113955
217	0xbcf3fdad	-0.029784048
218	0xbca1aec1	-0.01973665
219	0xbccd2d66	-0.025046062
220	0x3ba55cce	0.0050464636
221	0xbcb63931	-0.022244068
222	0x3e50846a	0.20363012
223	0x3d0f2ac0	0.03495288
224	0x3ce86b11	0.028371366
225	0xbd813feb	-0.063110195
226	0xbc34509d	-0.011005548
227	0x3cf3e03b	0.029770007
228	0x3cd05b74	0.025434233
229	0xbcbcc3c6	-0.02304257
230	0xbc93af93	-0.018028056
231	0xbc742e0a	-0.014903555
232	0x3d4d39f5	0.0501041
233	0xbb1efa35	-0.0024258022
234	0x3cec542e	0.028848734
235	0x3d64f604	0.05589868
236	0x3c3939b4	0.011305261
237	0xbbd3048b	-0.0064397505
238	0x3bb39fa7	0.0054816785
239	0x3d96f3b3	0.07370701
240	0x3bda20d2	0.0066567445
241	0xbbe3c2a7	-0.0069506946
242	0x3de868e4	0.11348131
243	0xbc9ce352	-0.019151364
244	0xbd54dad2	-0.051966496
245	0xbd70e496	-0.058811747
246	0xbd4af2b0	-0.04954785
247	0x3caddce8	0.0212235
248	0xb8c48a2b	-9.371744e-05
249	0x3c503ba6	0.012709534
250	0xbd8b1e20	-0.06792855
251	0xbda20a92	-0.079121724
252	0x3c8d3466	0.0172369
253	0x3c2883be	0.010285316
254	0xbcb22b96	-0.021749299
255	0x3e29f4a8	0.16597235

linear3.bias f4 [3]
0	0x3e8c53e0	0.27407742
1	0x3e951fd8	0.29125857
2	0x3e988539	0.2978914
