checkpoint_game_1400.pth (torch, 281418 bytes, 6 tensors)

linear1.weight f4 [256, 11]
000000 29 0c 54 be 97 7a 37 3e 64 4a ff bd 35 ad 16 3e
       -0.20707764 0.17917858 -0.12465361 0.1471451
000010 12 2b b3 3d 3b bb ed 3d 44 72 45 be 09 60 28 be
       0.087484494 0.11607977 -0.1928187 -0.16442885
000020 11 3d df bd 9c 19 16 be 9d 8f 87 be e1 2e 46 3e
       -0.10900319 -0.14658207 -0.26476756 0.1935382
000030 27 a2 05 3e 10 f0 1d be dd 6e f6 bd b9 4d bc bc
       0.13050137 -0.15423608 -0.12032864 -0.02298628
000040 81 6e 7d bd 14 cd 43 be b9 3c 3d bd e9 07 82 be
       -0.061872963 -0.191212 -0.046200488 -0.2539666
000050 3a 1e 78 bc 07 ad 30 be 94 28 61 3e 65 bc 16 3e
       -0.015143925 -0.17253505 0.21988136 0.14720304
000060 6f d5 d9 3c 66 73 22 bf 3d 24 5f 3e 94 c5 f9 be
       0.02659103 -0.63457334 0.21791168 -0.48783553
000070 d7 31 11 3f 8f 43 c9 be 38 c3 5e bf 1a 3c 81 bf
       0.56716675 -0.39309356 -0.8701663 -1.0096467
000080 54 82 6e 3e ce 77 87 bd a2 e9 96 3d 26 cc 22 3e
       0.23291904 -0.06614648 0.07368781 0.15898189
000090 ac 69 46 3c f9 de 26 bd 23 a7 05 bf aa 73 b5 be
       0.012110155 -0.040739987 -0.52208155 -0.35439807
0000a0 3a e8 3a be 82 71 0f 3d 08 3f d5 be 31 29 a1 be
       -0.1825265 0.03502036 -0.41649652 -0.3147674
0000b0 a7 b7 bb bd d3 11 a9 be f6 f5 85 be ac 93 d7 3c
       -0.09165888 -0.3302141 -0.26164216 0.026315533
0000c0 3e b7 03 be 43 f8 a1 be 14 2b 20 3f 35 b6 3c bf
       -0.1286287 -0.3163472 0.6256573 -0.73715526
0000d0 90 39 1b bf fc ac d4 3e 95 1b c3 be aa ad 9d bd
       -0.6063471 0.41538227 -0.3810698 -0.076991394
0000e0 8d 2c 41 3e 0b 7c 9a be a9 ef e2 be 95 fc 18 bd
       0.18864651 -0.30172762 -0.4432347 -0.037350256
0000f0 72 35 07 bf ea 7e 99 bb 19 e9 92 be 3a 31 84 be
       -0.52815926 -0.004684319 -0.28693464 -0.25818807
000100 28 82 ad bd 8e 68 f1 be 46 7b 1d 3f b0 30 f6 be
       -0.08472091 -0.4715008 0.61516225 -0.4808402
000110 bb a2 65 be 19 42 b0 3e 6c 9c be bc 3f d9 f3 be
       -0.22425358 0.34425429 -0.023267947 -0.47626683
000120 26 9a 24 bf e0 7e 90 bd 99 62 5f 3e 29 30 f3 3e
       -0.6429771 -0.070554495 0.21814956 0.4749768
000130 22 69 16 3f 94 3c 09 bf 3b 6b 53 3c 26 ef e6 3e
       0.5875417 -0.5360806 0.012903984 0.4510433
000140 29 68 fd be 70 24 f9 be ef 1e e4 bc 3f 9a 4c 3e
       -0.4949353 -0.48660612 -0.027846782 0.19980715
000150 d4 73 e4 be 66 39 51 be 58 b5 de bd 7b 12 7e 3e
       -0.4461962 -0.20432052 -0.10874432 0.24811737
000160 e5 f8 50 3e 01 b4 2d 3e 04 03 89 3d cd a8 d1 3e
       0.20407446 0.16963197 0.06690028 0.40949097
000170 53 b7 8d 3e b8 d3 3d bf 20 e8 e2 be 67 15 7a bf
       0.27678928 -0.7415118 -0.44317722 -0.9768891
000180 be 80 4d bf 5e d7 07 3e 9c f1 a3 3e 5e 5e 77 be
       -0.8027457 0.1326575 0.3202027 -0.24157092
000190 9c d0 80 3e 4f 16 d9 3e 61 be 92 be 5d 00 87 be
       0.25159156 0.42399833 -0.28660873 -0.26367465
0001a0 7e cc e3 be fd 38 86 be 50 af 40 be a1 63 19 be
       -0.44491953 -0.26215354 -0.18816876 -0.14979412
0001b0 4d d2 87 be af 65 8c be f0 e8 8c be 70 05 88 3d
       -0.26527634 -0.27421328 -0.27521467 0.06641662
0001c0 4f 47 9a 3e aa 3c 9c be e8 10 9e 3d fc 06 cc 3e
       0.3013253 -0.30515033 0.07718068 0.3984908
0001d0 e7 8b 1f be c3 ec e8 be 3e de 8a be de b8 bf 3e
       -0.15580712 -0.45493135 -0.27122682 0.3744573
0001e0 f9 90 b6 be 61 40 a1 be fa dd 16 3f 69 0e 51 3d
       -0.3565748 -0.3149443 0.5893246 0.051039133
0001f0 a3 01 61 3e c9 53 97 3d 8f b4 c0 be 7e cf 61 bf
       0.2197328 0.073890276 -0.37637755 -0.8820723
000200 31 5e 61 3e 83 cc aa 3e 95 7f c5 be 9f 2d 03 bf
       0.22008587 0.33359155 -0.385739 -0.5124149
000210 0e 40 29 be d6 0e 71 3e b0 29 07 3d be b9 53 be
       -0.16528341 0.23540816 0.03299874 -0.20676324
000220 ce 7e d9 be 0e 3f 37 be a8 9d 0e be 68 e4 aa bd
       -0.42479557 -0.17895147 -0.13927329 -0.08344346
000230 6b b1 d3 bc e8 be 6d be c4 2f 58 be 5f 7d dd 3d
       -0.025841435 -0.23217356 -0.21111971 0.10814928
000240 cc 04 7d 3e 4d ee 73 bd b8 1e 4d 3d a3 07 49 3c
       0.24708861 -0.059553433 0.050078124 0.012269887
000250 92 c1 50 be 6f 40 ee 3c ef a9 f1 37 9c 1c 03 be
       -0.20386341 0.029083459 2.880857e-05 -0.12803882
000260 17 b4 9b 3d 49 44 53 be 25 0f 67 bc e8 d5 67 3e
       0.07602709 -0.20631517 -0.014102732 0.22640193
000270 c9 1e 14 bf c5 52 3d 3e 97 3d 12 bf 1f 3f fc 3e
       -0.57859474 0.18488605 -0.5712523 0.49266908
000280 54 33 c5 be ba 18 00 bf 0b 4c 0e bf 7d e5 31 bf
       -0.38515723 -0.5003773 -0.5558478 -0.69490796
000290 53 63 77 3e 18 74 f4 be 65 f5 66 3e af 85 48 3e
       0.24158983 -0.47744823 0.22554548 0.19582246
0002a0 2b 42 f7 be 5a 3a 30 3e 91 55 5a 3e 87 99 88 bd
       -0.4829267 0.1720976 0.21321703 -0.06669908
0002b0 4a de 2a bf c9 74 d8 be 17 9c 46 bf 17 a7 bc be
       -0.66745436 -0.422766 -0.77581924 -0.3684623
0002c0 78 3c 8b 3d 43 3e 12 3e e2 db 91 3d 1e 3f 50 bc
       0.06798643 0.14281563 0.071220174 -0.012710361
0002d0 70 0e ea bc 41 8d 6b 3c f5 0c a6 be ea 64 f8 be
       -0.028571337 0.014376939 -0.3243176 -0.4851449
0002e0 05 85 6c be 9f be e4 bd d3 95 00 bf 08 d1 c1 3d
       -0.23097618 -0.111691706 -0.50228614 0.09463698
0002f0 b8 90 fa be d3 ff f9 bc 8c 98 91 bc 4e e3 db bd
       -0.48938537 -0.030517494 -0.017772935 -0.10736714
000300 1f 1d ee bd 36 5d d0 bc c6 4a 0b 3d 99 ab da be
       -0.11626648 -0.025435071 0.034006856 -0.42709044
000310 bd c4 0f bb 19 d6 a4 bb 0b 14 4c 3e 03 07 5a be
       -0.0021937334 -0.0050304052 0.19929521 -0.21291737
000320 62 79 c1 3c 12 16 a7 be 3b 2a fc 3e 0e 5b 09 bf
       0.02361745 -0.32634026 0.4925097 -0.53654563
000330 21 cb 0d bf 63 8e 15 3f 36 b8 99 be 39 9d 7c bf
       -0.55388075 0.5842039 -0.30023354 -0.986774
000340 43 0d 70 bf 25 35 83 be 94 c1 33 be c6 85 6d be
       -0.93770236 -0.25626484 -0.17554313 -0.23195562
000350 e5 5d 37 be ee 24 dc bd 8b 08 16 3e 81 00 25 be
       -0.17906912 -0.10749231 0.14651696 -0.16113473
000360 68 81 a9 be 7d d6 6a be f7 47 09 be 47 11 01 3e
       -0.33106542 -0.22933383 -0.13406359 0.12604247
000370 60 05 ee bd ee 44 21 3d 72 46 8e 3d 66 a0 6f 3c
       -0.11622119 0.039372377 0.0694703 0.014625644
000380 ea 87 04 bf ee 84 9a be c5 70 ef bd 9a 45 02 bf
       -0.5176989 -0.30179542 -0.11691431 -0.50887454
000390 06 18 d6 be 91 85 c2 bd 6e 93 29 bd e2 93 9b bd
       -0.41815203 -0.09498132 -0.041400366 -0.07596566
0003a0 3f d4 55 3f 22 18 13 be 45 20 ab 3e 3e 18 c4 bd
       0.83526987 -0.14364675 0.33423057 -0.09574936
0003b0 96 fe 8e be c8 e3 4b 3e 10 10 a4 bd 07 30 d2 3d
       -0.2792861 0.1991111 -0.08010876 0.10263067
0003c0 3c 28 8a be 7a 3e 36 3e d2 d7 cb 3d de da 56 be
       -0.2698382 0.1779727 0.09953274 -0.20981929
0003d0 63 3c ba 3d b5 b4 27 bf 69 47 8b be 16 0e b2 be
       0.09093549 -0.6551011 -0.2720292 -0.34776372
0003e0 80 30 67 3b 28 6b c6 3b 4a 85 54 be 8c 57 bd be
       0.003527671 0.0060552545 -0.2075397 -0.36980855
0003f0 5b dd ce be 69 bf 58 3e 7b 74 c8 3e b9 14 b4 3e
       -0.40403256 0.21166767 0.39151368 0.3517206

linear1.bias f4 [256]
000000 07 22 9d be 55 6a b0 be c3 42 53 bb ec f2 98 be
       -0.30690023 -0.34456125 -0.0032235838 -0.29872835
000010 05 79 a0 be c6 f4 01 be 03 80 89 bd e4 88 01 bf
       -0.3134233 -0.1269103 -0.067138694 -0.50599504
000020 b9 06 68 bd 76 a3 96 be fe b7 9e be b2 6d ce bd
       -0.056647036 -0.29421586 -0.3099975 -0.100795165
000030 e9 e4 13 be 91 aa f7 be 59 26 4f bd df a7 72 be
       -0.14442791 -0.4837232 -0.05057368 -0.2369685
000040 22 45 8a be 9e 6e 7e be b6 48 b9 be 42 b4 98 be
       -0.2700587 -0.24846885 -0.36188287 -0.29825026
000050 76 1a e4 bd 21 9d a1 bd 1e 57 ae be 2c 7a b5 be
       -0.111378595 -0.07891298 -0.3405084 -0.35444772
000060 e5 3e 19 be 43 0e 8e be e3 9d 26 be 15 6c c8 be
       -0.14965399 -0.27745256 -0.16271167 -0.3914496
000070 b9 03 f4 be 89 e9 a7 3e f1 34 a3 be 82 06 3c be
       -0.4765909 0.3279536 -0.3187633 -0.18361858
000080 0f ac 5b be 24 3e 62 3e a4 09 4e bd 03 e3 b9 be
       -0.21452354 0.22094017 -0.050302163 -0.3630601
000090 1c 92 41 be cc 8b 88 be d4 b2 9d be 74 8a ea bd
       -0.18903393 -0.26669157 -0.30800498 -0.11452189
0000a0 1f c6 6c be cf 6e 93 bd 01 5d e0 bd 74 4b 38 be
       -0.23122452 -0.071988694 -0.10955239 -0.17997533
0000b0 15 93 6a be c5 26 a2 bc e7 40 85 be 54 45 b6 be
       -0.2290767 -0.019793877 -0.2602608 -0.35599768
0000c0 95 72 33 3e b6 c7 8d be 37 46 75 bd 70 03 b6 be
       0.17524178 -0.2769143 -0.059881415 -0.35549498
0000d0 d4 4f aa be 21 7c a1 3d 35 79 28 3d cb 84 58 3f
       -0.3326403 0.07885004 0.041131217 0.84577626
0000e0 b0 da d7 bc 0e ba ab be f6 ab 4a 3f 7b 64 91 bd
       -0.026349396 -0.33540386 0.7916864 -0.07099243
0000f0 b4 a4 f2 bd e8 ec e1 be 71 12 36 be ac 9b 78 3c
       -0.11847821 -0.44126058 -0.17780472 0.015173834
000100 fc 2f a5 be 32 ea 01 bf 5b 94 94 be f0 3d 7e bd
       -0.32263172 -0.5074798 -0.29019436 -0.062070787
000110 a9 88 52 bd ab 7c 26 bf 9b 52 83 be 67 3c 9d 3c
       -0.05139986 -0.6503398 -0.2564896 0.019193841
000120 d5 2c b5 3f 43 ef e9 be 91 bf f2 be 29 64 55 bd
       1.4154307 -0.45690355 -0.4741178 -0.052097473
000130 94 b1 46 be 21 d1 51 be d9 ad 68 be 49 c5 cd be
       -0.19403678 -0.20489933 -0.22722568 -0.4018958
000140 12 97 56 3e 90 11 ea 3e 39 b3 bf bd ec 7b f3 bd
       0.20956066 0.45716524 -0.09360356 -0.118888706
000150 aa 9a 11 be ef 50 da be 32 80 bc bd f6 2e e8 be
       -0.14219156 -0.42639872 -0.09204139 -0.45348328
000160 1f db 89 3d c0 ca bc be f0 fb a5 be 30 ce 06 3e
       0.06731247 -0.36873436 -0.32418776 0.13164592
000170 dc 22 56 3e 91 c1 a3 bd 80 ed d4 be 24 30 db be
       0.20911735 -0.07995904 -0.41587448 -0.42810166
000180 50 2b be be 5b 29 ad bd ab 77 0f be e1 09 e1 be
       -0.3714242 -0.084551536 -0.14010493 -0.4395285
000190 e7 a3 73 be 04 d7 26 3d df 62 02 3d 6d 32 14 bf
       -0.23792993 0.0407324 0.031832572 -0.57889444
0001a0 be be d0 bd a5 aa 1c bd 01 74 b5 3c d1 d6 00 be
       -0.10192631 -0.038248677 0.022150042 -0.12581946
0001b0 93 77 e6 bd bb 07 01 bf 8f 71 7f be c5 70 30 be
       -0.11253276 -0.5040242 -0.24945663 -0.17230518
0001c0 21 41 8e be 02 bf fc bd 0e 64 1c 3e 3e 0b 4f 3e
       -0.27784064 -0.12341119 0.15272543 0.20219132
0001d0 5b 25 46 bd 6c 72 43 3f 21 a2 fb bd 31 e1 aa be
       -0.04837547 0.7634647 -0.12286783 -0.33374932
0001e0 0a ed 90 3e 06 5c 07 3e f2 06 ed be 08 c8 62 be
       0.28305846 0.13218698 -0.4629436 -0.22146618
0001f0 f5 80 4e bd d1 ae b4 be cd 14 c8 be 9e 0a 7f bd
       -0.05041595 -0.35289624 -0.3907837 -0.062265985
000200 bd 24 c3 3e 4a 80 97 be c9 80 3e be 55 65 32 3c
       0.38113967 -0.29590064 -0.18603815 0.010888417
000210 4d 69 c1 bd 79 92 c1 3d 8f 16 ad bd f2 8f 81 be
       -0.09443913 0.094517656 -0.08451568 -0.25305134
000220 a3 7c b2 bd 80 0a a5 3e b5 a9 13 3e 39 57 b2 3e
       -0.08715179 0.32234573 0.14420207 0.3483217
000230 f0 ae 2a bd f3 7e 1e be 65 d1 4c be 0b 30 d6 be
       -0.04167074 -0.15478115 -0.20001753 -0.4183353
000240 f9 9d 04 be 0b e1 87 be 91 95 e9 3f 07 ab 8c bd
       -0.12950887 -0.26538882 1.8248769 -0.068685584
000250 f8 13 cf be 23 68 28 3e 67 94 32 be f8 8c 95 3e
       -0.40444922 0.16445975 -0.17439424 0.29209113
000260 50 c1 a5 be 3a aa f4 bd 48 c0 2f bd 4f 98 81 be
       -0.32374048 -0.11946531 -0.042907983 -0.25311515
000270 af d8 98 be f7 3e 83 be c5 ee e1 3d e6 09 dd bb
       -0.29852816 -0.25633976 0.1103187 -0.0067455648
000280 bb 68 1f be e2 9d 35 3e 7c 0d eb be b4 6d 9c be
       -0.15567295 0.17736009 -0.45908725 -0.30552447
000290 f5 c1 b9 3d cd ad 65 3f 75 59 ea be 65 cc 87 be
       0.090701975 0.89718324 -0.45771375 -0.26523128
0002a0 0a 0e a9 be 47 0b 70 be d0 1e 06 3c 32 6a 9f 3d
       -0.33018523 -0.23441802 0.008186057 0.07783927
0002b0 ed b7 d3 3e 4f 77 e0 bc 6e 73 3d be 91 e5 62 3e
       0.41351262 -0.02740064 -0.18501064 0.22157885
0002c0 52 5a a5 3e 3d 90 c1 bd 66 ba 31 be dd c0 be be
       0.3229547 -0.094513394 -0.17356262 -0.37256518
0002d0 3b d2 d7 3d f4 50 93 3d bc 3e 46 be 1f b8 c6 bc
       0.10538145 0.07193175 -0.19359869 -0.024257718
0002e0 34 05 c3 be d2 55 42 bd 24 8c 1c 3e 9e 72 ab 3d
       -0.38089907 -0.047445126 0.15287834 0.08371471
0002f0 1d 9a 47 3e e5 91 c1 be 3b 40 5b bd 80 0a 0d be
       0.19492383 -0.3780662 -0.05352805 -0.13773537
000300 88 76 7b be 4d 91 ba be da b2 97 be fe 04 cf bd
       -0.24556935 -0.3643898 -0.2962864 -0.10108374
000310 d7 9b 0b be 83 ae 16 bf c7 84 e8 3d d2 f9 d9 bc
       -0.13633667 -0.58860034 0.1135345 -0.026608381
000320 20 16 cc bd 55 c3 09 bf 50 fb 42 be 4b 1b a0 be
       -0.099651575 -0.5381368 -0.1904118 -0.31270823
000330 b1 a9 06 3e 55 c8 9a be 68 86 40 be aa be 48 bd
       0.1315067 -0.30230966 -0.18801272 -0.049009956
000340 46 ad fe be 75 b2 82 bd 6e 3f d4 3f ca 01 c0 3e
       -0.49741572 -0.06381694 1.6581857 0.37501365
000350 76 38 90 be 18 e3 09 be 2f d5 86 be cd c8 98 be
       -0.28168076 -0.13465536 -0.2633452 -0.298407
000360 c2 5a 50 bd d4 da bd be 93 41 02 bf 14 ec 61 bd
       -0.050867803 -0.37081015 -0.5088131 -0.055156782
000370 19 ba d8 bd a6 94 76 3e ae b0 8e be 4b 56 cf 3e
       -0.1058237 0.24080142 -0.2786917 0.40495524
000380 69 21 55 be 0b 73 1e 3e b7 b1 8c be 01 ac 6e be
       -0.20813526 0.15473573 -0.27479336 -0.23307802
000390 e8 be 3a be ff b9 e0 be 91 fc 72 be 61 b4 16 bf
       -0.18236887 -0.43891904 -0.23729159 -0.58868986
0003a0 0b 16 40 3e 0c a0 87 be a7 ea a6 bc 61 1b bb be
       0.18758409 -0.26489294 -0.020375563 -0.36544326
0003b0 c4 57 86 bd 54 a9 8a be a1 92 d0 bd 44 bd 11 3e
       -0.06559709 -0.27082312 -0.10184217 0.14232355
0003c0 07 e1 22 be 9c f6 8d be b2 f7 ae bd 9d dc 80 be
       -0.15906154 -0.2772721 -0.08543338 -0.25168315
0003d0 10 f7 26 be 56 1f b2 3c 7e 9d a5 be 69 1d 89 be
       -0.16305184 0.021743458 -0.3234672 -0.2678025
0003e0 60 84 2a be 26 06 25 3e 9a 55 00 40 71 60 cb 3c
       -0.1665206 0.16115627 2.0052247 0.02482626
0003f0 ca 7b 75 be 57 d7 b4 be db 0c d0 bd b2 a1 a1 be
       -0.23973003 -0.3532054 -0.10158702 -0.31568676

linear2.weight f4 [256, 256]
000000 00 1a c0 39 40 e7 79 bb 6a ef b3 3d 47 74 5c 3b
       0.00036640465 -0.003813222 0.08785899 0.0033638643
000010 cf 6c b8 bb 29 89 31 bc 07 f7 97 3c 4a 1e 0b bd
       -0.0056282054 -0.010835924 0.018550409 -0.033964433
000020 5f 21 49 bd 2b 86 07 bd e7 81 73 bd 48 e8 3a 3c
       -0.04910409 -0.033086937 -0.059450056 0.011407919
000030 d7 ce a9 3c 56 2e 1f bc 43 06 95 b9 8f 4d 46 bd
       0.020728512 -0.009715637 -0.0002842416 -0.04841381
000040 d8 65 7b bd ab de ce bb 14 b9 1f 3d e4 22 8f 3c
       -0.061376423 -0.006313165 0.038994864 0.017472692
000050 04 90 85 bd 78 e1 81 bb 52 f6 5d bc cc 59 de bb
       -0.065216094 -0.0039636455 -0.013547497 -0.006785607
000060 18 2f 08 bd a1 5c 45 bd bd 6f 88 bd 9f c5 a8 bc
       -0.033248037 -0.04818404 -0.066619374 -0.020602046
000070 7c 5b 3e bd 12 7e 45 bd c8 bd 97 bb ef 20 94 ba
       -0.046473965 -0.048215933 -0.004630778 -0.0011301319
000080 b8 78 f0 bd e5 e5 a0 bd 69 89 6b bd 16 65 b6 bd
       -0.11741775 -0.07856349 -0.05750409 -0.08905999
000090 82 b1 9c bd b6 ea 53 bd e8 99 5f 3d 5c 02 ec bc
       -0.076510444 -0.05173751 0.054590136 -0.028809719
0000a0 83 11 a6 3c 9f 09 b1 3c f2 bf 87 3c 30 09 f0 3b
       0.020272022 0.021611033 0.016571019 0.007325314
0000b0 a6 8c ab bb ec a2 eb bc d3 3b 6d bd ce 0f 92 3d
       -0.0052352725 -0.02876421 -0.05791838 0.07131921
0000c0 ca ca b6 bc e0 30 31 bc 92 16 41 bd 7d e7 87 3c
       -0.022313494 -0.010814875 -0.047140665 0.016589874
0000d0 f2 dd 68 bd b1 bf 3c bc 34 91 81 bd 48 6e 6e bd
       -0.05685229 -0.011520312 -0.063265234 -0.05821064
0000e0 51 59 03 bd 2e c6 03 3c 8f 72 d8 bd a5 23 2c 3d
       -0.0320676 0.008042855 -0.10568725 0.04202618
0000f0 eb dc 0d 3d 00 31 2e bd 90 88 3b bc 4b 4b 94 bd
       0.034634512 -0.0425272 -0.011446133 -0.072409235
000100 27 ef 83 bd 3d b6 67 3c a0 e2 87 3c 74 ba 98 3d
       -0.06442099 0.01414257 0.016587555 0.07457438
000110 df 08 7b bd 6d ea e8 3c 4b 3f 2b ba 86 0d b9 bd
       -0.061287757 0.028432095 -0.0006532564 -0.090357825
000120 4c e4 86 bd fd 42 94 bc 97 0b 55 bd 87 25 39 bd
       -0.06586513 -0.018098349 -0.052013006 -0.045201804
000130 8e 4d a2 ba 45 c3 6a 3d d0 46 52 3d f4 bf 86 3c
       -0.0012382732 0.05731513 0.051337063 0.016448952
000140 50 4c d8 bd 37 74 1b bd a9 b1 d4 3b 31 bf 23 bd
       -0.105614305 -0.037952628 0.0064909053 -0.039977256
000150 3e f5 d3 bd 7c 04 cf bc e7 36 56 bd 40 45 9a bd
       -0.103495106 -0.025270693 -0.052298453 -0.0753274
000160 71 f3 12 bc 15 01 44 bd e9 8b 86 bc 62 5c 65 bd
       -0.008969174 -0.047852594 -0.016424136 -0.055996306
000170 df 04 ad 3a b8 a0 1e 3c 44 47 01 3d 79 f2 1f bd
       0.0013200304 0.009681873 0.031562105 -0.0390496
000180 14 94 47 3d 5b b9 fe bb 5b 22 b0 3c 08 4f b5 bd
       0.048725203 -0.007773561 0.021500757 -0.08852965
000190 b9 54 a3 bb 8a ba ce bd 68 43 87 bd a6 d8 7f bd
       -0.004984465 -0.10094173 -0.066046536 -0.06246247
0001a0 f9 48 0c bd fc df 53 bd b8 e6 1e 3d fc ae 5b bd
       -0.03424928 -0.05172728 0.03879425 -0.053633675
0001b0 cc 3f 82 bd fe 62 9f bd 0e 52 7e bc d4 85 7f bd
       -0.063598245 -0.07782553 -0.015522493 -0.062383488
0001c0 5b 2a 40 bc 20 97 29 bd eb 02 8c bd c0 2b 42 bc
       -0.011728848 -0.04140389 -0.06836494 -0.011851251
0001d0 6b 03 87 3b 42 ac d6 bd 7c 01 29 3d 0c 52 0d bd
       0.0041202805 -0.10482074 0.04126118 -0.034502074
0001e0 52 0d c0 bd 81 f2 14 bd 85 86 68 bd a1 d6 1a bd
       -0.09377541 -0.036364082 -0.056768913 -0.037802342
0001f0 9b 64 23 bc 14 18 88 bd 36 e4 53 bd 0a 5b 7a bd
       -0.009972717 -0.066452175 -0.05173131 -0.061121978
000200 1b 96 f3 bd d6 0c b8 bd c6 bf bb 3c fa 18 19 bd
       -0.11893865 -0.08986823 0.022918593 -0.037377335
000210 c2 67 93 3d e8 8c 51 3d 5b 00 97 bd f5 66 5f bc
       0.071975246 0.05115977 -0.07373115 -0.013635387
000220 e1 30 70 bc cd 69 86 3d d0 9b 14 3c ef a5 3f bd
       -0.014660091 0.06563149 0.009070352 -0.046789106
000230 6d 27 dd bc 5d 12 2e bd 8b 42 ab bc c0 6e 3f bc
       -0.026996339 -0.04249798 -0.020905754 -0.01168412
000240 61 f9 6e 3c 84 20 bb bd ca 4f 89 bc e8 1d 47 bd
       0.014585824 -0.09137061 -0.01676168 -0.048612505
000250 20 c9 81 bc 98 bf 2c bd a9 c7 b3 3c 93 57 d3 bc
       -0.015842974 -0.042174906 0.021945791 -0.025798595
000260 a2 31 17 bc f5 2f a1 3d f9 21 3b bd 50 a1 46 bd
       -0.009228142 0.07870475 -0.045686696 -0.048493683
000270 50 03 e7 bc cc 58 1d bd 47 43 a2 3c e4 66 3a bd
       -0.028199822 -0.03841476 0.019807471 -0.04550828
000280 b8 08 b1 bd d2 82 5c bd 91 6a 52 bd 1c 2c 80 bc
       -0.08644241 -0.053835697 -0.05137116 -0.015646033
000290 b6 69 13 3d 66 4b aa bd 58 ed 5c bd 7a b1 f6 bb
       0.035989486 -0.08315162 -0.053937286 -0.007528481
0002a0 60 3a 3f bc d1 91 9f bd f2 ed ce ba fa 64 82 bd
       -0.0116716325 -0.07791484 -0.0015787466 -0.06366916
0002b0 bc eb 16 3c 39 c0 3f 3d 4a 19 3b 3d 4e 91 be 3b
       0.009211477 0.046814177 0.045678414 0.0058156615
0002c0 fe db 4a 3c 22 5e 07 3d 21 24 f9 bc 8a c6 8d 3c
       0.012381552 0.033048756 -0.030412735 0.017306585
0002d0 1a 5a 54 bd b3 5a 9d bc 96 a4 f9 bd 48 46 70 3d
       -0.05184374 -0.019208288 -0.121895954 0.058660775
0002e0 2b 22 36 bc 1a 83 12 bd e9 ce 8f 3c 4c 10 ee bc
       -0.011116545 -0.03576956 0.017554717 -0.029060505
0002f0 04 2a ca 39 c0 0a eb 3a a4 ce 7c bd f5 86 61 bd
       0.00038559746 0.0017932281 -0.061720505 -0.055060346
000300 6e db 19 bd 15 ca 6a bd c1 00 5e bd d4 3c f5 3c
       -0.03756278 -0.057321627 -0.054199938 0.029936232
000310 05 08 a5 bd a9 a1 39 3d cd 00 df bd b2 63 2c 3d
       -0.0805817 0.045320187 -0.108888246 0.042087264
000320 dd a6 9c 3c b1 09 e7 bd 6c 83 7e 3d 64 b9 74 3d
       0.019122535 -0.11281145 0.062137052 0.059747115
000330 84 46 93 3a 52 96 17 bd 2e 93 1e bc ac 5a 3f bd
       0.0011236225 -0.03700859 -0.009678645 -0.04671733
000340 c9 59 44 bd ed e2 17 bd 20 48 be bd b1 81 2a bd
       -0.04793719 -0.037081648 -0.092911005 -0.04162759
000350 e2 7c 2a bd 1e 51 80 3c 17 b6 9d bd e0 88 1f 3c
       -0.041623004 0.01566368 -0.077007465 0.009737223
000360 e0 ac 05 3d 9b c2 4f 3d 95 79 cd bc 06 b4 6f 3a
       0.03263557 0.0507227 -0.025082389 0.0009143952
000370 f2 9d bf bd 4a 9f 13 3c 68 04 09 3d fb a2 2d bd
       -0.093562976 0.009010145 0.033451468 -0.04239176
000380 b1 f7 9f bc 5a 75 4b bd f6 49 39 bd 08 a6 10 bd
       -0.019527288 -0.049672462 -0.04523655 -0.03531459
000390 c5 cd 1b bd 45 01 bb bb b9 21 08 bd 22 86 a6 bd
       -0.038038034 -0.0057069384 -0.033235285 -0.081310526
0003a0 e1 83 12 bd 73 21 cb 3c 25 3d 3b bd 4b b3 07 bd
       -0.0357703 0.024796223 -0.04571261 -0.03312997
0003b0 75 7e 28 3d 6c d9 0f bd b8 d7 2e bd b4 24 8b bd
       0.041136224 -0.03511946 -0.042686194 -0.0679411
0003c0 cc 9f ec b9 2a db 97 bd 7d d3 3f bc 73 c1 8e bd
       -0.00045132486 -0.07414849 -0.011708138 -0.06970491
0003d0 00 f3 b6 3a 78 7a 52 bc 25 b9 42 bd 91 64 8a 3d
       0.0013957918 -0.012846582 -0.04753985 0.06757463
0003e0 dc 03 99 3c 0b 96 8a bd b8 36 97 bd b9 1e 8b 3c
       0.018678598 -0.067669 -0.07383484 0.016982423
0003f0 d0 ac f4 bc 6a 0d 90 bd 7d 12 1a 3d 2e 5b 3c bc
       -0.02986756 -0.070338085 0.037615288 -0.011496348

linear2.bias f4 [256]
000000 a3 45 1e b9 07 a0 a9 bc f9 ad a0 bd 56 2f 7b bd
       -0.00015093996 -0.02070619 -0.07845683 -0.06132444
000010 71 ec 0b bd 35 5a c1 bd 45 b3 b6 3c 63 a2 4b bd
       -0.034161035 -0.09441034 0.02230228 -0.04971541
000020 25 ae 66 be 40 8f 14 bd 35 3b dc 3d 29 6b 37 bd
       -0.22527368 -0.036269426 0.1075348 -0.04477993
000030 23 ac 3c bd 9c de d2 bc 7e da 4f bd 83 4d 0a be
       -0.0460626 -0.025740914 -0.05074548 -0.13506131
000040 05 84 d8 bd bc 2c 8e bd 04 b6 ed bc 35 bb 79 3b
       -0.10572056 -0.06942126 -0.029017456 0.003810597
000050 b0 88 0a be 30 78 ba bd d9 0b 93 3e f4 fd 11 be
       -0.13528705 -0.09104955 0.28719977 -0.14257032
000060 d7 a6 fb bd 10 18 02 bd 43 15 da bc a6 00 2f bd
       -0.122876815 -0.03176123 -0.026621467 -0.042725228
000070 3a 33 6b bd 70 1a ca bd 25 be cb bd f4 b4 bf 3e
       -0.0574219 -0.09868324 -0.099483766 0.37442744
000080 30 ed 36 be 11 84 da bd d4 27 2c bd b5 5f bc bb
       -0.17863917 -0.10669721 -0.04203017 -0.005748714
000090 39 02 fd bd 96 08 a5 3c 42 34 d9 3b 7e c4 cd bd
       -0.123539396 0.020145696 0.006628544 -0.100472435
0000a0 69 26 94 bd f1 0d 05 bd 9c 79 b2 bd f3 82 9c bd
       -0.07233889 -0.032484 -0.087146014 -0.07642164
0000b0 3f 0b 22 be 2a 72 88 be 15 bc d6 bd bb 33 8f 3e
       -0.15824603 -0.266496 -0.104850926 0.27969155
0000c0 4a 39 8a 3d 33 6f dd bd 9f 63 48 3c 48 4a bc bd
       0.06749208 -0.10812225 0.012230783 -0.091938555
0000d0 c8 22 2a bd 37 06 ce bd 12 b8 c1 bd d8 4b 2d bd
       -0.041537076 -0.10059779 -0.09458937 -0.04230866
0000e0 f0 af 72 bd dd 2e 38 bd b4 19 33 bd 97 42 c8 3c
       -0.05924982 -0.044966567 -0.043725684 0.024445815
0000f0 0a 4a 42 40 52 26 d2 3d 09 76 87 bd 5e fd 62 bd
       3.035769 0.10261215 -0.0661431 -0.05541741
000100 3a e4 c1 bd d6 cc bb 3c c8 79 8f bd 4f c6 c6 bb
       -0.09467359 0.022924822 -0.0700565 -0.0060661207
000110 c1 7b f5 bc c4 76 42 be dc e9 c2 bd 41 02 4e bd
       -0.029966237 -0.18990618 -0.095172614 -0.05029512
000120 72 c6 1b be 71 f7 ef bc 32 5a fe bd 4f 5b 9f 3c
       -0.1521242 -0.029292794 -0.12419547 0.019452719
000130 59 5f a4 bd ac ed cf bd 7f 63 1a bd d9 24 d6 bd
       -0.080259986 -0.10152754 -0.037692543 -0.10456247
000140 67 f6 2d 40 5e 67 cc 3e 78 cd 9c 3c 90 53 90 be
       2.7181642 0.39922613 0.019140944 -0.28188753
000150 c7 18 a2 bd 60 d4 0d bd 53 5d 4d bd fb 23 33 bd
       -0.07914882 -0.034626365 -0.05013783 -0.043735486
000160 9b 47 95 bd cd 2e 83 3c 27 2a 42 bd a0 59 87 3e
       -0.07289048 0.016013527 -0.04740348 0.26435566
000170 93 eb 1a be db 9a e1 bd 83 dd 0e be 45 b7 ae bd
       -0.15128927 -0.110158645 -0.13951688 -0.0853105
000180 7f 0c 13 bd 91 0b f3 bd 00 7e a5 bd 97 11 da bc
       -0.03590059 -0.118674405 -0.08080673 -0.026619716
000190 8c 9f 1d bd ab 32 b2 bc 1b bc 94 bd 30 d2 81 bd
       -0.038482234 -0.021752676 -0.07262441 -0.06338918
0001a0 29 2e d2 3f 98 c4 61 bc 99 1e 55 bd c7 03 89 bd
       1.6420337 -0.013779782 -0.052031133 -0.066901736
0001b0 53 c0 7e 3c 92 f1 26 be ec d9 64 bd bf af 7c bd
       0.015548783 -0.1630309 -0.05587189 -0.061691042
0001c0 23 5f 33 bd f5 25 e5 bc 5f d9 0f be 2d 29 ca bd
       -0.0437919 -0.0279722 -0.14047764 -0.09871135
0001d0 6f 85 39 bd 5e e3 ce bd 45 8d 76 bd d5 2b 35 be
       -0.045293268 -0.101019606 -0.06019332 -0.17692502
0001e0 bc 09 22 bd 2f ed 14 bc 86 b9 b5 bd 4f 35 3b be
       -0.039560065 -0.009089752 -0.088732764 -0.18282054
0001f0 3f af 88 3d f3 dd c4 bd 8e 69 74 3e ce 65 26 3c
       0.066740505 -0.09612646 0.23868391 0.010156108
000200 f6 d5 83 bd fd 92 1e 3c 74 5d 47 bd 41 73 19 be
       -0.06437294 0.009678599 -0.04867311 -0.14985372
000210 34 81 ef be 10 7d 27 bd a0 64 30 be 29 69 23 40
       -0.46778262 -0.040890753 -0.17225885 2.5532935
000220 10 a9 c4 bd 83 59 e3 bd 0c 2f 94 bb 0b 21 13 3e
       -0.096025586 -0.111010574 -0.00452221 0.14368074
000230 d9 e5 d1 bd b9 e9 83 bd e2 da 81 bd c9 80 73 bd
       -0.10248918 -0.064410634 -0.06340577 -0.05944899
000240 1b cf b7 bd 59 80 05 be ec f5 a3 bd 52 83 51 bc
       -0.08975049 -0.13037242 -0.0800589 -0.012787657
000250 ae 2f 42 bd dd c6 b8 bd eb 8f 44 bd 03 1c 5f be
       -0.047408752 -0.09022305 -0.047988813 -0.2178803
000260 17 40 8d bd 5a 65 9f bd 74 10 af bd 7d c8 18 bd
       -0.0689699 -0.07783003 -0.0854806 -0.037300576
000270 6e 73 98 bd d5 04 a5 bd 81 e7 22 3f 82 80 d3 bc
       -0.074438915 -0.08057562 0.63634497 -0.025818113
000280 53 c7 80 be 9c 83 4d bd bb 3f 9b bd d8 b4 db bd
       -0.25152072 -0.05017434 -0.07580515 -0.107278526
000290 c0 a8 2c be fa f3 d2 3c d7 9c 8b bd 5f d9 4f bd
       -0.16861248 0.025751103 -0.06817024 -0.05074441
0002a0 3f 4f e6 bd 44 97 82 be 79 d7 dd bd c9 8e a3 3c
       -0.11245584 -0.25506032 -0.10832114 0.019965546
0002b0 4b eb 0e 3f 80 f4 b6 be 7f a7 09 bd ec 18 2c 3c
       0.5582778 -0.35733414 -0.033607002 0.010503989
0002c0 48 11 af bd c5 ca 83 3e 0d 5b 9b bd 24 8a 04 bd
       -0.08548218 0.25740638 -0.07585726 -0.032358304
0002d0 8b 54 9e bd 49 17 de bc a9 ca fd bd ef a1 70 be
       -0.07730969 -0.027110713 -0.1239217 -0.23499273
0002e0 88 aa 94 bd 4c d2 8c bd 28 86 41 40 d9 10 72 bd
       -0.07259089 -0.068760484 3.0238132 -0.0590981
0002f0 70 d5 f0 bd 20 6c 90 bc 6c 62 47 3e 93 71 4e bc
       -0.1175946 -0.017629683 0.19471139 -0.01260032
000300 36 78 51 bd 07 54 21 be 40 60 fc bd 84 a3 66 bc
       -0.051140033 -0.1575471 -0.12323046 -0.014077071
000310 0c ac ad bd 80 d6 50 bd f7 78 89 bd cc 6a ee bd
       -0.08480081 -0.050985813 -0.06712525 -0.11641464
000320 04 a9 c8 bd 14 6c d1 bd e2 21 ac be a3 d0 54 be
       -0.09797862 -0.102256924 -0.336196 -0.20782714
000330 b8 a3 77 be fa 48 a5 bd d1 f4 da bc 2c 45 81 be
       -0.24183547 -0.0807056 -0.026728066 -0.25248086
000340 c7 28 5b bd 8f 11 8d 3d 2d 31 b8 bd 61 6a 55 40
       -0.053505685 0.06888115 -0.089937545 3.3346179
000350 3b 3f d0 bd e3 e4 18 3d 2e a5 af 3c 6c f1 91 bd
       -0.1016831 0.03732766 0.021441069 -0.07126126
000360 b0 00 01 3f f3 95 a4 bd 20 ab 26 bd b3 b3 cb bc
       0.50391674 -0.08036413 -0.04069054 -0.02486596
000370 27 26 66 3b 96 56 97 bd bb 51 12 40 50 92 44 bd
       0.0035117955 -0.07389562 2.2862384 -0.047991097
000380 2d 96 8b bc 0f 5f d0 bd 72 6e 84 bd 6d 8e 20 3d
       -0.017039383 -0.10174381 -0.06466378 0.039198328
000390 36 dd 04 be b1 14 f4 bd b4 e2 a6 bd 98 a1 e0 bc
       -0.1297501 -0.11918009 -0.08148709 -0.027420804
0003a0 7a 55 4d be a1 cb 6c bd 3c 5a c0 bc 0d f6 8c bd
       -0.20052138 -0.057811383 -0.023480527 -0.06882868
0003b0 6c 80 44 be 7a 22 15 bc 20 7c 15 be e3 3b c3 3e
       -0.19189614 -0.009102458 -0.14598131 0.38131627
0003c0 f1 94 69 be 7d 33 98 bd 30 fc 74 bd 02 a9 f5 bd
       -0.22810723 -0.074316956 -0.059810817 -0.11995126
0003d0 f7 03 e8 bd dc 83 24 bc c1 e4 63 bb 6f 80 94 bd
       -0.11328881 -0.010041203 -0.00347738 -0.07251059
0003e0 d0 c8 45 bd 51 0f cf bd 69 da 80 be 2b 77 d3 bd
       -0.048287213 -0.10110343 -0.25166634 -0.10325464
0003f0 bd 87 5a be ac 48 e9 bd 04 9a 70 bd 5f c7 88 3d
       -0.21340843 -0.11390814 -0.05874063 0.06678652

linear3.weight f4 [3, 256]
000000 d4 85 06 3c 2b 30 46 bc fa dc da bb 56 e0 6a 3d
       0.008210618 -0.012096445 -0.0066791745 0.05734285
000010 73 54 08 bb 25 af 17 bf 71 c7 38 3d d1 7d 04 bd
       -0.0020802289 -0.59251624 0.045112077 -0.03234655
000020 d6 83 b6 3c 23 45 b2 3c fc 38 b1 bf 13 be d6 3c
       0.022279661 0.021761483 -1.3845515 0.026213681
000030 0e 43 0b bc d2 14 b4 bb f4 c2 1d 3b 72 14 b8 be
       -0.008499874 -0.005495646 0.00240725 -0.359531
000040 69 70 0c 3d 70 b8 07 bc 75 91 21 bd 52 38 58 3d
       0.03428689 -0.008283719 -0.03944536 0.052788086
000050 e9 35 22 bd 72 24 25 3d 4d 7c 1c 3e 15 99 d4 bd
       -0.039602194 0.04031796 0.15281792 -0.103807606
000060 39 77 37 bb d0 10 8b bb 0e 95 9a 3d e8 71 7b bc
       -0.0027994646 -0.0042439476 0.07547961 -0.015346982
000070 70 f0 5b bc 7a ff ac 3c bb 91 c2 3c 67 fa ac 3d
       -0.013424024 0.021117914 0.02375113 0.08446198
000080 99 f8 73 bc 92 4b 1c bf 27 3b 44 bd 50 eb 10 3d
       -0.014890813 -0.6105281 -0.047907975 0.03538066
000090 22 a1 a0 bc f9 56 e1 3d 82 fa 1d bd fb 35 aa be
       -0.019608084 0.11002917 -0.03856898 -0.3324431
0000a0 60 be 4a 3b 0d 56 d4 3c 0e ce 4b bd 18 f6 80 3c
       0.0030936226 0.025919938 -0.049757056 0.015742347
0000b0 4a 83 36 be 14 5e d5 bd 6c 56 7b 3c ea c7 a9 3c
       -0.1782352 -0.104183346 0.015340429 0.02072521
0000c0 62 ce 6c 3d 19 5c fb bb 7d a7 8f 3c 36 04 56 3c
       0.05781401 -0.007670891 0.01753592 0.013062527
0000d0 5b 38 8a 3b 88 31 f5 3c 5f 68 f3 bc e9 dd fc 3b
       0.004218144 0.029930845 -0.029712854 0.0077168834
0000e0 94 15 d9 bc 55 26 e4 bc 22 91 c6 3c 80 fa 6f bf
       -0.026499547 -0.02785031 0.024239127 -0.9374161
0000f0 2d e5 96 3e 0f 09 0b bf 17 0a 81 3c 5e dc e9 bd
       0.29471722 -0.543107 0.015751882 -0.11418985
000100 de c4 d5 3c 52 98 d6 3c 10 33 bd bd 23 7d a7 3c
       0.02609485 0.026195679 -0.09238255 0.020445412
000110 9b 13 16 bf 26 42 96 bd d6 f6 05 3c 0f 00 37 3d
       -0.58623666 -0.073368356 0.008176526 0.04467779
000120 c0 82 e1 bb 16 4e e6 bb 6e ba 0b 3c b5 26 80 bf
       -0.0068820417 -0.0070283515 0.008528335 -1.0011812
000130 be bc 95 be a4 f2 0d ba cf 92 00 bd 22 64 00 3d
       -0.2924556 -0.00054148794 -0.031390008 0.031345494
000140 21 06 8f 3e 83 22 30 3c 81 73 77 bc 59 46 cc be
       0.27934363 0.010750416 -0.015103222 -0.3989742
000150 cb 0a 92 bc 37 33 78 3c 9c e5 c7 bc ca f3 18 bc
       -0.017827412 0.015148929 -0.024401478 -0.009335468
000160 a2 9b 41 3d a6 64 3e bc f6 0c ed 3a 47 eb 82 3d
       0.047267564 -0.011620676 0.0018085528 0.06392532
000170 e2 10 9f bd ac d1 d6 bd 6a 24 f1 3c bf 2a fe 3d
       -0.07766892 -0.104892105 0.029436309 0.12410497
000180 a2 62 03 3d 21 ac c8 3c 30 b0 05 ba 9d b1 16 bb
       0.032076485 0.02449614 -0.00050998013 -0.002299405
000190 22 50 87 bc 29 85 d1 3b 1e 59 bc bc 7f 9e 8b bb
       -0.016517702 0.0063940478 -0.022991713 -0.0042608376
0001a0 a9 4c 97 bb ff 5b 8a 3c ef 70 77 3c a8 4f 26 bd
       -0.004617293 0.01688957 0.015102609 -0.04060331
0001b0 76 60 77 bd fd d0 88 3c 79 a3 c7 3c a2 c4 c0 bb
       -0.060394727 0.016701216 0.024369942 -0.0058828155
0001c0 0d 5d 95 3d 63 19 f9 bc 30 fe 88 bd 60 1b d4 3c
       0.07293139 -0.030407613 -0.066891074 0.02589196
0001d0 71 27 33 bd 92 94 18 bd cd 91 21 be b7 d9 7e bd
       -0.043738786 -0.037251063 -0.15778275 -0.062219348
0001e0 cd da 3c 3d 65 8a ac 3d 8e 39 f6 3a 6e 6e 7a 3b
       0.046107102 0.08424834 0.0018785463 0.0038212794
0001f0 75 e8 89 3d 50 29 15 3d 67 84 53 3c 31 22 01 bc
       0.06733791 0.03641635 0.012909985 -0.007881687
000200 47 8e 10 bb a6 0b 10 bd 2f d8 58 3d 25 3f 6d bd
       -0.002205746 -0.03516736 0.052940544 -0.057921547
000210 4d 35 f5 be bf a0 d8 bb c8 a8 58 3c 53 8d 76 3e
       -0.47892228 -0.0066109593 0.013223834 0.24077348
000220 2e 25 d7 3c 23 6f 42 be 5b f5 31 3b ae 50 78 bf
       0.026262846 -0.18987708 0.00271543 -0.9699811
000230 3d 20 b6 bc fb 70 3c 3c 8b 1d 88 3d b0 0b fc 3c
       -0.02223217 0.011501546 0.0664626 0.030767292
000240 cf 9b b6 bc 6e 74 a0 be 3d 2c d9 bb 9c 05 ba 3c
       -0.022291092 -0.3133883 -0.006627588 0.022707753
000250 4c e3 87 3d eb 87 44 bc d7 6f e9 bb cb 19 9b bc
       0.0663515 -0.011995296 -0.007123928 -0.018933197
000260 dc 58 fd bc d3 88 e2 3c bc af e5 bd c0 28 9c bc
       -0.03092616 0.027653133 -0.11215159 -0.0190624
000270 50 8f 40 bd 60 3c 11 3d 85 c8 b8 3d dc 7e 07 bc
       -0.047011673 0.03545797 0.09022621 -0.008269992
000280 88 01 8e be 58 bd d9 bc 07 27 e4 bc 05 67 12 bd
       -0.27735543 -0.026579544 -0.027850641 -0.03574278
000290 7a 90 9f 3c f7 93 bc 3c b1 17 fc 3c ce 70 f5 3c
       0.019478071 0.023019774 0.030773016 0.029961016
0002a0 54 bb e5 3c c5 05 7d bd 12 91 cc 3a 22 c3 05 3e
       0.028043427 -0.06177308 0.0015607199 0.13062719
0002b0 bf 82 84 3c 3b d0 9f be 4a a4 29 3d cd 79 e6 be
       0.016175626 -0.31213555 0.041416444 -0.45014802
0002c0 25 a1 18 3c e7 47 cb 3d 80 fd db bc a8 cf 5b bd
       0.009315764 0.09925824 -0.026854277 -0.053664833
0002d0 00 7e 45 ba 87 2b 51 bc 44 2d a6 3c 87 fd 48 3e
       -0.0007533729 -0.012766725 0.020285256 0.19627963
0002e0 e2 a2 60 3d 48 7d 03 3c ec fc 97 3e 4e 06 e8 3c
       0.054842837 0.008025475 0.29685152 0.028323319
0002f0 db d8 39 3c 4b 9c 26 3d 57 7b d7 3c 9f 35 26 3b
       0.011343206 0.040676396 0.02630393 0.002536155
000300 f0 ac b1 3c b1 15 21 3d 3a 06 f3 3d b9 11 76 bb
       0.021688908 0.039327327 0.11866422 -0.0037547185
000310 0f d8 c3 3b 56 38 f3 3c 14 7d 4d 3d 9d cc 9b bc
       0.005976684 0.029689949 0.050168112 -0.019018466
000320 29 1d 23 3c 6e ad cd bc 45 61 83 be 88 59 9f bc
       0.009955683 -0.025107112 -0.25660148 -0.019451872
000330 42 49 7d bd 3d 18 3e 3b a8 bc 00 bd d1 45 1b bf
       -0.061837442 0.0029006146 -0.031429917 -0.60653406
000340 bf 2d 03 be 78 19 b4 3d 16 7b 13 3d 39 2a a0 3e
       -0.1281042 0.0879392 0.036006056 0.31282213
000350 e4 d3 f4 bb 50 c9 8d 3c 6a 24 71 3d 37 d5 fd 3c
       -0.0074715484 0.017307907 0.058872618 0.030985458
000360 67 c7 c5 bc ad fd f3 bc c1 ae a1 bc 66 2d cd bc
       -0.024142934 -0.029784048 -0.01973665 -0.025046062
000370 ce 5c a5 3b 31 39 b6 bc 74 58 62 3e c0 2a 0f 3d
       0.0050464636 -0.022244068 0.22104055 0.03495288
000380 b5 65 2d bc eb 3f 81 bd 9d 50 34 bc 3b e0 f3 3c
       -0.010583331 -0.063110195 -0.011005548 0.029770007
000390 74 5b d0 3c c6 c3 bc bc 93 af 93 bc 0a 2e 74 bc
       0.025434233 -0.02304257 -0.018028056 -0.014903555
0003a0 a2 c5 ab bc 35 fa 1e bb 2e 54 ec 3c a5 0a ac 3d
       -0.020968262 -0.0024258022 0.028848734 0.08400468
0003b0 fb e8 ac bc 8b 04 d3 bb 42 b3 1c 3d eb a9 92 3c
       -0.021107187 -0.0064397505 0.03825689 0.017903289
0003c0 55 9a 85 bd a7 c2 e3 bb 96 c8 7c 3d 52 e3 9c bc
       -0.06523577 -0.0069506946 0.06171473 -0.019151364
0003d0 d2 da 54 bd 18 72 e0 bc b0 f2 4a bd e8 dc ad 3c
       -0.051966496 -0.027398154 -0.04954785 0.0212235
0003e0 2b 8a c4 b8 a6 3b 50 3c c4 7c 97 bd 92 0a a2 bd
       -9.371744e-05 0.012709534 -0.07396844 -0.079121724
0003f0 66 34 8d 3c be 83 28 3c 96 2b b2 bc 7a c6 ef 3d
       0.0172369 0.010285316 -0.021749299 0.11707778

linear3.bias f4 [3]
000000 d6 b7 06 3f 21 79 26 3f 32 02 18 3f
       0.5262426 0.6502858 0.5937835
