checkpoint_game_200.pth (torch, 281408 bytes, 6 tensors)

linear1.weight f4 [256, 11]
000000 29 0c 54 be 97 7a 37 3e 64 4a ff bd 35 ad 16 3e
       -0.20707764 0.17917858 -0.12465361 0.1471451
000010 12 2b b3 3d 3b bb ed 3d 44 72 45 be 09 60 28 be
       0.087484494 0.11607977 -0.1928187 -0.16442885
000020 11 3d df bd 9c 19 16 be 9d 8f 87 be 3d 24 b5 3e
       -0.10900319 -0.14658207 -0.26476756 0.3537921
000030 dc 27 20 3e f4 b2 12 be da 3c 75 bd 28 e0 92 3d
       0.15640205 -0.14326078 -0.059872486 0.07171661
000040 c3 81 84 3d df 95 50 be 0a 33 9f bd 42 aa a8 bd
       0.064700626 -0.20369671 -0.07773407 -0.08235599
000050 92 d3 32 3d df bb df bd b0 52 b1 bd b2 b4 63 be
       0.0436588 -0.109245054 -0.086583495 -0.22236899
000060 30 58 c5 bc 0e b5 94 be 72 d9 5a 3e ce d8 39 be
       -0.024089903 -0.29044384 0.21372011 -0.1814911
000070 30 2b 8c 3e 41 9c c6 be fb 5d 87 be aa 12 9b be
       0.273767 -0.38791087 -0.2643889 -0.30287677
000080 6b bc 95 3c f8 72 86 3e 04 88 f4 3e 49 04 d3 3e
       0.018278321 0.2625959 0.47760022 0.41214207
000090 00 2c 58 3d 8d 60 6d bd 0a 0a 2a be ce 7e 9c 3c
       0.052776337 -0.057953406 -0.16605392 0.019103434
0000a0 24 f4 24 3e a3 c0 cf 3d 3f 32 29 be ee 2d 28 be
       0.16108757 0.101441644 -0.16523074 -0.16423771
0000b0 a0 a3 bb 3e 07 8d e3 bc a7 79 16 be 22 7b 7a 3e
       0.36648273 -0.027777208 -0.14694844 0.24461034
0000c0 e1 09 91 3e 39 b7 9d be 28 39 81 3e d8 81 42 3e
       0.2832785 -0.3080385 0.2523892 0.18994844
0000d0 4e 7f 6f be df bf 4d 3e 52 7d 02 be 38 30 10 3e
       -0.23388407 0.20092724 -0.12743118 0.14080894
0000e0 76 d0 bf 3e eb 76 78 be d1 54 5f be c0 05 e9 bb
       0.3746373 -0.24264114 -0.21809699 -0.007111281
0000f0 6d c3 80 be 44 8e a4 bb 6b 8f c6 3d 80 0a 8d be
       -0.25149098 -0.005021842 0.096953236 -0.27547073
000100 37 75 9c 3d 8f 43 bf be 84 5e e0 3e 19 69 cd be
       0.076395445 -0.3735623 0.4382211 -0.40119246
000110 bd 88 34 be 29 b3 97 3d 4c ed bb bd 10 84 4b be
       -0.17630287 0.07407219 -0.0917612 -0.19874597
000120 a0 fa 12 be 8b d8 3a bd 1d e5 32 3e 34 42 00 3e
       -0.14353418 -0.045616668 0.17470212 0.12525254
000130 0d a0 78 3e 32 dd 6e be fe 6d 3f bc a5 46 2f 3e
       0.24279805 -0.23326567 -0.011683939 0.17116793
000140 1f a2 66 bc 4b 9d b2 3b aa 28 69 3e 42 6f 6b 3e
       -0.014076739 0.0054508797 0.22769418 0.2299166
000150 68 53 ee bc b4 35 2b be 20 33 62 3e 5b 52 54 bb
       -0.029092506 -0.16719705 0.22089815 -0.003239772
000160 f4 da b1 3e aa 30 f9 3c 02 c9 8a bd 5d 57 cd 3d
       0.3473736 0.030418713 -0.067766204 0.10026429
000170 11 90 86 3e d9 d1 90 be 75 10 0e be 09 06 b5 be
       0.2628179 -0.282851 -0.13873465 -0.35356167
000180 8e 31 3f be 40 c4 12 3e dc 12 fa 3d d5 9f 38 be
       -0.18671247 0.14332676 0.122106284 -0.18029721
000190 00 2a 03 3f be 3b fa 3e 75 2f 7d bc 86 09 33 be
       0.5123596 0.48873705 -0.015453209 -0.17484102
0001a0 a4 94 6b be 07 58 bc bd 94 4f 82 3d 0f 2d b7 bd
       -0.2300592 -0.091964774 0.063628346 -0.08944141
0001b0 15 6d 0d be ad 95 fe 3a c4 e0 86 be 61 f7 31 be
       -0.13811143 0.0019423269 -0.26343358 -0.17379524
0001c0 4e 69 a5 be a9 4a 9d 3d a1 9c 6d 3e 24 b7 f3 3d
       -0.32306904 0.07680256 0.2320428 0.11900166
0001d0 a9 89 c6 bd ba 00 8d 3d a4 0b 41 be ea 57 6e 3e
       -0.09694225 0.06884904 -0.18852097 0.23275724
0001e0 3b 22 95 bd 48 1e 57 be 95 a7 03 3f 0a a7 c4 bd
       -0.072819196 -0.21007645 0.51427585 -0.09602173
0001f0 32 9e 24 3d 98 ae 96 3d d4 69 93 bc d8 f2 91 be
       0.04018993 0.0735752 -0.017994799 -0.28505588
000200 a6 85 48 3e 98 84 1f 3e be d8 39 be 59 e3 2a be
       0.19582233 0.15577924 -0.18149087 -0.16688289
000210 e6 c1 b4 bd 3e 5a bd 3e ee cb 1c 3e 08 f9 bb bd
       -0.08826046 0.36982912 0.15312168 -0.09178358
000220 ee c4 cb be a8 c2 f1 bd 1b e0 c7 bd b8 2e 56 3d
       -0.39798683 -0.11804706 -0.097595416 0.05229065
000230 0a 0f 3a 3d c5 e3 3e be 8c 8b 10 be 9e 25 dc 3d
       0.0454245 -0.18641575 -0.14115733 0.107493624
000240 91 0e 9b 3e 6f ea 9c bd 95 c9 ef 3b eb 48 4b 3e
       0.3028455 -0.07661902 0.0073177316 0.19852035
000250 3c 81 2b be af 58 d1 3d 75 b1 20 3e 5d a0 db ba
       -0.16748518 0.10221993 0.15692694 -0.0016756166
000260 ba e1 f5 3d bf eb 51 be b1 24 57 3e a1 7b 5c 3e
       0.120059446 -0.20500086 0.2101009 0.21531536
000270 71 06 96 be 50 ad 13 3e 35 02 1e be bb 6d c9 3e
       -0.2930179 0.14421582 -0.1543053 0.3934153
000280 93 80 e5 bd e7 40 f7 bc 4d 3e d6 bd 9f 79 a8 be
       -0.11206164 -0.030182315 -0.10461102 -0.3290529
000290 a4 21 04 3e 39 20 d4 be 2b ac 31 be 6d 89 d8 bc
       0.12903458 -0.41430834 -0.17350833 -0.026432717
0002a0 83 71 86 be dd 0c b2 3e 13 c8 9f 3e f3 cb 4b 3e
       -0.26258478 0.3477544 0.31207332 0.19902019
0002b0 34 97 5c be e8 6e 3f be 8e 85 77 be 5c 98 00 3e
       -0.21542054 -0.18694651 -0.24172041 0.1255812
0002c0 87 5d a1 3d fb 0b 45 3e cd 42 b1 bb 68 89 ec 3d
       0.07879167 0.19242851 -0.0054095746 0.11549646
0002d0 21 e7 1a 3e 2c 46 fa 3c 57 ac be bd 5d fd 90 be
       0.15127231 0.030551039 -0.09310215 -0.283183
0002e0 be 11 94 be 74 08 12 3e 06 6b 5c be 2f fe 3e bd
       -0.28919786 0.14261037 -0.21525201 -0.046629127
0002f0 64 bd b4 be d3 5b 92 be b5 fc 09 3d 91 d0 05 3e
       -0.35300744 -0.2858568 0.033688266 0.13067843
000300 42 94 b6 bd b4 e0 f6 3d 8b b7 a0 3d d8 80 8b be
       -0.08914997 0.120545775 0.07847508 -0.27246737
000310 ec b4 68 3e eb d8 14 3e cd e0 ab 3e 58 d4 29 3a
       0.22725266 0.14535873 0.33569947 0.000647848
000320 e5 a3 e2 3e ed bb e2 3c fe 24 92 3e 09 ac dc be
       0.44265667 0.0276775 0.28543848 -0.43100002
000330 f5 9f 9a bd ce ae 6f 3e 7d 39 07 bc a0 c1 91 be
       -0.07550041 0.23406526 -0.008253452 -0.28468037
000340 40 f5 49 3c 5d 75 a6 be 3b 76 d4 be 4a 58 d4 bd
       0.012326539 -0.32511416 -0.41496453 -0.10368402
000350 98 20 a8 3c c3 61 af 3c f0 46 3f 3e f5 9b 57 bc
       0.020523354 0.021408921 0.18679404 -0.013159742
000360 5b 89 49 3c cc e2 07 be 51 e1 2c 3e de 7f 5c 3e
       0.0123008145 -0.1327011 0.16882826 0.21533152
000370 15 cb f7 bd b4 8c 65 3e 74 f5 f8 bc 09 da bc 3d
       -0.12099282 0.22416955 -0.030390479 0.092212744
000380 40 69 9b be 6c ec 66 be 8c 8a 88 bd af 76 9a be
       -0.30353737 -0.22551125 -0.06667051 -0.30168673
000390 47 43 55 be 2b a9 48 bd 32 29 37 3e 9b 7f 7b bd
       -0.20826446 -0.048989456 0.17886809 -0.06140099
0003a0 ef 06 ff 3e 75 8c 7d be b7 1f 85 3e ca 70 87 be
       0.49809977 -0.24760611 0.2600076 -0.2645324
0003b0 d5 ee 16 be 5c 76 5e 3e 1e 6a 1b bd 60 8e d6 3d
       -0.14739545 0.21724838 -0.037942998 0.104763746
0003c0 81 b8 c6 bd 3d 84 43 3d 94 34 de 3e e4 ce 85 be
       -0.0970316 0.047733534 0.4339949 -0.26134408
0003d0 82 35 9d 3e b7 98 90 be 7c 39 48 be 1a de 75 be
       0.30704886 -0.28241512 -0.19553179 -0.24010506
0003e0 83 04 1f 3e 53 e6 26 3e 06 47 06 bd db 80 98 bd
       0.15529065 0.16298799 -0.032782577 -0.07446452
0003f0 6a 93 6e be 96 48 e2 3e 95 f8 de 3e c5 f7 00 3f
       -0.23298422 0.44196004 0.43549028 0.50378066

linear1.bias f4 [256]
000000 07 22 9d be b4 c4 3f be f3 a3 11 be 8f 49 fa bb
       -0.30690023 -0.1872738 -0.14222698 -0.0076381634
000010 4b 22 93 be 32 86 1d 3d 3e 87 99 bd 9d d2 9f be
       -0.287371 0.038458057 -0.074964985 -0.31215373
000020 d4 9e b8 bd e7 5e 12 3e a2 6c 87 be d8 11 ca 3b
       -0.09014669 0.14294015 -0.26450068 0.006166678
000030 d9 ab 92 3c 65 d8 c2 be 96 c8 d8 3d 90 e5 20 3e
       0.017904209 -0.3805572 0.10585134 0.15712571
000040 c6 ef 1d bd 2e c6 de bc 15 52 8e be 16 5d 29 bd
       -0.038558744 -0.027194109 -0.27797 -0.04134854
000050 74 96 ed 3d 48 f1 12 bd 23 94 bb bc 1e a1 56 3d
       0.11600962 -0.035874635 -0.022897786 0.052399747
000060 ce 8b f7 3d 28 2e 1d 3e f6 ff 90 3d 42 af fe bc
       0.120872125 0.15349638 0.07080071 -0.031089429
000070 fc 83 70 be 35 a1 0e 3e e1 d5 c5 3c 91 96 e2 3d
       -0.23487848 0.13928683 0.024149837 0.110638745
000080 b9 51 53 3d ed 24 93 3e fc 68 0d be 8b b5 87 bd
       0.05159161 0.2873911 -0.1380958 -0.066264234
000090 9e c2 cf 3c 5d 1d 4a 3e d4 b2 9d be db fd 01 be
       0.025361355 0.19737764 -0.30800498 -0.12694494
0000a0 cc 85 fd bd 40 21 c7 3c e6 77 63 3e 74 4b 38 be
       -0.12379035 0.024307847 0.22213706 -0.17997533
0000b0 aa 15 30 be 96 84 67 bd 7b eb 78 bd e3 d2 0b be
       -0.17195764 -0.05652293 -0.060771447 -0.13654666
0000c0 0f a2 86 3c 9a 14 87 bd f5 b9 e3 3b 60 93 1b be
       0.016434697 -0.06595726 0.006949658 -0.15192938
0000d0 9b ae 22 bc 29 77 2a 3e 83 07 93 3e ba 2b c4 3e
       -0.0099293245 0.16647018 0.28716668 0.3831461
0000e0 98 b6 f5 bd 6a 70 9d bc a4 b5 bc 3e eb 39 9c 3d
       -0.119977176 -0.019218642 0.3685733 0.076282345
0000f0 d5 8d 3e bd b8 5c 8f 3c 71 12 36 be 0a b0 4b bd
       -0.04652198 0.017500266 -0.17780472 -0.04972843
000100 d3 b0 30 be 3a da 78 be 5b 94 94 be 5e b0 9f 3d
       -0.17254953 -0.24301997 -0.29019436 0.07797311
000110 36 27 d1 bd c3 e9 1f be 90 99 3f 3e 2e ce 83 3e
       -0.10212557 -0.15616517 0.18710923 0.2574324
000120 bf 4f b2 3e db 40 26 be 61 71 e1 3a 02 7f 5f 3d
       0.34826466 -0.16235678 0.0017199927 0.054564483
000130 87 b2 51 be 21 fa a4 3c c0 9f 1d be 72 ae 18 be
       -0.20478259 0.020138802 -0.15392971 -0.14910296
000140 87 12 78 3e ce b5 80 3e 39 b3 bf bd a0 21 b0 3d
       0.24225818 0.25138706 -0.09360356 0.086001635
000150 e6 5e 6a 3e 02 33 52 be cb 0c 8b 3e f4 d6 84 be
       0.22887763 -0.2052727 0.27158198 -0.25945246
000160 c5 1a aa 3e 1a ac 39 be 9a 0a 03 3e 4a 2b fb 3d
       0.3322355 -0.18132058 0.12797013 0.12264116
000170 f6 f0 4b 3e c6 f1 c8 3c a1 02 1c bd cf 92 8e be
       0.19916138 0.024529349 -0.038088445 -0.2784638
000180 bc 3b 59 be 99 10 31 be 4d 9d 02 be 66 56 85 be
       -0.21214193 -0.17291488 -0.12755318 -0.2604248
000190 c9 d8 82 be ae de 9a 3d b5 c3 5c 3e 8d 65 98 be
       -0.2555602 0.07562004 0.21559031 -0.29764977
0001a0 9a 6b 51 3e df 58 8a 3e d3 a5 b8 3b 1c 80 76 be
       0.20451203 0.27020928 0.005635002 -0.24072307
0001b0 31 9d b0 3d 14 1c 63 be d3 af 96 bd 6f b7 4e bd
       0.08623732 -0.2217868 -0.073577546 -0.050467905
0001c0 80 3d b9 bc 28 72 4e bd 81 3d 96 bd 53 6b d1 3d
       -0.022612333 -0.050401837 -0.0733595 0.102255486
0001d0 8c d4 b7 bd 46 ec dd 3e 68 0c 85 3d 96 f9 b1 bd
       -0.08976087 0.43344325 0.06496507 -0.08690183
0001e0 d8 42 85 3e f3 45 af 3d d2 a8 0b be 49 79 14 be
       0.2602756 0.08558264 -0.13638619 -0.14499392
0001f0 df d8 8d bc f3 ef 82 be bb 36 9a bd b5 a4 f8 bd
       -0.017315326 -0.25573692 -0.0752997 -0.121407904
000200 b7 d0 a9 3e ea 83 ae bd 32 3a 3e bd 04 a6 bb bd
       0.3316705 -0.08521254 -0.046442218 -0.09162524
000210 2a 12 1b be 3c 7c 19 3e 34 4f 8d be c2 89 0d 3c
       -0.15143648 0.14988798 -0.2759949 0.008638801
000220 c5 27 fe bd 97 2d a9 3d 61 e3 16 3e 89 c3 de 3e
       -0.12409929 0.08260649 0.14735176 0.43508556
000230 7c 22 ad 3d 89 57 25 3e 6c e3 34 3e a3 c2 8e be
       0.08453843 0.16146673 0.1766488 -0.2788287
000240 42 ca b9 3d f8 ae 50 bd 17 d5 11 3f 30 02 92 bd
       0.09071781 -0.050948113 0.56965774 -0.071293235
000250 d9 09 45 bd 94 b6 3f 3e 7a dc da b9 96 c5 c6 3d
       -0.048105095 0.18721992 -0.00041744468 0.09705655
000260 03 b7 89 3d 8d f6 20 be 0e 45 77 3d c2 ec c7 bd
       0.0672436 -0.15719052 0.06036859 -0.09761955
000270 20 15 49 be 71 63 e0 bd aa 5a 5d 3c 63 8a 1a 3e
       -0.19636965 -0.10956467 0.0135103855 0.15091853
000280 bf bf 98 3d df ca 8f 3e 21 11 59 be b4 6d 9c be
       0.07458448 0.28084466 -0.2119794 -0.30552447
000290 30 d5 f8 3d 8a 81 c2 3e f4 f2 ae be f9 87 89 bc
       0.12150037 0.37989455 -0.34169734 -0.01678847
0002a0 51 25 89 be b7 4c 67 3b 31 34 8a bd b1 0f 8f 3e
       -0.26786283 0.0035293528 -0.06748236 0.2794166
0002b0 f4 a6 51 3e a3 49 38 3d 7e fb 65 bd cc ba a0 3e
       0.20473844 0.0449921 -0.056148045 0.31392515
0002c0 63 cd 61 3d 08 22 46 be 4e 9c f4 bd bf c6 62 be
       0.055127513 -0.1934892 -0.11943875 -0.22146128
0002d0 53 40 31 3e 68 95 01 3f 37 11 36 3e 8c 19 ae bc
       0.17309694 0.506186 0.17780004 -0.021252416
0002e0 38 78 6f be ac dd 1d 3e 52 b9 24 bd 87 2e 95 3d
       -0.23385704 0.15416592 -0.040215798 0.07284265
0002f0 71 24 3b 3e a8 cd 02 be 40 c2 2d 3b 3d 82 bf 3d
       0.1827562 -0.12773764 0.0026513487 0.09351013
000300 5f 12 c3 bd 8b 4e fe bc 7e 0b 0d 3e f5 bc 24 3e
       -0.095249884 -0.031043312 0.13773915 0.16087706
000310 8a a1 65 be 8d 18 d1 be 57 ad 85 3e 4e 0c a7 3d
       -0.22424904 -0.40839043 0.2610881 0.08156644
000320 5e f4 71 be 49 5e 55 be f5 69 73 be 1b 9e aa bd
       -0.23628375 -0.20836748 -0.23770888 -0.083309375
000330 02 55 6a 3d 55 c8 9a be b1 d8 ae 3b aa be 48 bd
       0.057209976 -0.30230966 0.00533589 -0.049009956
000340 1b 11 10 be 26 9a 5e 3e 5b 0e 06 3f f7 46 72 3e
       -0.14069025 0.2173849 0.52365655 0.23659883
000350 76 38 90 be 68 a1 99 3e 85 dc 6e 3d cd c8 98 be
       -0.28168076 0.30005956 0.058315773 -0.298407
000360 a0 20 7c bc fd 57 6c be 42 a3 cd be 43 cb 4d bd
       -0.015388638 -0.2308044 -0.40163618 -0.050242674
000370 f0 b9 9a 3c e1 1d 5c 3e ae b0 8e be 69 24 38 3e
       0.01888749 0.21495773 -0.2786917 0.1798264
000380 0e 48 e1 bd b6 43 bb 3e d2 f0 78 be 35 97 e6 bd
       -0.110000715 0.36575097 -0.24310616 -0.11259309
000390 b9 ec a4 3d 28 7f 1b be 2f 0b 2a 3c 1f e8 81 be
       0.08052964 -0.15185225 0.010378643 -0.25372407
0003a0 4d 30 85 3e 24 5e 43 be 83 7f e3 bc 3f 66 38 be
       0.26013413 -0.1907888 -0.027770763 -0.18007754
0003b0 6a bf e9 bc 51 cb be 3d e1 7d 78 3e de ec 84 3e
       -0.028533656 0.09316123 0.24266769 0.25961965
0003c0 86 45 d5 3b 83 6a 07 be c6 fa be 3d 7f a3 78 be
       0.006508532 -0.13224225 0.09325175 -0.24281119
0003d0 6c 82 f4 bd cc 03 6f 3e 57 ad be bd 3f 0a 8e be
       -0.119389385 0.23341292 -0.09310406 -0.27742192
0003e0 88 f4 44 3b 6d 13 89 3e 40 dd fb 3e c8 44 92 3e
       0.0030052979 0.26772633 0.49192238 0.285681
0003f0 69 30 58 be 36 b0 65 be d1 c9 03 bd df 55 63 be
       -0.21112217 -0.224305 -0.03217489 -0.22200726

linear2.weight f4 [256, 256]
000000 00 1a c0 39 40 e7 79 bb 70 e2 79 3d 47 52 0a 3d
       0.00036640465 -0.003813222 0.061006963 0.033769872
000010 4d 78 99 3a f3 2b 92 bc 70 37 f3 3c 3d 9d 01 3d
       0.0011708826 -0.017843222 0.02968952 0.031644095
000020 86 55 ed bb c8 92 f2 3c f1 b5 ed bc be d0 2a 3d
       -0.007242861 0.029611006 -0.02901742 0.04170298
000030 d7 ce a9 3c 56 2e 1f bc 30 b7 b0 bc 51 21 84 bb
       0.020728512 -0.009715637 -0.021571726 -0.004032292
000040 11 cf fd bc 72 fa 8f 3c 73 53 b3 3c e4 22 8f 3c
       -0.030982526 0.017575476 0.021890378 0.017472692
000050 74 41 24 bd 5e 8b f5 bc ac 8a 29 3d 65 7e 59 bc
       -0.040101483 -0.029973682 0.041392013 -0.013274764
000060 18 2f 08 bd 87 c7 c9 bc 04 30 94 bc d2 9e 36 3d
       -0.033248037 -0.024631275 -0.018089302 0.044585057
000070 40 e0 5b bc fa e2 80 bd c7 45 de 3c ef b8 71 3a
       -0.013420165 -0.06293292 0.027132882 0.00092209777
000080 41 c6 1a bd 87 af 83 bd cb 3c 1b bc 93 bd 89 bd
       -0.037786726 -0.064299636 -0.009474943 -0.067256115
000090 1e 44 3d bd 7f 58 4d ba e8 99 5f 3d 8c 54 ac 3b
       -0.04620754 -0.00078333163 0.054590136 0.005259102
0000a0 6b 9d da 3c 49 4b 4a bc 80 6c 8e 3c 30 09 f0 3b
       0.02668639 -0.012347051 0.017385721 0.007325314
0000b0 d1 de 52 bc 22 f4 12 bd 8b f6 a9 bc e2 2a 76 3d
       -0.012870506 -0.035877354 -0.020747444 0.06009949
0000c0 64 0e 8a bd e0 30 31 bc 92 16 41 bd 7d e7 87 3c
       -0.06741026 -0.010814875 -0.047140665 0.016589874
0000d0 c2 c1 4c bd ab d0 f8 3c 81 15 96 bc f8 6a 9d bc
       -0.04998947 0.030372938 -0.0183208 -0.019216046
0000e0 3a 6f 4b bd da 8b c2 bc 72 ac 7f bd ce d1 93 3b
       -0.04966662 -0.023748327 -0.062420316 0.0045110947
0000f0 64 58 f6 3c 42 5a 30 bc 90 88 3b bc 4b 79 ff bc
       0.030071445 -0.010763707 -0.011446133 -0.031185767
000100 b6 6b 17 bd fc fb 38 3d a0 e2 87 3c ea 65 08 3d
       -0.036967956 0.045162186 0.016587555 0.033300318
000110 fb 9a 11 bd 3a 5c 91 3c 2c 1c 1f 3c ef 5d d3 bc
       -0.03554819 0.017744172 0.009711307 -0.025801627
000120 c3 46 ed bc 00 f4 a9 3b fc ca 23 bd 7d ec 22 bd
       -0.028964406 0.005186558 -0.039988503 -0.039776314
000130 4c 7e 6f 3c 6b b7 56 3d d0 46 52 3d f4 bf 86 3c
       0.014617514 0.052421015 0.051337063 0.016448952
000140 2a b8 8f bd d8 a6 66 3c a9 b1 d4 3b 06 88 35 bd
       -0.070175484 0.014077865 0.0064909053 -0.044319175
000150 82 66 5b 3b c5 e3 dc bc fa 56 ea bc 13 80 75 bd
       0.0033477847 -0.026964078 -0.028605927 -0.059936594
000160 7c 63 8f 3c c9 c4 19 3d 39 1a 7b 3c 1a 96 61 3c
       0.017503493 0.037541185 0.015326076 0.013768697
000170 0f f7 0a 3b ee 22 08 bc 06 32 e1 3c 79 f2 1f bd
       0.0021204387 -0.008309109 0.027489673 -0.0390496
000180 87 a3 f7 3c 01 01 cb 3b f1 84 59 bb 33 8e 68 bd
       0.030229343 0.006195188 -0.0033190812 -0.056776237
000190 b7 bf 1d 3d fb 40 6c bd 50 37 76 bd 00 75 ef b9
       0.03851291 -0.057679158 -0.060111344 -0.00045672804
0001a0 8e a4 04 bd 53 6d c0 bc cb 50 f3 3c 20 d2 ee bb
       -0.032383494 -0.02348963 0.029701611 -0.0072882324
0001b0 8c 90 25 bd 01 bf 66 bd 52 b2 8a bc 04 d8 0f bd
       -0.040421054 -0.0563345 -0.016930733 -0.035118118
0001c0 87 9f 27 bb 5d 6b 68 3c b5 ce 92 bd 4e 03 ca 3c
       -0.0025577263 0.014185754 -0.071683325 0.024659779
0001d0 82 b7 3f 3d 14 60 ac bd 90 44 28 3d 37 e4 e3 bc
       0.046805866 -0.08416763 0.04108101 -0.027818782
0001e0 59 81 17 bd 52 d6 9d 3c 54 3c ed bc ed c7 08 3c
       -0.03698859 0.019267235 -0.02895943 0.008348447
0001f0 7b 59 c0 3b 84 73 12 bd 39 65 3c bc 84 ac 25 bd
       0.005870042 -0.035754696 -0.011498743 -0.040447727
000200 12 47 7c bd c1 f6 57 bd c0 85 f1 ba 9e 87 78 bd
       -0.061591215 -0.052725557 -0.0018426701 -0.06067621
000210 1f d8 21 3d da 33 16 3d a8 8c f8 bc 33 c3 47 b8
       0.03951275 0.036670543 -0.030340508 -4.762709e-05
000220 94 15 c3 3c e7 92 4b 3d 12 55 c6 3c c9 fe a7 3c
       0.023814 0.049700644 0.024210487 0.020507233
000230 21 8e 14 bd 82 01 6c bc 10 cc bd 3c c0 6e 3f bc
       -0.036268357 -0.014404656 0.023168594 -0.01168412
000240 71 0b 0e 3c 97 25 74 bd 05 fc ed 3c e9 f4 7f bd
       0.00866972 -0.05960616 0.029050836 -0.062489424
000250 bf 63 4d bd 88 1c 07 3b c0 e6 d1 3c 38 04 10 3d
       -0.050143953 0.0020616371 0.025622725 0.035160273
000260 bc 97 37 3d 4e 8b 14 3d 7e b7 ca bc c1 b1 00 bd
       0.04482244 0.036265664 -0.024745699 -0.03141952
000270 3e 85 1d bd 80 19 26 bc c3 d7 9f 3c 44 96 18 bd
       -0.038457148 -0.010137916 0.019512063 -0.03725268
000280 32 8b 74 bd 69 20 c8 bb c2 58 a0 bc 1c 2c 80 bc
       -0.05970306 -0.006107379 -0.019573573 -0.015646033
000290 b6 69 13 3d 32 77 62 bc 60 3f 84 bc 5f 84 2e bc
       0.035989486 -0.013822364 -0.0161435 -0.010651677
0002a0 d1 6a 3f bc dd aa 22 bd f2 ed ce ba 06 15 a5 bc
       -0.011683182 -0.03971373 -0.0015787466 -0.020151626
0002b0 09 3b a7 3b ee 49 41 3d ea f5 2f 3d 74 c3 51 3d
       0.005103473 0.047189645 0.04295913 0.05121179
0002c0 27 f3 1a 3d 85 36 1f 3b 73 57 8a 3c d0 b0 a4 3b
       0.037829544 0.002429397 0.016887402 0.0050259605
0002d0 c2 40 de bb 8f 7e 67 3c 46 a3 51 bd 77 46 28 3d
       -0.006782622 0.014129295 -0.0511811 0.041082826
0002e0 2b 22 36 bc 40 f7 3d 3c 3e f9 5e 3d eb d7 5e bc
       -0.011116545 0.0115945935 0.054436915 -0.013601284
0002f0 58 4a 99 bb c0 0a eb 3a 94 34 c6 bc 26 92 72 bd
       -0.004678052 0.0017932281 -0.024194993 -0.05922141
000300 6e db 19 bd c8 6c 53 bd bd 44 bd bc 74 91 05 3d
       -0.03756278 -0.051617414 -0.023104066 0.032609418
000310 76 ce 4e bd 2a 9e 53 3d 8b cb 89 bd c9 55 d7 3c
       -0.050489865 0.05166451 -0.06728276 0.026286023
000320 d0 e1 24 3d fb 3a ac bd 22 9c 2f 3d ca 24 70 3d
       0.040254414 -0.08409687 0.04287351 0.058628835
000330 6d 1e f2 3a 52 96 17 bd 63 f9 b3 3c ac 5a 3f bd
       0.0018472202 -0.03700859 0.021969503 -0.04671733
000340 22 f7 23 bd 5b ea 58 3c 83 2f 57 bd b7 3e 05 3c
       -0.040030606 0.013239468 -0.052535545 0.008132628
000350 e2 7c 2a bd df e5 96 bc fa 51 39 bd e0 88 1f 3c
       -0.041623004 -0.018420158 -0.045244195 0.009737223
000360 e0 ac 05 3d 04 e9 dc 3c 95 79 cd bc f5 d6 9b bc
       0.03263557 0.02696658 -0.025082389 -0.019023398
000370 6f 61 1d bd bd 59 09 3c 68 04 09 3d 1f 8b 4d bd
       -0.038422998 0.008383212 0.033451468 -0.050181504
000380 b1 f7 9f bc 08 ea 15 3c f6 49 39 bd 4b 26 80 bd
       -0.019527288 0.009150036 -0.04523655 -0.06257304
000390 76 42 4c bd 58 12 b8 3c b9 21 08 bd 6e f1 19 bd
       -0.04986807 0.022469684 -0.033235285 -0.03758376
0003a0 dd 05 c6 ba bd 71 36 3c 68 61 74 bc 8c 2a cb bc
       -0.0015107949 0.011135516 -0.014915802 -0.024800561
0003b0 83 d5 55 3d 00 fc 75 b9 fb a3 24 bb ec e4 21 3c
       0.052205574 -0.00023458898 -0.0025122154 0.009881239
0003c0 cc 9f ec b9 6f c8 e0 bc 1f ba b7 bb 68 9b 37 bd
       -0.00045132486 -0.027439324 -0.005606904 -0.04482594
0003d0 00 f3 b6 3a e2 2f 3e 3d 7e ce 3c bc c5 d6 35 3d
       0.0013957918 0.046432383 -0.011523841 0.044394273
0003e0 7c fb 0c 3b 60 b2 7c bd ff d2 ef bc 87 02 f5 3c
       0.00215122 -0.06169355 -0.029275415 0.029908432
0003f0 d0 ac f4 bc 9e 30 4e bd 46 cd 19 3d 98 04 32 bc
       -0.02986756 -0.050339334 0.03754928 -0.010865353

linear2.bias f4 [256]
000000 75 ec 31 3d f2 07 03 bc a4 c3 21 bd 56 2f 7b bd
       0.043438394 -0.0079975 -0.039493218 -0.06132444
000010 71 ec 0b bd 7a 00 3a 3c 45 b3 b6 3c 63 a2 4b bd
       -0.034161035 0.011352653 0.02230228 -0.04971541
000020 61 f2 1c 3c 40 8f 14 bd 90 d7 b3 3d 88 1a 8a bc
       0.009579272 -0.036269426 0.0878135 -0.016858354
000030 83 12 2a bd 4b e1 37 39 db 1d 04 bd 16 fe ef 3a
       -0.04152156 0.00017536168 -0.032255035 0.0018309976
000040 05 84 d8 bd dd 17 7c bd 80 af 1d 3b fb ed 07 3d
       -0.10572056 -0.061546195 0.0024060905 0.03318594
000050 d0 42 0d bd c5 d5 72 bd f5 60 e3 3d 96 63 e0 bd
       -0.034487545 -0.059285898 0.111024775 -0.109564945
000060 b7 78 c4 bc 10 18 02 bd a1 c2 64 3d a6 00 2f bd
       -0.023983343 -0.03176123 0.055849675 -0.042725228
000070 aa dd d2 bc 70 1a ca bd 25 be cb bd 70 92 43 3e
       -0.025740463 -0.09868324 -0.099483766 0.1909883
000080 75 a8 47 bd c7 99 16 bd 5f 7e 28 bc b5 5f bc bb
       -0.048744638 -0.036767747 -0.0102840355 -0.005748714
000090 23 7f 6a bd 68 b7 35 3d 15 a4 18 3d 18 e6 a3 3d
       -0.057250153 0.044364363 0.037265856 0.08002871
0000a0 69 26 94 bd fb 4b 64 ba 9c 79 b2 bd 1a e9 36 bd
       -0.07233889 -0.0008708832 -0.087146014 -0.044655897
0000b0 b6 bb 09 ba 85 95 1c 3b bd 1d 9c bc 5f ea 47 3a
       -0.00052541064 0.0023892832 -0.019057149 0.00076261716
0000c0 7f aa ea 3a 0d a5 96 bd 60 fe ff 3c f3 f5 78 bd
       0.0017903595 -0.073557 0.031249225 -0.06078143
0000d0 60 04 23 bc ce f4 9d bd 12 b8 c1 bd 3d f0 4a bc
       -0.009949774 -0.077127084 -0.09458937 -0.012386379
0000e0 f0 af 72 bd dd 2e 38 bd b4 19 33 bd b7 dd 10 bc
       -0.05924982 -0.044966567 -0.043725684 -0.008841923
0000f0 0d 49 14 3f 71 bf b2 3d da e5 0c bd e0 04 9c 3c
       0.57923967 0.08727921 -0.03439889 0.019045293
000100 3a e4 c1 bd 9f 51 18 3e cd 92 8f 3c d8 d3 af 3c
       -0.09467359 0.14874886 0.017526055 0.02146332
000110 95 12 e2 bc e8 e0 d7 bc 27 e4 06 bd 41 02 4e bd
       -0.027596751 -0.02635236 -0.032932427 -0.05029512
000120 72 c6 1b be 31 2a a2 3c ca 07 26 3c fb 66 4f bd
       -0.1521242 0.019795509 0.010133693 -0.05063532
000130 4f 20 14 3c 9b 31 0f bb b7 bf 8e bc 7e 16 95 bd
       0.009040906 -0.0021849636 -0.017425401 -0.07279681
000140 c9 e7 13 3f 77 94 92 3d 78 cd 9c 3c 97 09 3c bc
       0.5777555 0.07157224 0.019140944 -0.011476896
000150 43 23 81 bd 60 d4 0d bd 9d 7c e1 bc 0a 6a 44 bc
       -0.06305554 -0.034626365 -0.02752524 -0.011988172
000160 74 66 2b bd cd 2e 83 3c 27 2a 42 bd 05 97 c3 3d
       -0.041845754 0.016013527 -0.04740348 0.09550289
000170 68 07 77 bd af 1a 9b bc 9d 2c 63 bd c7 07 5c bd
       -0.060309798 -0.018933622 -0.05546247 -0.053718355
000180 7f 0c 13 bd f5 5e 9c 3d 12 da 24 bc be 1c 91 bb
       -0.03590059 0.07635299 -0.010061758 -0.004428475
000190 8c 9f 1d bd a0 1a fd bb 03 88 0e bd 0c f3 0f bd
       -0.038482234 -0.007724121 -0.03479768 -0.035143897
0001a0 c0 32 c6 3e 5e 36 43 38 96 03 a6 bc c7 03 89 bd
       0.38710594 4.6542256e-05 -0.020265382 -0.066901736
0001b0 96 53 31 3d 92 d3 e2 bd ec d9 64 bd 26 0d fa bc
       0.043292604 -0.1107551 -0.05587189 -0.030523848
0001c0 36 da a6 3c 37 53 19 3c 45 db d8 bd b8 53 6e bd
       0.020367723 0.009358219 -0.10588697 -0.05818531
0001d0 6e 50 ba bb 77 2d 9f bd e1 55 3a 3d 2a c6 b3 bc
       -0.0056858575 -0.077723436 0.045492057 -0.021945078
0001e0 bc 09 22 bd 2f ed 14 bc 86 b9 b5 bd 3e 82 ac bd
       -0.039560065 -0.009089752 -0.088732764 -0.08423279
0001f0 20 23 99 3d f3 dd c4 bd ff 60 00 3e ce 65 26 3c
       0.07477403 -0.09612646 0.12537001 0.010156108
000200 02 8d 7b bd fd 92 1e 3c 74 5d 47 bd 66 e5 96 bd
       -0.061413772 0.009678599 -0.04867311 -0.07367973
000210 26 bb aa bd 10 7d 27 bd 59 67 44 3d 2f 5f 0e 3f
       -0.08336477 -0.040890753 0.047950123 0.5561399
000220 f9 52 97 bd 9b 5b 84 bc 0c 2f 94 bb 65 e5 bd 3d
       -0.07388873 -0.016156962 -0.00452221 0.09272269
000230 38 40 a5 bd b9 e9 83 bd 6f 79 52 bd 65 ca e2 bc
       -0.080688894 -0.064410634 -0.05138534 -0.0276844
000240 1b cf b7 bd 1d 80 24 3d ec f5 a3 bd 7a e9 9a 3c
       -0.08975049 0.04016124 -0.0800589 0.018910158
000250 d1 9d a8 3c c2 6d 70 bd 1f 5f 21 3c 07 c8 1e 3b
       0.020583065 -0.058698423 0.009849339 0.0024228112
000260 17 40 8d bd 5a 65 9f bd d7 f2 e7 3b 7d c8 18 bd
       -0.0689699 -0.07783003 0.0070785093 -0.037300576
000270 6e 73 98 bd 7b ae 49 bd c1 ca 8a 3e 3c ff bd 3b
       -0.074438915 -0.049238663 0.27107814 0.0057982486
000280 57 41 82 bd 9c 83 4d bd c5 29 e6 bc 20 0e 58 bd
       -0.06360119 -0.05017434 -0.02809609 -0.052747846
000290 57 10 7c 3d fa f3 d2 3c 4c c7 5c bd 0a 20 68 3d
       0.06153902 0.025751103 -0.053901 0.05667118
0002a0 3f 4f e6 bd 84 44 68 3d 77 ab 10 bd 1c b9 00 3e
       -0.11245584 0.056705967 -0.03531977 0.12570614
0002b0 73 60 bd 3e da da 08 bd 7f a7 09 bd ad 36 64 3d
       0.36987647 -0.033411838 -0.033607002 0.055716205
0002c0 a5 0e 5c bd 22 94 ff 3d 0d 5b 9b bd 67 6a c0 bc
       -0.053724904 0.12479426 -0.07585726 -0.023488237
0002d0 cd 70 46 bd 05 d5 65 bc 58 5c 3b bd 77 8f 96 bd
       -0.04844742 -0.014027839 -0.045742363 -0.073515825
0002e0 88 aa 94 bd 96 eb 50 bd 05 88 0b 3f d9 10 72 bd
       -0.07259089 -0.051005922 0.54504424 -0.0590981
0002f0 54 50 b0 bd fd 83 5e 3c f3 cc 78 3e d3 a7 64 3c
       -0.086090714 0.013581273 0.24296932 0.013956028
000300 99 7c be bc b2 c9 30 3d c4 73 44 bc 41 9d 82 3c
       -0.023252772 0.0431611 -0.011990491 0.015944125
000310 1d 98 4d bd 80 d6 50 bd f7 78 89 bd 28 20 7b bd
       -0.050193895 -0.050985813 -0.06712525 -0.061309963
000320 9f 9a 87 bd 01 b7 9d bd 51 1e db 3b 8d 57 96 3b
       -0.066212885 -0.07700921 0.0066869636 0.0045880736
000330 46 a0 82 bb fa 48 a5 bd 20 7b a3 3b 53 0e b2 bc
       -0.0039863912 -0.0807056 0.004989043 -0.021735346
000340 a0 54 2b bd 6a 65 72 bc 18 5f 6f bd d9 da 1b 3f
       -0.04182875 -0.014794687 -0.058440298 0.6088081
000350 8d 3d 78 3d e3 e4 18 3d 2e a5 af 3c 6c f1 91 bd
       0.060605574 0.03732766 0.021441069 -0.07126126
000360 ce 54 bf 3e 0c 9e 47 bd 20 ab 26 bd b3 b3 cb bc
       0.37369388 -0.04873471 -0.04069054 -0.02486596
000370 27 26 66 3b 1a f1 2b 3c a9 5a e4 3e 50 92 44 bd
       0.0035117955 0.010494495 0.44600418 -0.047991097
000380 fb 8a ca 3c c2 b6 b1 3c 72 6e 84 bd 6d 8e 20 3d
       0.024724474 0.021693591 -0.06466378 0.039198328
000390 a4 58 fb bc 98 8a 1e 3d 91 a9 4b bd 7d e1 c4 3d
       -0.030681916 0.038706392 -0.049722258 0.09613321
0003a0 35 4c 0f bd 12 bd b6 3d 3c 5a c0 bc 83 52 2c bc
       -0.034984786 0.08922781 -0.023480527 -0.010517719
0003b0 3d 2b 99 bc 7a 22 15 bc 09 aa 0e 3d 40 74 d6 3d
       -0.018697375 -0.009102458 0.034830127 0.10471392
0003c0 b8 00 aa 3b 5e 69 38 bd 6b 26 02 3d 65 ba 22 bd
       0.005188074 -0.04502236 0.03177492 -0.03972854
0003d0 f7 54 a8 bd 2d f4 b1 3c 45 bb e7 3c fb cc 58 bd
       -0.08219331 0.021722877 0.02828754 -0.05292986
0003e0 0b 12 19 bd 2e d1 8d bd 5e 23 61 3d 2b 77 d3 bd
       -0.037370723 -0.069246635 0.05496537 -0.10325464
0003f0 da b1 ce bd 20 ff 65 bd f2 76 2e bd af c8 79 3d
       -0.10092516 -0.05615151 -0.042593904 0.060982402

linear3.weight f4 [3, 256]
000000 70 54 9b 3c 19 8a 94 3c 0e 81 a9 3c 56 e0 6a 3d
       0.018961161 0.018132256 0.02069142 0.05734285
000010 73 54 08 bb 1d 93 5f be 71 c7 38 3d d1 7d 04 bd
       -0.0020802289 -0.21833463 0.045112077 -0.03234655
000020 77 79 06 be 23 45 b2 3c 04 3a 8c be 13 be d6 3c
       -0.13132273 0.021761483 -0.27388012 0.026213681
000030 d8 e3 01 bc d6 0b 9c bc 38 a6 61 3c 05 9f 61 be
       -0.007927857 -0.019048613 0.01377254 -0.22033317
000040 69 70 0c 3d 85 60 07 bc 75 91 21 bd 52 38 58 3d
       0.03428689 -0.008262758 -0.03944536 0.052788086
000050 91 28 8f 3d 72 24 25 3d a1 75 d2 3d dd a7 93 bd
       0.06990159 0.04031796 0.10276342 -0.07209752
000060 f5 5e 8d 3d d0 10 8b bb c0 ea 05 3d e8 71 7b bc
       0.06902877 -0.0042439476 0.03269458 -0.015346982
000070 fc 11 95 3c 7a ff ac 3c bb 91 c2 3c c7 86 0d 3e
       0.018197052 0.021117914 0.02375113 0.13820945
000080 be 79 51 bc 80 0f 4b be 1c eb a2 bd 50 eb 10 3d
       -0.012785373 -0.19830132 -0.07955 0.03538066
000090 8f 42 a8 bc 6c 4e 8d 3d af 3b 1f bd 02 77 7d be
       -0.02053955 0.068997234 -0.038875278 -0.24752429
0000a0 60 be 4a 3b 0d 56 d4 3c 0e ce 4b bd 18 f6 80 3c
       0.0030936226 0.025919938 -0.049757056 0.015742347
0000b0 88 10 04 be f7 19 8e bd f1 e0 dd 3b fc a4 d7 3d
       -0.12896931 -0.06938546 0.0067712 0.10529515
0000c0 09 f1 53 3d c5 e4 84 bc 3e d5 4f 3d 36 04 56 3c
       0.05174354 -0.016222367 0.050740473 0.013062527
0000d0 74 bb 58 3b b4 b4 7c 3d 5f 68 f3 bc 39 eb b1 3c
       0.0033070715 0.06169577 -0.029712854 0.021718608
0000e0 94 15 d9 bc 55 26 e4 bc 22 91 c6 3c a7 e9 77 be
       -0.026499547 -0.02785031 0.024239127 -0.24210225
0000f0 76 25 49 3e 78 19 7b be 70 d8 31 bc 7c d7 bf bd
       0.19643196 -0.24521434 -0.010854825 -0.09367272
000100 de c4 d5 3c 1e 6e 9e 3d fa 11 a4 3c c1 a6 cd 3c
       0.02609485 0.07735847 0.020028103 0.025103929
000110 c0 9d 2d be bb 8a 8d bd f3 df 63 3d 0f 00 37 3d
       -0.16954708 -0.06911226 0.055633496 0.04467779
000120 c0 82 e1 bb 16 4e e6 bb 58 25 5a bd ce de 80 be
       -0.0068820417 -0.0070283515 -0.05325827 -0.25169986
000130 59 66 50 be eb 8e 81 3c 1f b7 c4 39 22 64 00 3d
       -0.20351543 0.015815219 0.0003752047 0.031345494
000140 b8 c0 48 3e 81 d7 15 3d 81 73 77 bc 33 fb 54 be
       0.19604766 0.036582474 -0.015103222 -0.2079895
000150 56 0b b6 3c 37 33 78 3c 9c e5 c7 bc 48 e8 36 3c
       0.022222202 0.015148929 -0.024401478 0.011163779
000160 a2 9b 41 3d a6 64 3e bc f6 0c ed 3a 25 46 eb 3c
       0.047267564 -0.011620676 0.0018085528 0.028719971
000170 16 76 c6 bd 6a 70 ac bd 29 94 df bb a9 f1 28 3c
       -0.09690492 -0.08419879 -0.006823082 0.0103115225
000180 a2 62 03 3d b3 20 4a bd fd af f4 bc 9d b1 16 bb
       0.032076485 -0.04934759 -0.029869074 -0.002299405
000190 22 50 87 bc 1e f9 ad 3c c2 c0 0f 3c 7f 9e 8b bb
       -0.016517702 0.021236952 0.008773984 -0.0042608376
0001a0 2b f2 2e 3e aa c0 3a 3d ef 70 77 3c a8 4f 26 bd
       0.17084567 0.045593895 0.015102609 -0.04060331
0001b0 76 60 77 bd 4d 2b 19 3c 79 a3 c7 3c f7 40 a5 bc
       -0.060394727 0.009348703 0.024369942 -0.02017258
0001c0 70 3b f7 3c 32 c4 3b 3d a7 14 89 bd 32 6c 6c 3d
       0.03017971 0.045841403 -0.06693392 0.05772037
0001d0 71 27 33 bd 0f f4 b1 3c e2 84 13 be dd f1 8c bd
       -0.043738786 0.021722822 -0.1440616 -0.06882069
0001e0 cd da 3c 3d 65 8a ac 3d 8e 39 f6 3a 72 7f cc bc
       0.046107102 0.08424834 0.0018785463 -0.024963114
0001f0 4e 5d 96 3d 50 29 15 3d b6 64 16 3d 31 22 01 bc
       0.07342015 0.03641635 0.03671714 -0.007881687
000200 47 8e 10 bb a6 0b 10 bd 2f d8 58 3d bc c7 46 bc
       -0.002205746 -0.03516736 0.052940544 -0.012132581
000210 3a 84 06 be bf a0 d8 bb 7b ee f4 3d 08 fd 44 3e
       -0.13136378 -0.0066109593 0.11959549 0.19237149
000220 2e 25 d7 3c 94 54 0b bd 5b f5 31 3b 3f 01 ae be
       0.026262846 -0.034016207 0.00271543 -0.33985326
000230 3d 20 b6 bc fb 70 3c 3c c2 f2 24 3d b0 0b fc 3c
       -0.02223217 0.011501546 0.040270574 0.030767292
000240 cf 9b b6 bc bd c9 1b be 3d 2c d9 bb 54 ec 11 bc
       -0.022291092 -0.15213676 -0.006627588 -0.008906443
000250 49 f6 d7 3c eb 87 44 bc 34 82 41 bc 8b bf 01 be
       0.026362555 -0.011995296 -0.011810828 -0.12670724
000260 dc 58 fd bc d3 88 e2 3c ff ac ce bd c0 28 9c bc
       -0.03092616 0.027653133 -0.1009159 -0.0190624
000270 50 8f 40 bd 60 3c 11 3d fd 91 d8 3d dc 7e 07 bc
       -0.047011673 0.03545797 0.1057472 -0.008269992
000280 ed 6b 31 be 58 bd d9 bc 07 27 e4 bc b8 6a 59 bc
       -0.17326327 -0.026579544 -0.027850641 -0.013270073
000290 41 39 ec 3c f7 93 bc 3c 51 f7 3c 3d 92 b1 9b bc
       0.028835895 0.023019774 0.046134297 -0.01900557
0002a0 54 bb e5 3c 24 5c 72 bc 70 54 14 3d 9c 94 4d 3d
       0.028043427 -0.014792476 0.03621334 0.050190553
0002b0 3f 12 3b 3e a5 55 61 be 4a a4 29 3d 0f c5 65 be
       0.18268679 -0.22005327 0.041416444 -0.22438453
0002c0 25 a1 18 3c 3c 93 f0 3d 80 fd db bc e5 79 75 be
       0.009315764 0.11746833 -0.026854277 -0.2397228
0002d0 00 7e 45 ba 9b 6a 53 3c 09 44 34 3d 4a 43 2d bb
       -0.0007533729 0.012903835 0.044010196 -0.0026437812
0002e0 e2 a2 60 3d 22 fb 22 3d 42 6f 44 3e 4e 06 e8 3c
       0.054842837 0.03979028 0.19183066 0.028323319
0002f0 db d8 39 3c 4b 9c 26 3d 5e b8 cb 3d 9f 35 26 3b
       0.011343206 0.040676396 0.099472746 0.002536155
000300 f0 ac b1 3c 79 02 e5 3d b3 2e 17 3e 21 35 d9 3c
       0.021688908 0.11182112 0.14763908 0.026514592
000310 af 97 1a 3d 56 38 f3 3c 14 7d 4d 3d 9c 9d 7f 3c
       0.037742313 0.029689949 0.050168112 0.015601542
000320 25 ab b2 bc 0a bc cc bc 46 bf 12 be 07 36 b1 3d
       -0.021810124 -0.024992008 -0.14330778 0.08652883
000330 52 6d b6 bd 3d 18 3e 3b d9 61 a8 39 fa 42 4c be
       -0.0890757 0.0029006146 0.0003211636 -0.19947425
000340 92 9f 84 3c 97 ed 2e 3e 16 7b 13 3d 77 a2 46 3e
       0.01618937 0.17082821 0.036006056 0.19397913
000350 07 84 ff bc 50 c9 8d 3c 6a 24 71 3d 37 d5 fd 3c
       -0.031190885 0.017307907 0.058872618 0.030985458
000360 fe a9 05 3e ad fd f3 bc c1 ae a1 bc 66 2d cd bc
       0.13053128 -0.029784048 -0.01973665 -0.025046062
000370 ce 5c a5 3b fb af f5 3c f8 56 3a 3e c0 2a 0f 3d
       0.0050464636 0.02999114 0.18197238 0.03495288
000380 11 6b e8 3c 06 e8 4f bd 9d 50 34 bc 3b e0 f3 3c
       0.028371366 -0.050758384 -0.011005548 0.029770007
000390 14 fe e0 3c cd ee 58 bd 93 af 93 bc 5f 92 94 3c
       0.027464904 -0.052962113 -0.018028056 0.018136201
0003a0 22 0e 9b 3d 97 48 54 bd 2e 54 ec 3c fc c8 49 3c
       0.07571055 -0.05182704 0.028848734 0.012315985
0003b0 00 00 56 bc 8b 04 d3 bb eb 22 82 bd 77 79 85 3d
       -0.013061523 -0.0064397505 -0.06354316 0.06517308
0003c0 cb 88 aa bd 00 59 f5 bb e6 24 0d 3d 80 9f 07 3d
       -0.083268724 -0.0074874163 0.034459017 0.033111095
0003d0 d2 da 54 bd 96 e4 70 bd b0 f2 4a bd aa 74 d6 3b
       -0.051966496 -0.058811747 -0.04954785 0.006544669
0003e0 2b 8a c4 b8 ae 4a 50 3c fc e4 ea bd 92 0a a2 bd
       -9.371744e-05 0.0127131175 -0.114694566 -0.079121724
0003f0 f3 ba b7 bc 1a e2 33 bd 83 c5 22 bd c1 02 cf 3d
       -0.022428012 -0.0439168 -0.039739143 0.10107947

linear3.bias f4 [3]
000000 c9 97 0f 3e c4 fb ca 3d 81 9a 02 3e
       0.14022745 0.09911302 0.12754251
