checkpoint_game_900.pth (torch, 281408 bytes, 6 tensors)

linear1.weight f4 [256, 11]
00000000: 290c 54be 977a 373e 644a ffbd 35ad 163e
00000010: 122b b33d 3bbb ed3d 4472 45be 0960 28be
00000020: 113d dfbd 9c19 16be 9d8f 87be e12e 463e
00000030: 27a2 053e 10f0 1dbe dd6e f6bd b94d bcbc
00000040: 816e 7dbd 14cd 43be b93c 3dbd e907 82be
00000050: 3a1e 78bc 07ad 30be 96ee feba 1a71 233d
00000060: 2b69 fc3d 8335 ddbe 0c07 563e 117c edbe
00000070: 26ca fe3e aaa4 8dbe 9f1e 16bf 92ff 0ebf
00000080: e609 903e ce77 87bd a2e9 963d 26cc 223e
00000090: ac69 463c f9de 26bd 23a7 05bf aa73 b5be
000000a0: 3ae8 3abe 8271 0f3d 083f d5be 3129 a1be
000000b0: cafc c2bd 4119 76bd acdb 62be 0c69 8cbc
000000c0: a9e5 16bd 43f8 a1be 4291 033f 978a dcbe
000000d0: 66fb 04bf ec3f 263e 49b3 8fbe aaad 9dbd
000000e0: 8d2c 413e 0b7c 9abe a9ef e2be 95fc 18bd
000000f0: 7235 07bf ea7e 99bb 19e9 92be 3a31 84be
00000100: 2882 adbd 8e68 f1be cab9 213f bc1d ddbe
00000110: 1e4a 8bbe 989a 2f3e b1be 04be 17f4 c2be
00000120: fa54 b9be 57c8 21be c90c 053e bfa1 023f
00000130: 0e25 cc3e 0de5 acbe 33d9 273e 2125 983e
00000140: f7e6 93be 6b54 95be 4f95 5e3e 437c d63e
00000150: 2cab 94be fa61 afbe bf5d 693e 0bc5 083e
00000160: 5827 903e a55f a73d 1b7a 8bbd 4d45 d13e
00000170: 9140 643e 054a 2abf a139 febe a34a 37bf
00000180: 8950 1fbf 23d3 6c3e 9c70 a83e c083 3abe
00000190: 2856 cc3e 95a0 283f 4a77 8b3d 421b 85be
000001a0: be63 aebe 3e2d 5abe e801 5d3c 6efa febd
000001b0: 15ed c4bd c4e9 b0be 3c9c 27be 33b3 20bd
000001c0: 5055 4abc b86c 8dbe c334 7b3e c708 c03e
000001d0: 3893 a0be 6f8d 6fbe b630 8ebe 3b02 ff3e
000001e0: d107 24be 2c0b 2fbe 48ac 123f ef3c 15bc
000001f0: c3de 333e 948d 193e bb8e 6dbe 9074 20bf
00000200: ef64 5f3e 6edb ae3e 4689 b0be 3c3a e2be
00000210: 0e40 29be d60e 713e b029 073d beb9 53be
00000220: ce7e d9be 0e3f 37be a89d 0ebe 68e4 aabd
00000230: 6bb1 d3bc e8be 6dbe c42f 58be 5f7d dd3d
00000240: cc04 7d3e 4dee 73bd b81e 4d3d a307 493c
00000250: 92c1 50be 6f40 ee3c efa9 f137 9c1c 03be
00000260: 17b4 9b3d 4944 53be bdc2 463e a16d 933e
00000270: 2f3a 01bf c9a1 603e 5e9a 89be 01aa c23e
00000280: 1db2 91be 8812 35be 6b13 41bf 5949 23bf
00000290: 886f 153e 1874 f4be cc03 8b3d 3951 4e3e
000002a0: 2b42 f7be c1c7 143e 4d38 883e 4a12 f93c
000002b0: 6daa 1dbf fd02 09bf 7564 2ebf f9bf afbd
000002c0: f978 bf3d a02b 2d3e 3106 bd3d 1e3f 50bc
000002d0: 700e eabc e998 263d f50c a6be ea64 f8be
000002e0: 0585 6cbe cce3 aebd d395 00bf 08d1 c13d
000002f0: b890 fabe d3ff f9bc 8c98 91bc 4ee3 dbbd
00000300: 1f1d eebd 365d d0bc c64a 0b3d 99ab dabe
00000310: bdc4 0fbb 19d6 a4bb 38a3 353e f82f 9fbe
00000320: 111c dbbd f2ed 8dbe dec5 d13e 305f cdbe
00000330: 06be ecbe ceea f83e 2be0 85be 0e02 3ebf
00000340: c5a8 15bf 2535 83be 94c1 33be c685 6dbe
00000350: e55d 37be ee24 dcbd 0529 633e 8100 25be
00000360: 6881 a9be 7dd6 6abe f747 09be c131 4e3e
00000370: 8c11 1cbe 667c a03d 64e5 ed3d 034f a13c
00000380: ea87 04bf ee84 9abe d63a febd 9a45 02bf
00000390: 0618 d6be 3718 0abe b1df a5bc 2995 11bd
000003a0: a00a 233f 2140 d0bd 1450 bc3e a9f4 5fbe
000003b0: 3388 8bbe 7f95 813e 794b 48be 5769 a33d
000003c0: c8cc 9fbe 8607 313e 2816 9c3e 0917 7abe
000003d0: fd42 6a3e b5b4 27bf d8c6 82be f076 9bbe
000003e0: 2aac 073e e0c5 3a3e 15cc 43be b183 a9be
000003f0: f17d e0be f4bb ca3e d3bd fd3e c733 013f
-0.20707764 0.17917858 -0.12465361 0.1471451 0.087484494 0.11607977 -0.1928187 -0.16442885
-0.10900319 -0.14658207 -0.26476756 0.1935382 0.13050137 -0.15423608 -0.12032864 -0.02298628
-0.061872963 -0.191212 -0.046200488 -0.2539666 -0.015143925 -0.17253505 -0.0019449766 0.039902784
0.12324747 -0.4320489 0.20901126 -0.46383718 0.49763602 -0.2766469 -0.58640474 -0.5585872
0.28132552 -0.06614648 0.07368781 0.15898189 0.012110155 -0.040739987 -0.52208155 -0.35439807
-0.1825265 0.03502036 -0.41649652 -0.3147674 -0.09520872 -0.060082678 -0.2215411 -0.017139934
-0.036840115 -0.3163472 0.5139352 -0.43074486 -0.51946104 0.16235322 -0.2806647 -0.076991394
0.18864651 -0.30172762 -0.4432347 -0.037350256 -0.52815926 -0.004684319 -0.28693464 -0.25818807
-0.08472091 -0.4715008 0.63174117 -0.43186748 -0.27204984 0.17148817 -0.12963368 -0.3807685
-0.36197644 -0.1579908 0.12993158 0.51028055 0.3987202 -0.33768502 0.16391449 0.29715827
-0.2888715 -0.29165968 0.21736644 0.4189168 -0.29036844 -0.34254438 0.22789668 0.13356416
0.28155017 0.081725396 -0.06810399 0.40873185 0.22290255 -0.66519195 -0.49653342 -0.7159826
-0.6223226 0.23127417 0.32898414 -0.18214321 0.39909482 0.6587003 0.06809862 -0.2599736
-0.34060472 -0.21306321 0.013489224 -0.124501094 -0.09615532 -0.3455335 -0.16368192 -0.039233398
-0.012349442 -0.27622008 0.24531846 0.37506697 -0.3136232 -0.23393796 -0.27771538 0.4980639
-0.16018607 -0.17094105 0.5729413 -0.009108766 0.17565446 0.14995414 -0.23198979 -0.6267786
0.21815847 0.34151787 -0.3447973 -0.44185054 -0.16528341 0.23540816 0.03299874 -0.20676324
-0.42479557 -0.17895147 -0.13927329 -0.08344346 -0.025841435 -0.23217356 -0.21111971 0.10814928
0.24708861 -0.059553433 0.050078124 0.012269887 -0.20386341 0.029083459 2.880857e-05 -0.12803882
0.07602709 -0.20631517 0.19410224 0.28794578 -0.50479406 0.21936716 -0.26875585 0.38020328
-0.28456202 -0.1768285 -0.75420254 -0.63783795 0.14593327 -0.47744823 0.067878336 0.20148171
-0.4829267 0.14529325 0.26605454 0.030404229 -0.61588174 -0.53520185 -0.68122035 -0.08581538
0.093492456 0.16911173 0.092296965 -0.012710361 -0.028571337 0.04067317 -0.3243176 -0.4851449
-0.23097618 -0.085395426 -0.50228614 0.09463698 -0.48938537 -0.030517494 -0.017772935 -0.10736714
-0.11626648 -0.025435071 0.034006856 -0.42709044 -0.0021937334 -0.0050304052 0.17738044 -0.31091285
-0.106987126 -0.277206 0.40971273 -0.40111685 -0.46238726 0.48616642 -0.2614759 -0.74221885
-0.58460647 -0.25626484 -0.17554313 -0.23195562 -0.17906912 -0.10749231 0.22183616 -0.16113473
-0.33106542 -0.22933383 -0.13406359 0.20136167 -0.15241069 0.07836227 0.116160184 0.019690996
-0.5176989 -0.30179542 -0.12413566 -0.50887454 -0.41815203 -0.134858 -0.020248266 -0.03554264
0.6368809 -0.101684816 0.36779845 -0.21870674 -0.2725235 0.2530937 -0.1956004 0.07979076
-0.31210923 0.17288026 0.30485654 -0.2442285 0.22877117 -0.6551011 -0.2554233 -0.3036418
0.13249269 0.18239546 -0.1912082 -0.33108285 -0.43846086 0.39596522 0.49558887 0.5046963

linear1.bias f4 [256]
00000000: 0722 9dbe 556a b0be 375b 02bb ecf2 98be
00000010: a7d3 bbbe c6f4 01be efc2 ebbd 6327 9fbe
00000020: 939b 42bd ed3c 13bd d7ac 7abe 1ea1 05bd
00000030: e9e4 13be 91aa f7be 35cf 7d3d df7a 55bd
00000040: ed9c 79be 9e6e 7ebe 6c78 dabe 0048 64be
00000050: ff9b a2bd a17a c6bd b1e2 36be 4071 32be
00000060: a9c4 f1bd 0c53 8c3a d0bf 00bd 514f afbe
00000070: 34a7 c8be e839 8c3e f134 a3be 5cc4 36be
00000080: 9c91 dfbd 97b5 a23e b8fb 30bc 418b afbe
00000090: 1c92 41be 699a 16bd d4b2 9dbe 6726 cdbd
000000a0: 1fc6 6cbe 22ac 823d 015d e0bd 744b 38be
000000b0: 270b 7abe 3dac 13bd e740 85be 937a 3fbe
000000c0: 2b82 1a3d b6c7 8dbe 3746 75bd 7003 b6be
000000d0: d44f aabe 0f78 083e 3143 eb3e ed28 403f
000000e0: 231a edbb eaaa 82be 4e38 5f3f 2299 1dbc
000000f0: fb90 9abd 5268 1abe 7112 36be 11d0 1a3b
00000100: 1313 8cbe b3fa c0be 5b94 94be ac19 94bd
00000110: aac2 a7bd e6cb 85be 09f9 6c3e 673c 9d3c
00000120: 6301 813f f6f7 9abe 2bd2 7ebe 2964 55bd
00000130: 0506 46be 21d1 51be d9ad 68be 49c5 cdbe
00000140: 8cc9 7e3e 283d c33e 39b3 bfbd e995 05be
00000150: c559 cf3d 68b5 85be 3280 bcbd 06b4 b0be
00000160: 6103 f03d f958 93be f0fb a5be 8f40 0d3e
00000170: 9f63 0a3e 8725 78bd e6cc c0be 2430 dbbe
00000180: 502b bebe 0727 e5bd ca06 fabd e109 e1be
00000190: 9659 74be 59d2 993d df62 023d 5f3e 76be
000001a0: 07ed 17bc 7141 393e 23fd b8bd 8f06 21be
000001b0: b3dd 89bd bb07 01bf 8f71 7fbe 2760 13be
000001c0: 2141 8ebe 3fa7 ffbd 30e8 3f3b 1eef 0c3e
000001d0: 830b 11bd d622 473f 21a2 fbbd 31e1 aabe
000001e0: 8888 8a3e 4e6f 0b3e 6241 94be 9ec5 22be
000001f0: 7d5a d3bd aa36 9cbe cd14 c8be 1598 f9bc
00000200: 1f66 493f 4a80 97be 5fcd 1e3d 2793 1e3c
00000210: c860 3dbd 0282 8b3c 8255 1dbe f28f 81be
00000220: 4ee4 7ebd b31c a03e 9184 c43d f111 243f
00000230: 0828 35bc f37e 1ebe e9bf 6dbd 0b30 d6be
00000240: eb09 a7bd 0be1 87be c130 b93f 2e26 cfbd
00000250: 19cc 8dbe d894 da3d c600 3dbe 1133 9f3e
00000260: a7f8 aabd e273 43be 7da8 b63c 22ff fabd
00000270: af1c 66be 731c edbd e65b 173d fcab 4f3c
00000280: 1fb1 02be 17d3 413e 2c52 bebe b46d 9cbe
00000290: edd5 2a3e 2bc2 473f 9747 8dbe 0a69 31be
000002a0: 0a0e a9be 470b 70be af9c 98bd 49d4 6a3e
000002b0: cc2d 963e ae2d 4d3d 555b 56bc 6925 0b3f
000002c0: e26b a43e bd36 5abe d583 3fbe ddc0 bebe
000002d0: f709 703d 1141 f13e bc3e 46be 5352 86bc
000002e0: 3405 c3be 5053 b13d f805 273d ef69 1d3d
000002f0: 14a3 1f3e e591 c1be 8e3a 8ebd 9fc5 34bd
00000300: 8876 7bbe 4d91 babe 5570 50bd 95d7 2a3e
00000310: e4c9 2bbe 83ae 16bf 8d14 da3d 9f8d b33c
00000320: 48bb 11be 55c3 09bf a1bd 64be 3ab5 a4bd
00000330: f627 003e 55c8 9abe 6886 40be aabe 48bd
00000340: a648 9abe bb4c aabc dcc3 9d3f 650d 8b3e
00000350: 7638 90be 2c71 c13d e9d4 41be cdc8 98be
00000360: c25a 50bd 7ab6 6dbe 9341 02bf 68bf 97bd
00000370: 7070 273d 966d fe3d aeb0 8ebe 4fd7 973e
00000380: 7e33 6dbe 0b73 1e3e b7b1 8cbe 902d 0bbe
00000390: 1059 92bd 6b94 69be 91fc 72be 27be fabe
000003a0: 986d 183e ec35 8abe cc98 443d 611b bbbe
000003b0: ec1f a63c 56f6 20bd 59a7 d43c bf5a c33e
000003c0: 07e1 22be b2e9 4ebe b2f7 aebd 8c75 09be
000003d0: 10f7 26be edef 153e 7e9d a5be 9751 98be
000003e0: 3096 39bd 63a7 c33e 409f be3f 4f4b a33e
000003f0: ca7b 75be 57d7 b4be db0c d0bd b2a1 a1be
-0.30690023 -0.34456125 -0.0019890794 -0.29872835 -0.36684915 -0.1269103 -0.1151179 -0.31084737
-0.04751165 -0.035946775 -0.24479996 -0.032624356 -0.14442791 -0.4837232 0.061965186 -0.052119132
-0.24376269 -0.24846885 -0.4267 -0.22293091 -0.0793991 -0.09691358 -0.17859913 -0.17426014
-0.11805088 0.0010705902 -0.031432927 -0.342402 -0.39190066 0.2738793 -0.3187633 -0.17848343
-0.10916445 0.31779167 -0.010802202 -0.3428593 -0.18903393 -0.03676835 -0.30800498 -0.1001709
-0.23122452 0.06380488 -0.10955239 -0.17997533 -0.24418317 -0.03605293 -0.2602608 -0.18699102
0.037721794 -0.2769143 -0.059881415 -0.35549498 -0.3326403 0.13327049 0.459497 0.7506245
-0.0072357818 -0.25521022 0.8719529 -0.009619029 -0.07547184 -0.15078858 -0.17780472 0.0023622552
-0.27358302 -0.37691268 -0.29019436 -0.07231459 -0.08191426 -0.26132125 0.23141874 0.019193841
1.0078548 -0.30267304 -0.2488486 -0.052097473 -0.19338234 -0.20489933 -0.22722568 -0.4018958
0.24881572 0.38132596 -0.09360356 -0.13045467 0.10124544 -0.26114964 -0.09204139 -0.34512347
0.117193945 -0.28778818 -0.32418776 0.13794158 0.13514565 -0.060582664 -0.37656325 -0.42810166
-0.3714242 -0.111890845 -0.12208326 -0.4395285 -0.238623 0.07510824 0.031832572 -0.2404723
-0.00927282 0.1809137 -0.09032657 -0.15725158 -0.06731739 -0.5040242 -0.24945663 -0.14392148
-0.27784064 -0.124830715 0.0029282682 0.13763091 -0.03541137 0.7778753 -0.12286783 -0.33374932
0.2705729 0.13616678 -0.28956133 -0.15895697 -0.10319994 -0.30510455 -0.3907837 -0.030468026
0.7867145 -0.29590064 0.038770076 0.009678639 -0.046234876 0.017029766 -0.1536465 -0.25305134
-0.062229447 0.31271896 0.095955975 0.64089876 -0.0110569075 -0.15478115 -0.058044348 -0.4183353
-0.081561886 -0.26538882 1.4468004 -0.10114704 -0.27694777 0.10672921 -0.18457326 0.31093648
-0.08348208 -0.19087175 0.022297138 -0.12255694 -0.2247188 -0.11577692 0.036952876 0.012675282
-0.12762879 0.1892818 -0.37172067 -0.30552447 0.16683169 0.7803065 -0.2759368 -0.17325225
-0.33018523 -0.23441802 -0.0745176 0.22932543 0.29331815 0.05009239 -0.013083299 0.5435396
0.32113558 -0.21309943 -0.18702634 -0.37256518 0.058603253 0.47119954 -0.19359869 -0.016396677
-0.38089907 0.08658469 0.040777177 0.038431104 0.15589553 -0.3780662 -0.06944762 -0.04413378
-0.24556935 -0.3643898 -0.05088838 0.166838 -0.16776234 -0.58860034 0.10648451 0.021918116
-0.14231598 -0.5381368 -0.22337963 -0.08042379 0.12515244 -0.30230966 -0.18801272 -0.049009956
-0.3013355 -0.020788541 1.2325397 0.27158657 -0.28168076 0.09445414 -0.18928875 -0.298407
-0.050867803 -0.2321414 -0.5088131 -0.07409555 0.040878713 0.124232456 -0.2786917 0.29656455
-0.23164174 0.15473573 -0.27479336 -0.135916 -0.071458936 -0.22810523 -0.23729159 -0.489732
0.14885557 -0.26994264 0.04799728 -0.36544326 0.020278893 -0.039297424 0.025958704 0.3815517
-0.15906154 -0.20206335 -0.08543338 -0.13423747 -0.16305184 0.14642306 -0.3234672 -0.29749748
-0.045309246 0.38213643 1.4892349 0.31893393 -0.23973003 -0.3532054 -0.10158702 -0.31568676

linear2.weight f4 [256, 256]
00000000: 001a c039 40e7 79bb 6aef b33d 4774 5c3b
00000010: cf6c b8bb 2989 31bc 07f7 973c 4a1e 0bbd
00000020: 5f21 49bd 2b86 07bd e781 73bd 48e8 3a3c
00000030: d7ce a93c 562e 1fbc 4306 95b9 8f4d 46bd
00000040: d865 7bbd abde cebb 14b9 1f3d e422 8f3c
00000050: 0490 85bd 78e1 81bb 52f6 5dbc cc59 debb
00000060: 182f 08bd a15c 45bd bd6f 88bd 9fc5 a8bc
00000070: 7c5b 3ebd 127e 45bd c8bd 97bb ef20 94ba
00000080: b878 f0bd e5e5 a0bd 6989 6bbd 1665 b6bd
00000090: 82b1 9cbd b6ea 53bd e899 5f3d 5c02 ecbc
000000a0: 8311 a63c 9f09 b13c f2bf 873c 3009 f03b
000000b0: a68c abbb eca2 ebbc d33b 6dbd ce0f 923d
000000c0: caca b6bc e030 31bc 9216 41bd 7de7 873c
000000d0: f2dd 68bd b1bf 3cbc 3491 81bd 486e 6ebd
000000e0: 5159 03bd 2ec6 033c 8f72 d8bd a523 2c3d
000000f0: ebdc 0d3d 0031 2ebd 9088 3bbc 4b4b 94bd
00000100: 27ef 83bd 3db6 673c a0e2 873c 74ba 983d
00000110: df08 7bbd 6dea e83c 4b3f 2bba 860d b9bd
00000120: 4ce4 86bd fd42 94bc 970b 55bd 8725 39bd
00000130: 8e4d a2ba 45c3 6a3d d046 523d f4bf 863c
00000140: 504c d8bd 3774 1bbd a9b1 d43b 31bf 23bd
00000150: 3ef5 d3bd 7c04 cfbc e736 56bd 4045 9abd
00000160: 71f3 12bc 1501 44bd e98b 86bc 625c 65bd
00000170: df04 ad3a b8a0 1e3c 4447 013d 79f2 1fbd
00000180: 1494 473d 5bb9 febb 5b22 b03c 084f b5bd
00000190: b954 a3bb 8aba cebd 6843 87bd a6d8 7fbd
000001a0: f948 0cbd fcdf 53bd b8e6 1e3d fcae 5bbd
000001b0: cc3f 82bd fe62 9fbd 0e52 7ebc d485 7fbd
000001c0: 5b2a 40bc 2097 29bd eb02 8cbd c02b 42bc
000001d0: 6b03 873b 42ac d6bd 7c01 293d 0c52 0dbd
000001e0: 520d c0bd 81f2 14bd 8586 68bd a1d6 1abd
000001f0: 9b64 23bc 1418 88bd 36e4 53bd 0a5b 7abd
00000200: 1b96 f3bd d60c b8bd c6bf bb3c fa18 19bd
00000210: c267 933d e88c 513d 5b00 97bd f566 5fbc
00000220: e130 70bc cd69 863d d09b 143c efa5 3fbd
00000230: 6d27 ddbc 5d12 2ebd 8b42 abbc c06e 3fbc
00000240: 61f9 6e3c 8420 bbbd ca4f 89bc e81d 47bd
00000250: 20c9 81bc 98bf 2cbd a9c7 b33c 9357 d3bc
00000260: a231 17bc f52f a13d f921 3bbd 50a1 46bd
00000270: 5003 e7bc cc58 1dbd 4743 a23c e466 3abd
00000280: b808 b1bd d282 5cbd 916a 52bd 1c2c 80bc
00000290: b669 133d 664b aabd 58ed 5cbd 7ab1 f6bb
000002a0: 603a 3fbc d191 9fbd f2ed ceba fa64 82bd
000002b0: bceb 163c 39c0 3f3d 4a19 3b3d 4e91 be3b
000002c0: fedb 4a3c 225e 073d 2124 f9bc 8ac6 8d3c
000002d0: 1a5a 54bd b35a 9dbc 96a4 f9bd 4846 703d
000002e0: 2b22 36bc 1a83 12bd e9ce 8f3c 4c10 eebc
000002f0: 042a ca39 c00a eb3a a4ce 7cbd f586 61bd
00000300: 6edb 19bd 15ca 6abd c100 5ebd d43c f53c
00000310: 0508 a5bd a9a1 393d cd00 dfbd b263 2c3d
00000320: dda6 9c3c b109 e7bd 6c83 7e3d 64b9 743d
00000330: 8446 933a 5296 17bd 2e93 1ebc ac5a 3fbd
00000340: c959 44bd ede2 17bd 2048 bebd b181 2abd
00000350: e27c 2abd 1e51 803c 17b6 9dbd e088 1f3c
00000360: e0ac 053d 9bc2 4f3d 9579 cdbc 06b4 6f3a
00000370: f29d bfbd 4a9f 133c 6804 093d fba2 2dbd
00000380: b1f7 9fbc 5a75 4bbd f649 39bd 08a6 10bd
00000390: c5cd 1bbd 4501 bbbb b921 08bd 2286 a6bd
000003a0: e183 12bd 7321 cb3c 253d 3bbd 4bb3 07bd
000003b0: 757e 283d 6cd9 0fbd b8d7 2ebd b424 8bbd
000003c0: cc9f ecb9 2adb 97bd 7dd3 3fbc 73c1 8ebd
000003d0: 00f3 b63a 787a 52bc 25b9 42bd 9164 8a3d
000003e0: dc03 993c 0b96 8abd b836 97bd b91e 8b3c
000003f0: d0ac f4bc 6a0d 90bd 7d12 1a3d 2e5b 3cbc
0.00036640465 -0.003813222 0.08785899 0.0033638643 -0.0056282054 -0.010835924 0.018550409 -0.033964433
-0.04910409 -0.033086937 -0.059450056 0.011407919 0.020728512 -0.009715637 -0.0002842416 -0.04841381
-0.061376423 -0.006313165 0.038994864 0.017472692 -0.065216094 -0.0039636455 -0.013547497 -0.006785607
-0.033248037 -0.04818404 -0.066619374 -0.020602046 -0.046473965 -0.048215933 -0.004630778 -0.0011301319
-0.11741775 -0.07856349 -0.05750409 -0.08905999 -0.076510444 -0.05173751 0.054590136 -0.028809719
0.020272022 0.021611033 0.016571019 0.007325314 -0.0052352725 -0.02876421 -0.05791838 0.07131921
-0.022313494 -0.010814875 -0.047140665 0.016589874 -0.05685229 -0.011520312 -0.063265234 -0.05821064
-0.0320676 0.008042855 -0.10568725 0.04202618 0.034634512 -0.0425272 -0.011446133 -0.072409235
-0.06442099 0.01414257 0.016587555 0.07457438 -0.061287757 0.028432095 -0.0006532564 -0.090357825
-0.06586513 -0.018098349 -0.052013006 -0.045201804 -0.0012382732 0.05731513 0.051337063 0.016448952
-0.105614305 -0.037952628 0.0064909053 -0.039977256 -0.103495106 -0.025270693 -0.052298453 -0.0753274
-0.008969174 -0.047852594 -0.016424136 -0.055996306 0.0013200304 0.009681873 0.031562105 -0.0390496
0.048725203 -0.007773561 0.021500757 -0.08852965 -0.004984465 -0.10094173 -0.066046536 -0.06246247
-0.03424928 -0.05172728 0.03879425 -0.053633675 -0.063598245 -0.07782553 -0.015522493 -0.062383488
-0.011728848 -0.04140389 -0.06836494 -0.011851251 0.0041202805 -0.10482074 0.04126118 -0.034502074
-0.09377541 -0.036364082 -0.056768913 -0.037802342 -0.009972717 -0.066452175 -0.05173131 -0.061121978
-0.11893865 -0.08986823 0.022918593 -0.037377335 0.071975246 0.05115977 -0.07373115 -0.013635387
-0.014660091 0.06563149 0.009070352 -0.046789106 -0.026996339 -0.04249798 -0.020905754 -0.01168412
0.014585824 -0.09137061 -0.01676168 -0.048612505 -0.015842974 -0.042174906 0.021945791 -0.025798595
-0.009228142 0.07870475 -0.045686696 -0.048493683 -0.028199822 -0.03841476 0.019807471 -0.04550828
-0.08644241 -0.053835697 -0.05137116 -0.015646033 0.035989486 -0.08315162 -0.053937286 -0.007528481
-0.0116716325 -0.07791484 -0.0015787466 -0.06366916 0.009211477 0.046814177 0.045678414 0.0058156615
0.012381552 0.033048756 -0.030412735 0.017306585 -0.05184374 -0.019208288 -0.121895954 0.058660775
-0.011116545 -0.03576956 0.017554717 -0.029060505 0.00038559746 0.0017932281 -0.061720505 -0.055060346
-0.03756278 -0.057321627 -0.054199938 0.029936232 -0.0805817 0.045320187 -0.108888246 0.042087264
0.019122535 -0.11281145 0.062137052 0.059747115 0.0011236225 -0.03700859 -0.009678645 -0.04671733
-0.04793719 -0.037081648 -0.092911005 -0.04162759 -0.041623004 0.01566368 -0.077007465 0.009737223
0.03263557 0.0507227 -0.025082389 0.0009143952 -0.093562976 0.009010145 0.033451468 -0.04239176
-0.019527288 -0.049672462 -0.04523655 -0.03531459 -0.038038034 -0.0057069384 -0.033235285 -0.081310526
-0.0357703 0.024796223 -0.04571261 -0.03312997 0.041136224 -0.03511946 -0.042686194 -0.0679411
-0.00045132486 -0.07414849 -0.011708138 -0.06970491 0.0013957918 -0.012846582 -0.04753985 0.06757463
0.018678598 -0.067669 -0.07383484 0.016982423 -0.02986756 -0.070338085 0.037615288 -0.011496348

linear2.bias f4 [256]
00000000: a345 1eb9 07a0 a9bc f9ad a0bd 562f 7bbd
00000010: 71ec 0bbd 9033 383e 45b3 b63c 63a2 4bbd
00000020: 25ae 66be 408f 14bd 30d5 e53d 296b 37bd
00000030: 3509 37bd 9cde d2bc 7eda 4fbd 834d 0abe
00000040: 0584 d8bd bc2c 8ebd 80af 1d3b 35bb 793b
00000050: b088 0abe c5d5 72bd 3700 6c3e f4fd 11be
00000060: d7a6 fbbd 1018 02bd 7d63 463d a600 2fbd
00000070: 3a33 6bbd 701a cabd 25be cbbd 1d99 de3e
00000080: 30ed 36be 5788 96bd d427 2cbd b55f bcbb
00000090: 3902 fdbd 3618 d53d 4234 d93b 65aa 8fbd
000000a0: 6926 94bd f10d 05bd 9c79 b2bd f382 9cbd
000000b0: 3f0b 22be 237d b4bd 15bc d6bd 26d9 103e
000000c0: 8295 153d 336f ddbd 9f63 483c 484a bcbd
000000d0: c822 2abd 3706 cebd 12b8 c1bd d84b 2dbd
000000e0: f0af 72bd dd2e 38bd b419 33bd eec2 c63c
000000f0: 9175 1140 6350 823b 0976 87bd 5efd 62bd
00000100: 3ae4 c1bd 024b 5f3d 5b36 b43b d8d3 af3c
00000110: a93d 45bd c476 42be 27e4 06bd 4102 4ebd
00000120: 72c6 1bbe 71f7 efbc 325a febd 7cf0 9b3d
00000130: 595f a4bd aced cfbd 7f63 1abd d924 d6bd
00000140: 0534 0340 b143 983e 78cd 9c3c 2c02 a2bc
00000150: c718 a2bd 60d4 0dbd 535d 4dbd fb23 33bd
00000160: 9b47 95bd cd2e 833c 272a 42bd 1226 493e
00000170: 93eb 1abe db9a e1bd 83dd 0ebe 45b7 aebd
00000180: 7f0c 13bd 910b f3bd 007e a5bd 9711 dabc
00000190: 8c9f 1dbd ab32 b2bc 1bbc 94bd 30d2 81bd
000001a0: 012f d83f 98c4 61bc 991e 55bd c703 89bd
000001b0: 53c0 7e3c 92f1 26be ecd9 64bd bfaf 7cbd
000001c0: 235f 33bd f525 e5bc 5fd9 0fbe b853 6ebd
000001d0: 6f85 39bd 5ee3 cebd 458d 76bd d52b 35be
000001e0: bc09 22bd 2fed 14bc 86b9 b5bd 4f35 3bbe
000001f0: 5a09 8a3d f3dd c4bd 1549 6b3e ce65 263c
00000200: 028d 7bbd fd92 1e3c 745d 47bd 47ae cebd
00000210: cf92 4cbe 107d 27bd 2192 963d 49e3 fd3f
00000220: 10a9 c4bd 8359 e3bd 0c2f 94bb cc1e 653e
00000230: d9e5 d1bd b9e9 83bd e2da 81bd c980 73bd
00000240: 1bcf b7bd 040e 35bd ecf5 a3bd 7ae9 9a3c
00000250: ae2f 42bd ddc6 b8bd e243 9fbc 031c 5fbe
00000260: 1740 8dbd 5a65 9fbd 7410 afbd 7dc8 18bd
00000270: 6e73 98bd d504 a5bd 81e7 223f 8280 d3bc
00000280: 467a 50be 9c83 4dbd bb3f 9bbd d8b4 dbbd
00000290: 313f 73bd faf3 d23c d79c 8bbd 5fd9 4fbd
000002a0: 3f4f e6bd f9ec 493d 79d7 ddbd ea0e 2a3e
000002b0: 3da9 433f c5e5 e3bd 7fa7 09bd fee9 453c
000002c0: 4811 afbd ed73 803e 0d5b 9bbd a1df cebd
000002d0: cd70 46bd 4917 debc 57b1 d9bd c01e 2dbe
000002e0: 88aa 94bd 4cd2 8cbd f1dd 0f40 d910 72bd
000002f0: 70d5 f0bd 206c 90bc 6c62 473e 9371 4ebc
00000300: 3678 51bd 5514 c1bd 0f19 963c 84a3 66bc
00000310: 1d3c 59bd 80d6 50bd f778 89bd ce26 adbd
00000320: 04a9 c8bd 146c d1bd bb7e a3bd a3d0 54be
00000330: b8a3 77be fa48 a5bd d1f4 dabc ac28 d3bd
00000340: 9752 96bd 6543 723d 2d31 b8bd 5f3f 1e40
00000350: 3b3f d0bd e3e4 183d 2ea5 af3c 6cf1 91bd
00000360: ec21 0f3f f395 a4bd 20ab 26bd b3b3 cbbc
00000370: 2726 663b 9656 97bd ffab ed3f 5092 44bd
00000380: 3f25 2ebb 0f5f d0bd 726e 84bd 6d8e 203d
00000390: 36dd 04be b114 f4bd b4e2 a6bd 98a1 e0bc
000003a0: 7a55 4dbe a1cb 6cbd 3c5a c0bc 5d96 4ebd
000003b0: ff72 26be 7a22 15bc 8cfe a0bd 1025 943e
000003c0: f194 69be 7d33 98bd 30fc 74bd 02a9 f5bd
000003d0: f703 e8bd dc83 24bc c1e4 63bb 6f80 94bd
000003e0: d0c8 45bd 510f cfbd 121f 02be 2b77 d3bd
000003f0: bd87 5abe ac48 e9bd 049a 70bd a670 503d
-0.00015093996 -0.02070619 -0.07845683 -0.06132444 -0.034161035 0.1798842 0.02230228 -0.04971541
-0.22527368 -0.036269426 0.11222303 -0.04477993 -0.044686515 -0.025740914 -0.05074548 -0.13506131
-0.10572056 -0.06942126 0.0024060905 0.003810597 -0.13528705 -0.059285898 0.23046957 -0.14257032
-0.122876815 -0.03176123 0.048434723 -0.042725228 -0.0574219 -0.09868324 -0.099483766 0.4347619
-0.17863917 -0.073502235 -0.04203017 -0.005748714 -0.123539396 0.104050085 0.006628544 -0.07014922
-0.07233889 -0.032484 -0.087146014 -0.07642164 -0.15824603 -0.088129304 -0.104850926 0.14145336
0.036519535 -0.10812225 0.012230783 -0.091938555 -0.041537076 -0.10059779 -0.09458937 -0.04230866
-0.05924982 -0.044966567 -0.043725684 0.024262872 2.2728007 0.003976868 -0.0661431 -0.05541741
-0.09467359 0.054514892 0.0054996437 0.02146332 -0.048154507 -0.18990618 -0.032932427 -0.05029512
-0.1521242 -0.029292794 -0.12419547 0.07614228 -0.080259986 -0.10152754 -0.037692543 -0.10456247
2.05005 0.29739144 0.019140944 -0.019776426 -0.07914882 -0.034626365 -0.05013783 -0.043735486
-0.07289048 0.016013527 -0.04740348 0.19643429 -0.15128927 -0.110158645 -0.13951688 -0.0853105
-0.03590059 -0.118674405 -0.08080673 -0.026619716 -0.038482234 -0.021752676 -0.07262441 -0.06338918
1.6889344 -0.013779782 -0.052031133 -0.066901736 0.015548783 -0.1630309 -0.05587189 -0.061691042
-0.0437919 -0.0279722 -0.14047764 -0.05818531 -0.045293268 -0.101019606 -0.06019332 -0.17692502
-0.039560065 -0.009089752 -0.088732764 -0.18282054 0.06740065 -0.09612646 0.22977097 0.010156108
-0.061413772 0.009678599 -0.04867311 -0.100918345 -0.19977878 -0.040890753 0.073520906 1.9834987
-0.096025586 -0.111010574 -0.00452221 0.2237503 -0.10248918 -0.064410634 -0.06340577 -0.05944899
-0.08975049 -0.04420282 -0.0800589 0.018910158 -0.047408752 -0.09022305 -0.019441549 -0.2178803
-0.0689699 -0.07783003 -0.0854806 -0.037300576 -0.074438915 -0.08057562 0.63634497 -0.025818113
-0.20359144 -0.05017434 -0.07580515 -0.107278526 -0.059386436 0.025751103 -0.06817024 -0.05074441
-0.11245584 0.04929826 -0.10832114 0.16607252 0.7643011 -0.111278094 -0.033607002 0.012079714
-0.08548218 0.25088444 -0.07585726 -0.101012476 -0.04844742 -0.027110713 -0.10629528 -0.16906261
-0.07259089 -0.068760484 2.2479212 -0.0590981 -0.1175946 -0.017629683 0.19471139 -0.01260032
-0.051140033 -0.09427706 0.018322496 -0.014077071 -0.053035844 -0.050985813 -0.06712525 -0.08454667
-0.09797862 -0.102256924 -0.07983156 -0.20782714 -0.24183547 -0.0807056 -0.026728066 -0.10310492
-0.073399715 0.059146304 -0.089937545 2.4726179 -0.1016831 0.03732766 0.021441069 -0.07126126
0.55911136 -0.08036413 -0.04069054 -0.02486596 0.0035117955 -0.07389562 1.8568114 -0.047991097
-0.0026572493 -0.10174381 -0.06466378 0.039198328 -0.1297501 -0.11918009 -0.08148709 -0.027420804
-0.20052138 -0.057811383 -0.023480527 -0.050436366 -0.16254805 -0.009102458 -0.07861051 0.28934526
-0.22810723 -0.074316956 -0.059810817 -0.11995126 -0.11328881 -0.010041203 -0.00347738 -0.07251059
-0.048287213 -0.10110343 -0.12707165 -0.10325464 -0.21340843 -0.11390814 -0.05874063 0.05088868

linear3.weight f4 [3, 256]
00000000: d485 063c 2b30 46bc fadc dabb 56e0 6a3d
00000010: 7354 08bb 0612 1cbf 71c7 383d d17d 04bd
00000020: d683 b63c 2345 b23c 56bf 6dbf 13be d63c
00000030: d8e3 01bc d214 b4bb f4c2 1d3b 7214 b8be
00000040: 6970 0c3d 70b8 07bc 7591 21bd 5238 583d
00000050: e935 22bd 7224 253d 7488 0f3e 1599 d4bd
00000060: 3977 37bb d010 8bbb 6744 ba3d e871 7bbc
00000070: 70f0 5bbc 7aff ac3c bb91 c23c 9d59 0e3d
00000080: 99f8 73bc 924b 1cbf 273b 44bd 50eb 103d
00000090: 22a1 a0bc 26e4 d13d 82fa 1dbd fb35 aabe
000000a0: 60be 4a3b 0d56 d43c 0ece 4bbd 18f6 803c
000000b0: 4a83 36be 0765 20be 6c56 7b3c d9ae 603d
000000c0: 8d24 1c3d 195c fbbb 7da7 8f3c 3604 563c
000000d0: 5b38 8a3b 8831 f53c 5f68 f3bc e9dd fc3b
000000e0: 9415 d9bc 5526 e4bc 2291 c63c 28bf 0bbf
000000f0: b467 8c3e 18c2 03bf 170a 813c 5edc e9bd
00000100: dec4 d53c 5298 d63c 7949 9ebb c1a6 cd3c
00000110: f70f 29bf 2642 96bd f3df 633d 0f00 373d
00000120: c082 e1bb 164e e6bb 6eba 0b3c 52fa 3fbf
00000130: bebc 95be a4f2 0dba cf92 00bd 2264 003d
00000140: 92fe 873e 5555 3f3d 8173 77bc 3a0f 09bf
00000150: cb0a 92bc 3733 783c 9ce5 c7bc caf3 18bc
00000160: a29b 413d a664 3ebc f60c ed3a ef4f 673d
00000170: e210 9fbd acd1 d6bd 6a24 f13c bf2a fe3d
00000180: a262 033d 21ac c83c 30b0 05ba 9db1 16bb
00000190: 2250 87bc 2985 d13b 1e59 bcbc 7f9e 8bbb
000001a0: 42f3 453e ff5b 8a3c ef70 773c a84f 26bd
000001b0: 7660 77bd fdd0 883c 79a3 c73c a2c4 c0bb
000001c0: 0d5d 953d 6319 f9bc 30fe 88bd 326c 6c3d
000001d0: 7127 33bd 9294 18bd cd91 21be b7d9 7ebd
000001e0: cdda 3c3d 658a ac3d 8e39 f63a 6e6e 7a3b
000001f0: a06e a13d 5029 153d d32b fd3c 3122 01bc
00000200: 478e 10bb a60b 10bd 2fd8 583d c004 ad3d
00000210: 1661 10bf bfa0 d8bb 2671 e83c 4470 793e
00000220: 2e25 d73c 236f 42be 5bf5 313b e304 37bf
00000230: 3d20 b6bc fb70 3c3c 8b1d 883d b00b fc3c
00000240: cf9b b6bc 9210 a8be 3d2c d9bb 54ec 11bc
00000250: 4ce3 873d eb87 44bc d76f e9bb cb19 9bbc
00000260: dc58 fdbc d388 e23c bcaf e5bd c028 9cbc
00000270: 508f 40bd 603c 113d 85c8 b83d dc7e 07bc
00000280: 4cc1 66be 58bd d9bc 0727 e4bc 0567 12bd
00000290: 6aa5 90bd f793 bc3c b117 fc3c ce70 f53c
000002a0: 54bb e53c 21aa 673b 1291 cc3a b88b 073e
000002b0: 8aa4 a53d e7e9 14bf 4aa4 293d cd79 e6be
000002c0: 25a1 183c 9920 993d 80fd dbbc 1082 84bd
000002d0: 007e 45ba 872b 51bc 8ca1 64bb 3adb e63c
000002e0: e2a2 603d 487d 033c 20ab 8b3e 4e06 e83c
000002f0: dbd8 393c 4b9c 263d 577b d73c 9f35 263b
00000300: f0ac b13c c236 f6bb 8ef1 973c b911 76bb
00000310: 0fd8 c33b 5638 f33c 147d 4d3d 9c9d 7f3c
00000320: 291d 233c 6ead cdbc 9177 2abe 8859 9fbc
00000330: 4249 7dbd 3d18 3e3b a8bc 00bd 3d66 26bf
00000340: 3f38 76bd df0e 4d3d 167b 133d b25c 913e
00000350: e4d3 f4bb 50c9 8d3c 6a24 713d 37d5 fd3c
00000360: 6d42 cabc adfd f3bc c1ae a1bc 662d cdbc
00000370: ce5c a53b 3139 b6bc 5fa1 693e c02a 0f3d
00000380: b565 2dbc eb3f 81bd 9d50 34bc 3be0 f33c
00000390: 745b d03c c6c3 bcbc 93af 93bc 0a2e 74bc
000003a0: a2c5 abbc 35fa 1ebb 2e54 ec3c 9111 fcbb
000003b0: fbe8 acbc 8b04 d3bb 9655 183d 42e7 593d
000003c0: 559a 85bd a7c2 e3bb 96c8 7c3d 52e3 9cbc
000003d0: d2da 54bd 1872 e0bc b0f2 4abd e8dc ad3c
000003e0: 2b8a c4b8 a63b 503c d9b9 49bd 920a a2bd
000003f0: 6634 8d3c be83 283c 962b b2bc f396 053e
0.008210618 -0.012096445 -0.0066791745 0.05734285 -0.0020802289 -0.60965 0.045112077 -0.03234655
0.022279661 0.021761483 -0.9287008 0.026213681 -0.007927857 -0.005495646 0.00240725 -0.359531
0.03428689 -0.008283719 -0.03944536 0.052788086 -0.039602194 0.04031796 0.14016896 -0.103807606
-0.0027994646 -0.0042439476 0.09095078 -0.015346982 -0.013424024 0.021117914 0.02375113 0.03475343
-0.014890813 -0.6105281 -0.047907975 0.03538066 -0.019608084 0.10248594 -0.03856898 -0.3324431
0.0030936226 0.025919938 -0.049757056 0.015742347 -0.1782352 -0.15663539 0.015340429 0.054854248
0.038120795 -0.007670891 0.01753592 0.013062527 0.004218144 0.029930845 -0.029712854 0.0077168834
-0.026499547 -0.02785031 0.024239127 -0.54588556 0.2742287 -0.5146804 0.015751882 -0.11418985
0.02609485 0.026195679 -0.004830536 0.025103929 -0.66039985 -0.073368356 0.055633496 0.04467779
-0.0068820417 -0.0070283515 0.008528335 -0.74991333 -0.2924556 -0.00054148794 -0.031390008 0.031345494
0.2656141 0.04671224 -0.015103222 -0.5353886 -0.017827412 0.015148929 -0.024401478 -0.009335468
0.047267564 -0.011620676 0.0018085528 0.056472715 -0.07766892 -0.104892105 0.029436309 0.12410497
0.032076485 0.02449614 -0.00050998013 -0.002299405 -0.016517702 0.0063940478 -0.022991713 -0.0042608376
0.19331077 0.01688957 0.015102609 -0.04060331 -0.060394727 0.016701216 0.024369942 -0.0058828155
0.07293139 -0.030407613 -0.066891074 0.05772037 -0.043738786 -0.037251063 -0.15778275 -0.062219348
0.046107102 0.08424834 0.0018785463 0.0038212794 0.07882428 0.03641635 0.030904686 -0.007881687
-0.002205746 -0.03516736 0.052940544 0.084481716 -0.5639814 -0.0066109593 0.028374266 0.24359232
0.026262846 -0.18987708 0.00271543 -0.7149183 -0.02223217 0.011501546 0.0664626 0.030767292
-0.022291092 -0.32825142 -0.006627588 -0.008906443 0.0663515 -0.011995296 -0.007123928 -0.018933197
-0.03092616 0.027653133 -0.11215159 -0.0190624 -0.047011673 0.03545797 0.09022621 -0.008269992
-0.22534674 -0.026579544 -0.027850641 -0.03574278 -0.070628 0.023019774 0.030773016 0.029961016
0.028043427 0.0035349207 0.0015607199 0.13236892 0.08088024 -0.58169407 0.041416444 -0.45014802
0.009315764 0.07476921 -0.026854277 -0.0647012 -0.0007533729 -0.012766725 -0.0034886329 0.028180707
0.054842837 0.008025475 0.27278996 0.028323319 0.011343206 0.040676396 0.02630393 0.002536155
0.021688908 -0.007513852 0.0185478 -0.0037547185 0.005976684 0.029689949 0.050168112 0.015601542
0.009955683 -0.025107112 -0.16647173 -0.019451872 -0.061837442 0.0029006146 -0.031429917 -0.64999753
-0.060112234 0.05006301 0.036006056 0.28391033 -0.0074715484 0.017307907 0.058872618 0.030985458
-0.024689877 -0.029784048 -0.01973665 -0.025046062 0.0050464636 -0.022244068 0.22815464 0.03495288
-0.010583331 -0.063110195 -0.011005548 0.029770007 0.025434233 -0.02304257 -0.018028056 -0.014903555
-0.020968262 -0.0024258022 0.028848734 -0.0076925238 -0.021107187 -0.0064397505 0.037190996 0.05319906
-0.06523577 -0.0069506946 0.06171473 -0.019151364 -0.051966496 -0.027398154 -0.04954785 0.0212235
-9.371744e-05 0.012709534 -0.049249504 -0.079121724 0.0172369 0.010285316 -0.021749299 0.13045864

linear3.bias f4 [3]
00000000: da69 df3e 64fa e83e 13c5 ec3e
0.43635446 0.45503533 0.46244106
