checkpoint_game_400.pth (torch, 281408 bytes, 6 tensors)

linear1.weight f4 [256, 11]
0	0xbe540c29	-0.20707764
1	0x3e377a97	0.17917858
2	0xbdff4a64	-0.12465361
3	0x3e16ad35	0.1471451
4	0x3db32b12	0.087484494
5	0x3dedbb3b	0.11607977
6	0xbe457244	-0.1928187
7	0xbe286009	-0.16442885
8	0xbddf3d11	-0.10900319
9	0xbe16199c	-0.14658207
10	0xbe878f9d	-0.26476756
11	0x3e565378	0.20930278
12	0x3de08e77	0.10964673
13	0xbe26ffbb	-0.16308491
14	0xbdf8d900	-0.121507645
15	0x3d6a0c3f	0.057140585
16	0xbc82eeb9	-0.015982972
17	0xbe605c55	-0.21910222
18	0xbd774026	-0.06036391
19	0xbe291231	-0.16510846
20	0x3d1fd71f	0.039023515
21	0xbe5eb958	-0.2175039
22	0xbce7214d	-0.028214121
23	0xbe43189e	-0.1905236
24	0x3d88787a	0.06663604
25	0xbe94b50e	-0.29044384
26	0x3e1b7083	0.15179639
27	0xbe5f89c5	-0.21829899
28	0x3ee2575d	0.44207278
29	0xbe66b9a5	-0.22531755
30	0xbee1de45	-0.4411489
31	0xbf064609	-0.52450615
32	0x3e2a715c	0.16644806
33	0x3dee5bb1	0.116385825
34	0x3ed0c0b9	0.40772036
35	0x3ebaf7c6	0.3651716
36	0x3e1f2dff	0.1554489
37	0x3d42f01b	0.047592264
38	0xbec587a2	-0.38580042
39	0xbde987f6	-0.114028856
40	0x3e1fff2b	0.15624683
41	0x3e22164a	0.15828815
42	0xbe92f6bc	-0.28703868
43	0xbe6e8eb7	-0.23296629
44	0x3eb8eb03	0.361168
45	0xbcf69c12	-0.030103717
46	0xbdde57db	-0.10856601
47	0x3e1aa0ae	0.15100357
48	0x3e2cfd85	0.16893585
49	0xbea1f843	-0.3163472
50	0x3ecfefe8	0.4061272
51	0x3d8ae9c2	0.06782867
52	0xbea66cae	-0.3250479
53	0x3e0a3926	0.13498363
54	0xbe3e83de	-0.18604991
55	0x3cea87a3	0.02862913
56	0x3eb5b701	0.35491183
57	0xbe6a8f98	-0.22906339
58	0xbecfc97e	-0.40583414
59	0x3d467c14	0.048458174
60	0xbee073d9	-0.43838385
61	0x3da52968	0.08064538
62	0xbe1d1088	-0.15338337
63	0xbe399d59	-0.1812643
64	0x3c0de792	0.008661168
65	0xbec2412a	-0.3794034
66	0x3ef35410	0.47525072
67	0xbeaceb0c	-0.33773077
68	0xbdddab37	-0.10823672
69	0x3e4e27dd	0.20132394
70	0xbe109c2d	-0.14122076
71	0xbe7edef7	-0.24889742
72	0xbe698c9a	-0.22807541
73	0xbde32a41	-0.11092044
74	0x3e200cdc	0.15629905
75	0x3e95b8a3	0.2924243
76	0x3eb36584	0.35038388
77	0xbe8df296	-0.2772414
78	0x3d7860b8	0.060639113
79	0x3e623dd9	0.22093906
80	0xbc2d44d0	-0.010575488
81	0xbd8cb90a	-0.06871231
82	0x3e9f21f4	0.31080592
83	0x3eb52961	0.35383132
84	0xbe1af90e	-0.1513407
85	0xbebc44b5	-0.3677117
86	0x3e767efd	0.2407188
87	0x3e4ee23f	0.20203494
88	0x3eb3b811	0.3510137
89	0x3c435961	0.011923165
90	0xbdeb0a3e	-0.11476563
91	0x3e95477a	0.29156095
92	0x3e8c1d4c	0.27366102
93	0xbe9c14b9	-0.3048456
94	0xbe914ed3	-0.2838045
95	0xbf0e70dd	-0.55640966
96	0xbeca0611	-0.39457753
97	0x3e5d65aa	0.21620813
98	0x3e8e927a	0.27846128
99	0xbe3a9072	-0.18219164
100	0x3f03e9d1	0.5152865
101	0x3ef065c4	0.4695264
102	0x3d93b0f2	0.07211484
103	0xbe8a0803	-0.26959237
104	0xbe746e48	-0.23870194
105	0xbe0e051d	-0.13869138
106	0x3d91ae6b	0.07113346
107	0xbdfff26a	-0.12497409
108	0xbe57ab3e	-0.21061417
109	0xbd58526c	-0.05281298
110	0xbe033909	-0.12814726
111	0xbdb00e8a	-0.08596523
112	0xbeb6a9a8	-0.35676312
113	0xbe293b0a	-0.16526428
114	0x3ea41620	0.3204813
115	0x3de37bdc	0.11107609
116	0xbdb8cdf0	-0.090236545
117	0xbca38bf9	-0.019964205
118	0xbe81df6e	-0.25365776
119	0x3e926fe1	0.28600982
120	0xbda2086b	-0.07911762
121	0xbe87fa8d	-0.26558343
122	0x3edafc20	0.4277048
123	0xbe0d68e1	-0.1380954
124	0x3e08cc1e	0.13359115
125	0x3e1eea5b	0.15519087
126	0xbe45ab1c	-0.19303554
127	0xbee87b78	-0.454067
128	0x3e811442	0.25210768
129	0x3e5ee1a5	0.21765764
130	0xbe93024d	-0.28712693
131	0xbe7e991a	-0.24863091
132	0xbe29400e	-0.16528341
133	0x3e833302	0.25624853
134	0x3d842fb0	0.06454408
135	0xbe3517b4	-0.17684823
136	0xbed97ece	-0.42479557
137	0xbe373f0e	-0.17895147
138	0xbe0e9da8	-0.13927329
139	0xbdaae468	-0.08344346
140	0xbb97bd48	-0.0046307184
141	0xbe6dbee8	-0.23217356
142	0xbe582fc4	-0.21111971
143	0x3df1c5d3	0.1180531
144	0x3e814e66	0.25255126
145	0xbd73ee4d	-0.059553433
146	0x3d4d1eb8	0.050078124
147	0x3c4907a3	0.012269887
148	0xbe50c192	-0.20386341
149	0x3d1e81b4	0.038697913
150	0x3bb90c25	0.0056471997
151	0xbe031c9c	-0.12803882
152	0x3da6e425	0.08148984
153	0xbe534449	-0.20631517
154	0x3eb0decc	0.3454498
155	0x3df50770	0.11964309
156	0xbe6c27fc	-0.23062128
157	0x3e3b8e23	0.1831594
158	0xbe6aafc0	-0.22918606
159	0x3ed15737	0.40886852
160	0xbdc347ce	-0.0953518
161	0x3b80ed1c	0.0039345156
162	0xbe4ad08c	-0.19806117
163	0xbec97d65	-0.3935348
164	0x3da12287	0.07867914
165	0xbeabea1c	-0.3357705
166	0xbd3d9b28	-0.046290547
167	0x3d94c5fc	0.07264325
168	0xbea9ebfc	-0.33187854
169	0x3eb9f70c	0.36321294
170	0x3ea4408c	0.32080495
171	0x3e58ba64	0.21164852
172	0xbeeb421a	-0.4594887
173	0xbe6396b8	-0.22225463
174	0xbeac8e10	-0.33702135
175	0x3db4ff14	0.08837715
176	0x3c61ae42	0.013774456
177	0x3e33a03e	0.17541596
178	0xbdee5c20	-0.11638665
179	0x3df595e8	0.11991483
180	0x3e231912	0.15927532
181	0x3de52803	0.11189272
182	0xbe92f2d6	-0.28700894
183	0xbe862054	-0.2619654
184	0xbec5cc97	-0.38632652
185	0x3e362031	0.17785718
186	0xbe952933	-0.29132995
187	0x3d715125	0.058915276
188	0xbebe5427	-0.37173578
189	0xbe86aebc	-0.26305187
190	0xb9d4dc1f	-0.00040599794
191	0x3e0a2089	0.13488974
192	0xbe58f36c	-0.21186608
193	0x3e23faca	0.16013637
194	0x3c60fb52	0.013731794
195	0xbe922a06	-0.28547686
196	0x3e6b5a50	0.2298367
197	0x3e2f602a	0.17126527
198	0x3e87aaf6	0.2649762
199	0xbe0aef66	-0.13567886
200	0x3e8d14fa	0.27555066
201	0xbe5b9c85	-0.21446426
202	0x3eb74788	0.35796762
203	0xbee4c251	-0.44679502
204	0xbedd89e7	-0.43269274
205	0x3e8ad918	0.27118754
206	0xbe0bc713	-0.1365016
207	0xbea2248d	-0.3166851
208	0xbe009b14	-0.12559158
209	0xbed610eb	-0.41809782
210	0xbeaddf4c	-0.33959424
211	0xbd2ad92c	-0.041711017
212	0x3d0675f2	0.032827325
213	0x3c4e765c	0.012601461
214	0x3e1aee48	0.1512996
215	0xbe23dd42	-0.16002372
216	0xbddaf31c	-0.10690901
217	0xbdff7847	-0.12474113
218	0x3c7dbd8e	0.015487088
219	0x3e44a240	0.19202518
220	0xbcfdc2db	-0.030976703
221	0x3e9724f0	0.2952037
222	0xbd647323	-0.055773865
223	0x3dc46912	0.09590353
224	0xbeddc9fd	-0.43318167
225	0xbe32072b	-0.17385547
226	0xbd886a79	-0.06660933
227	0xbe9fbb86	-0.31197757
228	0xbe9156ea	-0.28386623
229	0xbd7e0b20	-0.06202233
230	0x3e508f33	0.20367126
231	0xb999ad01	-0.00029311332
232	0x3f01d713	0.507188
233	0xbe503d9c	-0.20336002
234	0x3e952707	0.29131338
235	0xbeaf6e45	-0.34263816
236	0xbe2b5fc1	-0.16735746
237	0x3e7e986e	0.24862835
238	0xbdc94dac	-0.09829268
239	0x3e253022	0.16131642
240	0xbe89d970	-0.26923704
241	0x3e18d17c	0.14923662
242	0x3edafd31	0.42771295
243	0xbe7913db	-0.2432398
244	0x3ea41f91	0.32055333
245	0xbed853b5	-0.42251363
246	0xbd1094b6	-0.03529807
247	0xbe60a188	-0.2193662
248	0x3e2664d1	0.16249396
249	0x3e5cab28	0.21549666
250	0xbc168f5d	-0.009189454
251	0xbe199051	-0.14996459
252	0xbe9a2f0c	-0.3011402
253	0x3ea7daae	0.32784027
254	0x3ee27a20	0.442338
255	0x3ed89655	0.42302194

linear1.bias f4 [256]
0	0xbe9d2207	-0.30690023
1	0xbe903d7b	-0.28171906
2	0xbd018d70	-0.031629026
3	0xbcca7d86	-0.024718057
4	0xbea381de	-0.31935018
5	0x3bf3dfbf	0.007442444
6	0xbdbbacc6	-0.09163813
7	0xbe7af54e	-0.24507639
8	0xbceb5889	-0.02872874
9	0x3de3c700	0.111219406
10	0xbe8b0f21	-0.2715998
11	0xbc34bf00	-0.011031866
12	0xbdfd370e	-0.123640165
13	0xbef4de96	-0.4782607
14	0x3e074c0d	0.13212605
15	0x3e2d6275	0.1693209
16	0x3c8a5cee	0.016890015
17	0xbd8a03c7	-0.06739002
18	0xbec3d538	-0.3824861
19	0xbdcce86c	-0.100052685
20	0x3deafb44	0.11473706
21	0xbd355361	-0.04426897
22	0xbc2c24c5	-0.010506813
23	0xbe0786b2	-0.13234976
24	0x3d641396	0.05568274
25	0x3dae41c2	0.08508636
26	0x3ce3917b	0.027779331
27	0xbc1eec4d	-0.009699893
28	0xbe9f0994	-0.31061995
29	0x3e36a258	0.17835367
30	0xbd6e3d0f	-0.0581637
31	0x3cc6e114	0.024277247
32	0x3def56e9	0.11686499
33	0x3ebeef90	0.37292147
34	0xbd334439	-0.043766234
35	0xbdd788cb	-0.10524138
36	0x3c162b2a	0.009165565
37	0x3e64ab2f	0.22330926
38	0xbe9db2d4	-0.30800498
39	0xbe104cb5	-0.14091761
40	0xbe06fd13	-0.13182478
41	0x3d01f507	0.031727817
42	0x3e4624f9	0.19350041
43	0xbe384b74	-0.17997533
44	0xbe5046c6	-0.20339498
45	0x3ab537be	0.0013825817
46	0xbd88d0ed	-0.066804744
47	0xbe7837dd	-0.2424006
48	0xbca9c419	-0.02072339
49	0xbe063e04	-0.13109595
50	0xbd754637	-0.059881415
51	0xbe7fd329	-0.24982895
52	0xbccd4f58	-0.025062248
53	0x3da94bc6	0.08266406
54	0x3ea1ba8e	0.31587642
55	0x3f1575d2	0.58382905
56	0xbdf331cf	-0.118747346
57	0xbdae687a	-0.08516021
58	0x3f14372c	0.57896686
59	0x3dbb9889	0.09159953
60	0x3bf5c493	0.00750024
61	0xbdf18a3a	-0.11793943
62	0xbe361271	-0.17780472
63	0x3d2f8d98	0.042859644
64	0xbe15a9a5	-0.14615496
65	0xbe658c19	-0.22416724
66	0xbe94945b	-0.29019436
67	0xbc318e49	-0.010837146
68	0xbdefccd5	-0.117089905
69	0xbe5a78a9	-0.2133509
70	0x3e93913a	0.28821737
71	0x3eb99e5a	0.36253625
72	0x3f15d592	0.5852901
73	0xbe6f6a33	-0.23380356
74	0xbe209d01	-0.15684892
75	0x3c8539d7	0.016262932
76	0xbe4e2f12	-0.20135143
77	0x3d702d1e	0.058636777
78	0xbe68add9	-0.22722568
79	0xbe8627d6	-0.26202267
80	0x3e7cf5db	0.24703161
81	0x3e9b85ff	0.30375668
82	0xbdbfb339	-0.09360356
83	0x3cf8d332	0.030374143
84	0x3e8d13df	0.27554223
85	0xbe3c303e	-0.18377778
86	0x3ea6959a	0.32536012
87	0xbe9326bf	-0.28740498
88	0x3ef43575	0.47697034
89	0xbe49effa	-0.1972045
90	0xbd100999	-0.035165403
91	0x3e0d4a16	0.13797793
92	0x3e19c3b2	0.15016058
93	0x3bc518a1	0.006014899
94	0xbe128708	-0.14309323
95	0xbec51eef	-0.38500163
96	0xbea46947	-0.3211157
97	0xbe27413d	-0.1633348
98	0xbe26dc95	-0.16295083
99	0xbe8b450e	-0.27201122
100	0xbe3b4d80	-0.18291283
101	0x3e189966	0.14902267
102	0x3e80fa76	0.25191087
103	0xbe82765f	-0.25480935
104	0x3e76ff4b	0.24120824
105	0x3eaa3dcb	0.3325027
106	0x3d41d357	0.04732069
107	0xbe17391c	-0.14767879
108	0x3db125a7	0.0864976
109	0xbeb51f2c	-0.35375345
110	0xbe24222f	-0.16028665
111	0xbd8b6559	-0.0680644
112	0xbdb9d799	-0.09074325
113	0xbbb68bdf	-0.005570873
114	0x3c819370	0.015817374
115	0x3e1d27e7	0.15347253
116	0xbd91dd3d	-0.07122276
117	0x3f25d8d5	0.64783984
118	0x3d84e296	0.0648853
119	0xbe596818	-0.21231115
120	0x3eb9ecf2	0.36313587
121	0x3e3aac71	0.18229844
122	0xbe39b30c	-0.18134707
123	0xbdb603df	-0.08887457
124	0xbbef8a3b	-0.0073101795
125	0xbe8e3579	-0.2777517
126	0xbd6ea27d	-0.05826043
127	0xbdd5fa18	-0.10448092
128	0x3f0b3edd	0.54392797
129	0xbe34fef6	-0.17675385
130	0xbd799757	-0.060935345
131	0xbd900359	-0.070318885
132	0xbe1c73e1	-0.1527858
133	0x3e02566a	0.12728277
134	0xbe89e957	-0.26935837
135	0xbda95e61	-0.082699545
136	0xbd3a3078	-0.04545638
137	0x3e6182cf	0.22022556
138	0x3e4be78f	0.19912551
139	0x3f092d8a	0.5358511
140	0x3e0a4311	0.13502146
141	0x3da9b80a	0.08287056
142	0x3e40eec8	0.18841088
143	0xbebeb2a9	-0.37245682
144	0x3d9e9baf	0.07744538
145	0xbdffd4a4	-0.1249173
146	0x3f645e0c	0.89206004
147	0xbdba0fb9	-0.0908503
148	0xbe19b5d0	-0.15010762
149	0x3e2f83a4	0.1714006
150	0x3be7c59b	0.007073117
151	0x3e27bef9	0.16381444
152	0x3d2a5095	0.041580755
153	0xbe57886c	-0.21048135
154	0x3df47c4d	0.11937771
155	0xbd931d80	-0.07183361
156	0xbe36f2a1	-0.17865993
157	0xbd5a0d28	-0.053235203
158	0x3d49971a	0.049216367
159	0x3d60f1f4	0.054918244
160	0x3cd8a37f	0.026445149
161	0x3e6a00c2	0.22851852
162	0xbe6de6fa	-0.23232642
163	0xbe9c6db4	-0.30552447
164	0x3d61e77b	0.055152398
165	0x3ef751bd	0.4830455
166	0xbe94daad	-0.29073086
167	0xbe1102e9	-0.14161266
168	0xbe73f868	-0.23825228
169	0xbdefea6f	-0.117146365
170	0xbd8a3431	-0.06748236
171	0x3ebe7432	0.37198025
172	0x3e34e337	0.176648
173	0x3c317f35	0.010833551
174	0xbd228733	-0.039679717
175	0x3edfc240	0.43702888
176	0x3e099bc7	0.1343833
177	0xbe4d81f5	-0.20069106
178	0xbdcddb0a	-0.10051544
179	0xbe88e29a	-0.26735383
180	0x3d7e48f2	0.062081285
181	0x3f068c8d	0.52558213
182	0x3dff5b74	0.12468615
183	0x3cc4106a	0.023933608
184	0xbebe53ca	-0.371733
185	0x3e7ab044	0.24481302
186	0x3bb2404c	0.0054397937
187	0x3d8ee395	0.069770016
188	0x3e6a823a	0.2290124
189	0xbe58b80f	-0.21163963
190	0xbb869dfc	-0.0041081887
191	0x3b5e029b	0.0033876065
192	0xbe7b7688	-0.24556935
193	0xbd936dff	-0.071987145
194	0x3e293eca	0.16527858
195	0x3e3e35a5	0.18575151
196	0xbe70938f	-0.23493789
197	0xbef9b49e	-0.48770612
198	0x3e8ac599	0.2710388
199	0x3d9bebd0	0.07613337
200	0xbe38d10d	-0.18048497
201	0xbe5ac80e	-0.21365377
202	0xbe99e01a	-0.30053788
203	0xbd74e341	-0.05978704
204	0x3d7b79a1	0.06139529
205	0xbe9ac855	-0.30230966
206	0x3d228deb	0.039686125
207	0xbd48beaa	-0.049009956
208	0xbe796bd9	-0.24357547
209	0x3e77bf31	0.24194027
210	0x3f44f49b	0.7693574
211	0x3ea572dc	0.32314193
212	0xbe903876	-0.28168076
213	0x3e9e4e69	0.30919197
214	0x3a543f34	0.0008096576
215	0xbe98c8cd	-0.298407
216	0xbd505ac2	-0.050867803
217	0xbe8c4108	-0.27393365
218	0xbef43f9b	-0.47704777
219	0xbe066466	-0.13124236
220	0x3d780b06	0.060557388
221	0x3e44fbf8	0.19236743
222	0xbe8eb0ae	-0.2786917
223	0x3e3aa924	0.18228585
224	0xbe3c5ae2	-0.18394044
225	0x3ee73e4a	0.4516471
226	0xbe8cb1b7	-0.27479336
227	0xbe1cbc80	-0.15306282
228	0xbd24c8e0	-0.04023063
229	0xbe4b870e	-0.19875738
230	0xbe216f0a	-0.15765014
231	0xbe666bf0	-0.22502112
232	0x3e8d7d23	0.27634534
233	0xbe9924c0	-0.2991085
234	0xbd3a14ce	-0.045429997
235	0xbe2f90f9	-0.17145146
236	0xbc8d947b	-0.017282715
237	0x3d9f7505	0.077859916
238	0x3e07acd8	0.13249528
239	0x3ee27301	0.44228366
240	0xbda5d8ad	-0.08097968
241	0xbe48321f	-0.1955037
242	0x3d7c1d41	0.061551336
243	0xbe0b6324	-0.13612038
244	0xbe26f710	-0.16305184
245	0x3ea2419a	0.31690675
246	0xbda4ddb3	-0.08050098
247	0xbe5623a4	-0.20912033
248	0xbc32874d	-0.010896516
249	0x3ed2951f	0.41129395
250	0x3f5e685a	0.8687798
251	0x3ee5468b	0.44780383
252	0xbe757bca	-0.23973003
253	0xbe96370b	-0.2933887
254	0x3ce601fa	0.028077114
255	0xbe89c12c	-0.2690519

linear2.weight f4 [256, 256]
0	0x39c01a00	0.00036640465
1	0xbb79e740	-0.003813222
2	0x3d79e270	0.061006963
3	0x3d0a5247	0.033769872
4	0x3a99784d	0.0011708826
5	0xbc922bf3	-0.017843222
6	0x3cf33770	0.02968952
7	0x3d019d3d	0.031644095
8	0xbbed5586	-0.007242861
9	0x3cf292c8	0.029611006
10	0xbcedb5f1	-0.02901742
11	0x3d2ad0be	0.04170298
12	0x3ca9ced7	0.020728512
13	0xbc1f2e56	-0.009715637
14	0xbcb0b730	-0.021571726
15	0xbb842151	-0.004032292
16	0xbcfdcf11	-0.030982526
17	0x3c8ffa72	0.017575476
18	0x3cb35373	0.021890378
19	0x3c8f22e4	0.017472692
20	0xbd244174	-0.040101483
21	0xbcf58b5e	-0.029973682
22	0x3d298aac	0.041392013
23	0xbc597e65	-0.013274764
24	0xbd082f18	-0.033248037
25	0xbcc9c787	-0.024631275
26	0xbc943004	-0.018089302
27	0x3d369ed2	0.044585057
28	0xbc5be040	-0.013420165
29	0xbd80e2fa	-0.06293292
30	0x3cde45c7	0.027132882
31	0x3a71b8ef	0.00092209777
32	0xbd1ac641	-0.037786726
33	0xbd83af87	-0.064299636
34	0xbc1b3ccb	-0.009474943
35	0xbd89bd93	-0.067256115
36	0xbd3d441e	-0.04620754
37	0xba4d587f	-0.00078333163
38	0x3d5f99e8	0.054590136
39	0x3bac548c	0.005259102
40	0x3cda9d6b	0.02668639
41	0xbc4a4b49	-0.012347051
42	0x3c8e6c80	0.017385721
43	0x3bf00930	0.007325314
44	0xbc52ded1	-0.012870506
45	0xbd12f422	-0.035877354
46	0xbca9f68b	-0.020747444
47	0x3d762ae2	0.06009949
48	0xbd8a0e64	-0.06741026
49	0xbc3130e0	-0.010814875
50	0xbd411692	-0.047140665
51	0x3c87e77d	0.016589874
52	0xbd4cc1c2	-0.04998947
53	0x3cf8d0ab	0.030372938
54	0xbc961581	-0.0183208
55	0xbc9d6af8	-0.019216046
56	0xbd4b6f3a	-0.04966662
57	0xbcc28bda	-0.023748327
58	0xbd7fac72	-0.062420316
59	0x3b93d1ce	0.0045110947
60	0x3cf65864	0.030071445
61	0xbc305a42	-0.010763707
62	0xbc3b8890	-0.011446133
63	0xbcff794b	-0.031185767
64	0xbd176bb6	-0.036967956
65	0x3d38fbfc	0.045162186
66	0x3c87e2a0	0.016587555
67	0x3d0865ea	0.033300318
68	0xbd119afb	-0.03554819
69	0x3c915c3a	0.017744172
70	0x3c1f1c2c	0.009711307
71	0xbcd35def	-0.025801627
72	0xbced46c3	-0.028964406
73	0x3ba9f400	0.005186558
74	0xbd23cafc	-0.039988503
75	0xbd22ec7d	-0.039776314
76	0x3c6f7e4c	0.014617514
77	0x3d56b76b	0.052421015
78	0x3d5246d0	0.051337063
79	0x3c86bff4	0.016448952
80	0xbd8fb82a	-0.070175484
81	0x3c66a6d8	0.014077865
82	0x3bd4b1a9	0.0064909053
83	0xbd358806	-0.044319175
84	0x3b5b6682	0.0033477847
85	0xbcdce3c5	-0.026964078
86	0xbcea56fa	-0.028605927
87	0xbd758013	-0.059936594
88	0x3c8f637c	0.017503493
89	0x3d19c4c9	0.037541185
90	0x3c7b1a39	0.015326076
91	0x3c61961a	0.013768697
92	0x3b0af70f	0.0021204387
93	0xbc0822ee	-0.008309109
94	0x3ce13206	0.027489673
95	0xbd1ff279	-0.0390496
96	0x3cf7a387	0.030229343
97	0x3bcb0101	0.006195188
98	0xbb5984f1	-0.0033190812
99	0xbd688e33	-0.056776237
100	0x3d1dbfb7	0.03851291
101	0xbd6c40fb	-0.057679158
102	0xbd763750	-0.060111344
103	0xb9ef7500	-0.00045672804
104	0xbd04a48e	-0.032383494
105	0xbcc06d53	-0.02348963
106	0x3cf350cb	0.029701611
107	0xbbeed220	-0.0072882324
108	0xbd25908c	-0.040421054
109	0xbd66bf01	-0.0563345
110	0xbc8ab252	-0.016930733
111	0xbd0fd804	-0.035118118
112	0xbb279f87	-0.0025577263
113	0x3c686b5d	0.014185754
114	0xbd92ceb5	-0.071683325
115	0x3cca034e	0.024659779
116	0x3d3fb782	0.046805866
117	0xbdac6014	-0.08416763
118	0x3d284490	0.04108101
119	0xbce3e437	-0.027818782
120	0xbd178159	-0.03698859
121	0x3c9dd652	0.019267235
122	0xbced3c54	-0.02895943
123	0x3c08c7ed	0.008348447
124	0x3bc0597b	0.005870042
125	0xbd127384	-0.035754696
126	0xbc3c6539	-0.011498743
127	0xbd25ac84	-0.040447727
128	0xbd7c4712	-0.061591215
129	0xbd57f6c1	-0.052725557
130	0xbaf185c0	-0.0018426701
131	0xbd78879e	-0.06067621
132	0x3d21d81f	0.03951275
133	0x3d1633da	0.036670543
134	0xbcf88ca8	-0.030340508
135	0xb847c333	-4.762709e-05
136	0x3cc31594	0.023814
137	0x3d4b92e7	0.049700644
138	0x3cc65512	0.024210487
139	0x3ca7fec9	0.020507233
140	0xbd148e21	-0.036268357
141	0xbc6c0182	-0.014404656
142	0x3cbdcc10	0.023168594
143	0xbc3f6ec0	-0.01168412
144	0x3c0e0b71	0.00866972
145	0xbd742597	-0.05960616
146	0x3cedfc05	0.029050836
147	0xbd7ff4e9	-0.062489424
148	0xbd4d63bf	-0.050143953
149	0x3b071c88	0.0020616371
150	0x3cd1e6c0	0.025622725
151	0x3d100438	0.035160273
152	0x3d3797bc	0.04482244
153	0x3d148b4e	0.036265664
154	0xbccab77e	-0.024745699
155	0xbd00b1c1	-0.03141952
156	0xbd1d853e	-0.038457148
157	0xbc261980	-0.010137916
158	0x3c9fd7c3	0.019512063
159	0xbd189644	-0.03725268
160	0xbd748b32	-0.05970306
161	0xbbc82069	-0.006107379
162	0xbca058c2	-0.019573573
163	0xbc802c1c	-0.015646033
164	0x3d1369b6	0.035989486
165	0xbc627732	-0.013822364
166	0xbc843f60	-0.0161435
167	0xbc2e845f	-0.010651677
168	0xbc3f6ad1	-0.011683182
169	0xbd22aadd	-0.03971373
170	0xbaceedf2	-0.0015787466
171	0xbca51506	-0.020151626
172	0x3ba73b09	0.005103473
173	0x3d4149ee	0.047189645
174	0x3d2ff5ea	0.04295913
175	0x3d51c374	0.05121179
176	0x3d1af327	0.037829544
177	0x3b1f3685	0.002429397
178	0x3c8a5773	0.016887402
179	0x3ba4b0d0	0.0050259605
180	0xbbde40c2	-0.006782622
181	0x3c677e8f	0.014129295
182	0xbd51a346	-0.0511811
183	0x3d284677	0.041082826
184	0xbc36222b	-0.011116545
185	0x3c3df740	0.0115945935
186	0x3d5ef93e	0.054436915
187	0xbc5ed7eb	-0.013601284
188	0xbb994a58	-0.004678052
189	0x3aeb0ac0	0.0017932281
190	0xbcc63494	-0.024194993
191	0xbd729226	-0.05922141
192	0xbd19db6e	-0.03756278
193	0xbd536cc8	-0.051617414
194	0xbcbd44bd	-0.023104066
195	0x3d059174	0.032609418
196	0xbd4ece76	-0.050489865
197	0x3d539e2a	0.05166451
198	0xbd89cb8b	-0.06728276
199	0x3cd755c9	0.026286023
200	0x3d24e1d0	0.040254414
201	0xbdac3afb	-0.08409687
202	0x3d2f9c22	0.04287351
203	0x3d7024ca	0.058628835
204	0x3af21e6d	0.0018472202
205	0xbd179652	-0.03700859
206	0x3cb3f963	0.021969503
207	0xbd3f5aac	-0.04671733
208	0xbd23f722	-0.040030606
209	0x3c58ea5b	0.013239468
210	0xbd572f83	-0.052535545
211	0x3c053eb7	0.008132628
212	0xbd2a7ce2	-0.041623004
213	0xbc96e5df	-0.018420158
214	0xbd3951fa	-0.045244195
215	0x3c1f88e0	0.009737223
216	0x3d05ace0	0.03263557
217	0x3cdce904	0.02696658
218	0xbccd7995	-0.025082389
219	0xbc9bd6f5	-0.019023398
220	0xbd1d616f	-0.038422998
221	0x3c0959bd	0.008383212
222	0x3d090468	0.033451468
223	0xbd4d8b1f	-0.050181504
224	0xbc9ff7b1	-0.019527288
225	0x3c15ea08	0.009150036
226	0xbd3949f6	-0.04523655
227	0xbd80264b	-0.06257304
228	0xbd4c4276	-0.04986807
229	0x3cb81258	0.022469684
230	0xbd0821b9	-0.033235285
231	0xbd19f16e	-0.03758376
232	0xbac605dd	-0.0015107949
233	0x3c3671bd	0.011135516
234	0xbc746168	-0.014915802
235	0xbccb2a8c	-0.024800561
236	0x3d55d583	0.052205574
237	0xb975fc00	-0.00023458898
238	0xbb24a3fb	-0.0025122154
239	0x3c21e4ec	0.009881239
240	0xb9ec9fcc	-0.00045132486
241	0xbce0c86f	-0.027439324
242	0xbbb7ba1f	-0.005606904
243	0xbd379b68	-0.04482594
244	0x3ab6f300	0.0013957918
245	0x3d3e2fe2	0.046432383
246	0xbc3cce7e	-0.011523841
247	0x3d35d6c5	0.044394273
248	0x3b0cfb7c	0.00215122
249	0xbd7cb260	-0.06169355
250	0xbcefd2ff	-0.029275415
251	0x3cf50287	0.029908432
252	0xbcf4acd0	-0.02986756
253	0xbd4e309e	-0.050339334
254	0x3d19cd46	0.03754928
255	0xbc320498	-0.010865353

linear2.bias f4 [256]
0	0x3d31ec75	0.043438394
1	0xbc0307f2	-0.0079975
2	0xbd87996b	-0.06621059
3	0xbd7b2f56	-0.06132444
4	0xbd0bec71	-0.034161035
5	0x3d185407	0.03718951
6	0x3cb6b345	0.02230228
7	0xbd4ba263	-0.04971541
8	0xbcfaee12	-0.030631099
9	0xbd148f40	-0.036269426
10	0x3dbf414f	0.093386285
11	0xbd376b29	-0.04477993
12	0xbd370935	-0.044686515
13	0xbcd2de9c	-0.025740914
14	0xbd041ddb	-0.032255035
15	0x3c52276a	0.01282678
16	0xbdd88405	-0.10572056
17	0xbd8e2cbc	-0.06942126
18	0x3b1daf80	0.0024060905
19	0x3b79bb35	0.003810597
20	0xbe0a88b0	-0.13528705
21	0xbd72d5c5	-0.059285898
22	0x3dd7618b	0.10516652
23	0xbe11fdf4	-0.14257032
24	0xbb9cf1c5	-0.0047895634
25	0xbd021810	-0.03176123
26	0x3d9fbede	0.07800077
27	0xbd2f00a6	-0.042725228
28	0xbcd2ddaa	-0.025740463
29	0xbdca1a70	-0.09868324
30	0xbdcbbe25	-0.099483766
31	0x3f078bd0	0.5294771
32	0xbdf96b05	-0.121786155
33	0x3cc04fcb	0.023475548
34	0xbc287e5f	-0.0102840355
35	0xbbbc5fb5	-0.005748714
36	0xbdfd0239	-0.123539396
37	0x3d75b807	0.059989955
38	0x3d18a415	0.037265856
39	0x3dbde708	0.09272581
40	0xbd942669	-0.07233889
41	0xbd050df1	-0.032484
42	0xbdb2799c	-0.087146014
43	0xbd9c82f3	-0.07642164
44	0x3cc6738a	0.024225015
45	0x3a0a2c42	0.0005270877
46	0xbc9c1dbd	-0.019057149
47	0x3da074d3	0.078347825
48	0x3d1f7e46	0.038938783
49	0xbd96a50d	-0.073557
50	0x3cfffe60	0.031249225
51	0xbd78f5f3	-0.06078143
52	0xbd2a22c8	-0.041537076
53	0xbd9df4ce	-0.077127084
54	0xbdc1b812	-0.09458937
55	0xbd2d4bd8	-0.04230866
56	0xbd72aff0	-0.05924982
57	0xbd382edd	-0.044966567
58	0xbd3319b4	-0.043725684
59	0x3cf07da3	0.029356783
60	0x3f9353e8	1.1509981
61	0x3d911cdb	0.07085582
62	0xbd0ce5da	-0.03439889
63	0xbcc4a640	-0.024005055
64	0xbdc1e43a	-0.09467359
65	0x3e6b15af	0.2295749
66	0x3c8f92cd	0.017526055
67	0x3cafd3d8	0.02146332
68	0xbcb8a43e	-0.022539254
69	0xbe4276c4	-0.18990618
70	0xbd06e427	-0.032932427
71	0xbd4e0241	-0.05029512
72	0xbe1bc672	-0.1521242
73	0xbceff771	-0.029292794
74	0x3d3a3572	0.045461126
75	0x3c0a727c	0.008450147
76	0x3c985db2	0.018599365
77	0xbd6d0048	-0.057861596
78	0xbc8ebfb7	-0.017425401
79	0xbd95167e	-0.07279681
80	0x3f86abc6	1.0521171
81	0x3e05f5e1	0.13082077
82	0x3c9ccd78	0.019140944
83	0xbc924597	-0.017855449
84	0xbd812343	-0.06305554
85	0xbd0dd460	-0.034626365
86	0xbd4d5d53	-0.05013783
87	0xbc446a0a	-0.011988172
88	0xbd95479b	-0.07289048
89	0x3c832ecd	0.016013527
90	0xbd422a27	-0.04740348
91	0x3e1aea0f	0.15128349
92	0xbe0b739e	-0.13618323
93	0xbd7f2772	-0.062293477
94	0xbde51ebf	-0.11187505
95	0xbda6fe31	-0.08153952
96	0xbd130c7f	-0.03590059
97	0x3de79f8b	0.11309727
98	0xbd6b3f78	-0.057433575
99	0xbb911cbe	-0.004428475
100	0xbd1d9f8c	-0.038482234
101	0xbbfd1aa0	-0.007724121
102	0xbd0e8803	-0.03479768
103	0xbd81d230	-0.06338918
104	0x3f558479	0.8340526
105	0x3843365e	4.6542256e-05
106	0xbd551e99	-0.052031133
107	0xbd8903c7	-0.066901736
108	0x3c7ec053	0.015548783
109	0xbe06c249	-0.13160051
110	0xbd64d9ec	-0.05587189
111	0xbcfa0d26	-0.030523848
112	0x3d37da5c	0.044885978
113	0xbce525f5	-0.0279722
114	0xbe0fd95f	-0.14047764
115	0xbd6e53b8	-0.05818531
116	0xbbba506e	-0.0056858575
117	0xbd9f2d77	-0.077723436
118	0xbcf056e6	-0.029338311
119	0xbe38af9a	-0.18035737
120	0xbd2209bc	-0.039560065
121	0xbc14ed2f	-0.009089752
122	0xbdb5b986	-0.088732764
123	0xbe3b354f	-0.18282054
124	0x3d80de78	0.062924325
125	0xbdc4ddf3	-0.09612646
126	0x3e48010f	0.19531654
127	0x3c2665ce	0.010156108
128	0xbd7b8d02	-0.061413772
129	0x3c1e92fd	0.009678599
130	0xbd475d74	-0.04867311
131	0xbdc971fc	-0.09836194
132	0xbd85e21f	-0.0653727
133	0xbd277d10	-0.040890753
134	0x3da2cb97	0.07948988
135	0x3f83a8a3	1.0285839
136	0xbdc4a910	-0.096025586
137	0xbdacd119	-0.0843832
138	0xbb942f0c	-0.00452221
139	0x3dec1b7b	0.11528679
140	0xbda54038	-0.080688894
141	0xbd83e9b9	-0.064410634
142	0xbd52796f	-0.05138534
143	0xbce2ca65	-0.0276844
144	0xbdb7cf1b	-0.08975049
145	0x3d2d86fd	0.042365063
146	0xbda3f5ec	-0.0800589
147	0x3c9ae97a	0.018910158
148	0x3d126cab	0.035748165
149	0xbd706dc2	-0.058698423
150	0x3c0e4c4e	0.008685185
151	0xbd870f0b	-0.06594666
152	0xbd8d4017	-0.0689699
153	0xbd9f655a	-0.07783003
154	0xbdaf1074	-0.0854806
155	0xbd18c87d	-0.037300576
156	0xbd98736e	-0.074438915
157	0xbd49ae7b	-0.049238663
158	0x3f2dac6c	0.6784122
159	0xbcd38082	-0.025818113
160	0xbd6e2cdb	-0.058148246
161	0xbd4d839c	-0.05017434
162	0xbd346693	-0.044043135
163	0xbd90acfa	-0.07064243
164	0x3d558693	0.052130293
165	0x3cd2f3fa	0.025751103
166	0xbd5cc74c	-0.053901
167	0x3dd28f91	0.10281289
168	0xbde64f3f	-0.11245584
169	0x3d9f75e1	0.077861555
170	0xbbf03c2c	-0.007331392
171	0x3e0d0882	0.13772777
172	0x3f158e96	0.58420694
173	0xbc7de95f	-0.015497535
174	0xbd09a77f	-0.033607002
175	0x3df39fad	0.1189569
176	0xbdaf1148	-0.08548218
177	0x3e1b8d76	0.15190682
178	0xbd9b5b0d	-0.07585726
179	0x3bbb4730	0.0057152733
180	0xbd4670cd	-0.04844742
181	0xbcde1749	-0.027110713
182	0xbc9aaac4	-0.018880256
183	0xbe2d1ec0	-0.16906261
184	0xbd94aa88	-0.07259089
185	0xbd50eb96	-0.051005922
186	0x3f8f224f	1.1182345
187	0xbd7210d9	-0.0590981
188	0xbdb05054	-0.086090714
189	0xbc906c20	-0.017629683
190	0x3ea1b092	0.31580025
191	0x3c64a7d3	0.013956028
192	0xbcbe7c99	-0.023252772
193	0x3dd02608	0.10163504
194	0xbba4020a	-0.005005126
195	0xbc66a384	-0.014077071
196	0xbd4d981d	-0.050193895
197	0xbd50d680	-0.050985813
198	0xbd8978f7	-0.06712525
199	0xbd7b2028	-0.061309963
200	0xbd879a9f	-0.066212885
201	0xbdd16c14	-0.102256924
202	0x3d076029	0.03305069
203	0xbbd105c5	-0.0063788616
204	0xbdb44523	-0.08802249
205	0xbda548fa	-0.0807056
206	0x3ba37b20	0.004989043
207	0x3bebac01	0.0071921353
208	0xbc5c7d27	-0.013457573
209	0x3caeda58	0.021344349
210	0xbd6f5f18	-0.058440298
211	0x3fa1a27f	1.2627715
212	0xbd8f30d4	-0.06991735
213	0x3d18e4e3	0.03732766
214	0x3cafa52e	0.021441069
215	0xbd91f16c	-0.07126126
216	0x3f232a18	0.63736105
217	0xbd479e0c	-0.04873471
218	0xbd26ab20	-0.04069054
219	0xbccbb3b3	-0.02486596
220	0x3b662627	0.0035117955
221	0xbc755417	-0.014973662
222	0x3f6c934d	0.92412263
223	0xbd449250	-0.047991097
224	0x3cca8afb	0.024724474
225	0xbdd05f0f	-0.10174381
226	0xbd846e72	-0.06466378
227	0x3d208e6d	0.039198328
228	0xbe04dd36	-0.1297501
229	0xbdf414b1	-0.11918009
230	0xbd4ba991	-0.049722258
231	0x3dbe9387	0.09305482
232	0xbd5e065c	-0.054205284
233	0xba5052f0	-0.0007946929
234	0xbcc05a3c	-0.023480527
235	0xbcbb3cdd	-0.02285617
236	0xbc1f7d28	-0.009734429
237	0xbc15227a	-0.009102458
238	0xbd8ba023	-0.06817653
239	0x3e0f8aaf	0.14017747
240	0xbdfee348	-0.12445694
241	0xbd98337d	-0.074316956
242	0x3d02266b	0.03177492
243	0xbdb4bc63	-0.088249944
244	0xbda854f7	-0.08219331
245	0x3cb1f42d	0.021722877
246	0x3ce7bb45	0.02828754
247	0xbd94806f	-0.07251059
248	0xbd45c8d0	-0.048287213
249	0xbdcf0f51	-0.10110343
250	0x3c9d0077	0.01916526
251	0xbdd3772b	-0.10325464
252	0xbe3a229b	-0.18177263
253	0xbda87aeb	-0.0822657
254	0xbd709a04	-0.05874063
255	0x3d2bf6ff	0.0419836

linear3.weight f4 [3, 256]
0	0x3c9b5470	0.018961161
1	0x3c948a19	0.018132256
2	0x3bc77a52	0.0060875798
3	0x3d6ae056	0.05734285
4	0xbb085473	-0.0020802289
5	0xbec8006a	-0.39062816
6	0x3d38c771	0.045112077
7	0xbd047dd1	-0.03234655
8	0xbe41b7df	-0.18917798
9	0x3cb24523	0.021761483
10	0xbf0c8706	-0.5489353
11	0x3cd6be13	0.026213681
12	0xbc01e3d8	-0.007927857
13	0xbbb414d2	-0.005495646
14	0x3c61a638	0.01377254
15	0xbeb765a1	-0.35819724
16	0x3d0c7069	0.03428689
17	0xbc07b870	-0.008283719
18	0xbd219175	-0.03944536
19	0x3d583852	0.052788086
20	0xbd2235e9	-0.039602194
21	0x3d252472	0.04031796
22	0x3e459459	0.19294871
23	0xbdd49915	-0.103807606
24	0x3d2684fd	0.04065417
25	0xbb8b10d0	-0.0042439476
26	0x3cab7656	0.02093045
27	0xbc7b71e8	-0.015346982
28	0x3c9511fc	0.018197052
29	0x3cacff7a	0.021117914
30	0x3cc291bb	0.02375113
31	0x3e26feb4	0.16308099
32	0xbbae15a7	-0.0053126398
33	0xbec15e2c	-0.3776716
34	0xbda2eb1c	-0.07955
35	0x3d10eb50	0.03538066
36	0xbca0a122	-0.019608084
37	0x3db88201	0.09009171
38	0xbd1f3baf	-0.038875278
39	0xbec6dd45	-0.3884069
40	0x3b4abe60	0.0030936226
41	0x3cd4560d	0.025919938
42	0xbd4bce0e	-0.049757056
43	0x3c80f618	0.015742347
44	0xbe4f810d	-0.20264073
45	0xbea4510b	-0.3209308
46	0x3bdde0f1	0.0067712
47	0x3da69bc8	0.08135182
48	0x3d7fb78e	0.06243091
49	0xbc84e4c5	-0.016222367
50	0x3d4fd53e	0.050740473
51	0x3c560436	0.013062527
52	0x3b8a385b	0.004218144
53	0x3d7cb4b4	0.06169577
54	0xbcf3685f	-0.029712854
55	0x3bfcdde9	0.0077168834
56	0xbcd91594	-0.026499547
57	0xbce42655	-0.02785031
58	0x3cc69122	0.024239127
59	0xbed9e493	-0.425572
60	0x3e759db7	0.23985945
61	0xbeab4df3	-0.33457908
62	0xbc31d870	-0.010854825
63	0xbde9dc5e	-0.11418985
64	0x3cd5c4de	0.02609485
65	0x3d5559ab	0.052087467
66	0x3ca411fa	0.020028103
67	0x3ccda6c1	0.025103929
68	0xbec4aac1	-0.38411525
69	0xbd964226	-0.073368356
70	0x3d63dff3	0.055633496
71	0x3d37000f	0.04467779
72	0xbbe182c0	-0.0068820417
73	0xbbe64e16	-0.0070283515
74	0xbda16bf5	-0.07881919
75	0xbee1a24c	-0.44069135
76	0xbea66ace	-0.3250336
77	0x3b7bf36f	0.0038444658
78	0x39c4b71f	0.0003752047
79	0x3d006422	0.031345494
80	0x3e753345	0.23945339
81	0x3cd97e90	0.026549608
82	0xbc777381	-0.015103222
83	0xbee82a46	-0.45344752
84	0x3cb60b56	0.022222202
85	0x3c783337	0.015148929
86	0xbcc7e59c	-0.024401478
87	0x3c36e848	0.011163779
88	0x3d419ba2	0.047267564
89	0xbc3e64a6	-0.011620676
90	0x3aed0cf6	0.0018085528
91	0x3df49e09	0.11944205
92	0xbdde562a	-0.10856278
93	0xbdd91fad	-0.10601745
94	0x3cf1246a	0.029436309
95	0x3d80d6c7	0.062909655
96	0x3d0362a2	0.032076485
97	0xbdff023f	-0.124516
98	0x3abc4491	0.0014363696
99	0xbb16b19d	-0.002299405
100	0xbc875022	-0.016517702
101	0x3cadf91e	0.021236952
102	0x3c0fc0c2	0.008773984
103	0xbb8b9e7f	-0.0042608376
104	0x3e5090c2	0.2036772
105	0x3d3ac0aa	0.045593895
106	0x3c7770ef	0.015102609
107	0xbd264fa8	-0.04060331
108	0xbd776076	-0.060394727
109	0x3d5ddee2	0.054167636
110	0x3cc7a379	0.024369942
111	0xbca540f7	-0.02017258
112	0x3c3816d5	0.011235912
113	0xbcf91963	-0.030407613
114	0xbd88fe30	-0.066891074
115	0x3d6c6c32	0.05772037
116	0xbd332771	-0.043738786
117	0x3cb1f40f	0.021722822
118	0xbe2191cd	-0.15778275
119	0xbd817974	-0.063219935
120	0x3d3cdacd	0.046107102
121	0x3dac8a65	0.08424834
122	0x3af6398e	0.0018785463
123	0x3b7a6e6e	0.0038212794
124	0x3dffc9f9	0.12489695
125	0x3d152950	0.03641635
126	0x3da12dfa	0.078700975
127	0xbc012231	-0.007881687
128	0xbb108e47	-0.002205746
129	0xbd100ba6	-0.03516736
130	0x3d58d82f	0.052940544
131	0xbc5eb9dc	-0.013594117
132	0xbe7d0241	-0.24707891
133	0xbbd8a0bf	-0.0066109593
134	0x3d75ca47	0.06000736
135	0x3e6cbe1d	0.23119397
136	0x3cd7252e	0.026262846
137	0xbe426f23	-0.18987708
138	0x3b31f55b	0.00271543
139	0xbee83279	-0.45351008
140	0xbcb6203d	-0.02223217
141	0x3c3c70fb	0.011501546
142	0x3d24f2c2	0.040270574
143	0x3cfc0bb0	0.030767292
144	0xbcb69bcf	-0.022291092
145	0xbecef996	-0.40424794
146	0xbbd92c3d	-0.006627588
147	0xbc11ec54	-0.008906443
148	0xbbcdd7f5	-0.0062818476
149	0xbc4487eb	-0.011995296
150	0x3b540d40	0.003235653
151	0xbdc4fc1c	-0.096183985
152	0xbcfd58dc	-0.03092616
153	0x3ce288d3	0.027653133
154	0xbde5afbc	-0.11215159
155	0xbc9c28c0	-0.0190624
156	0xbd408f50	-0.047011673
157	0x3d113c60	0.03545797
158	0x3e049aae	0.1294963
159	0xbc077edc	-0.008269992
160	0xbe8a9df8	-0.27073646
161	0xbcd9bd58	-0.026579544
162	0xbce42707	-0.027850641
163	0xbd6ab630	-0.057302654
164	0x3aaa8a81	0.0013011248
165	0x3cbc93f7	0.023019774
166	0x3d3cf751	0.046134297
167	0xbbdc176b	-0.006716659
168	0x3ce5bb54	0.028043427
169	0xbb9463b6	-0.004528488
170	0x3baac05e	0.0052109202
171	0x3d67e7f7	0.056617703
172	0x3e66960d	0.22518177
173	0xbeaf2582	-0.34208304
174	0x3d29a44a	0.041416444
175	0xbecbd32a	-0.39809543
176	0x3c18a125	0.009315764
177	0x3dfbb471	0.12290276
178	0xbcdbfd80	-0.026854277
179	0xbe91c2f8	-0.28469062
180	0xba457e00	-0.0007533729
181	0xbc512b87	-0.012766725
182	0x3c15567c	0.009114858
183	0x3ce6db3a	0.028180707
184	0x3d60a2e2	0.054842837
185	0x3d22fb22	0.03979028
186	0x3e6ee43d	0.23329253
187	0x3ce8064e	0.028323319
188	0x3c39d8db	0.011343206
189	0x3d269c4b	0.040676396
190	0x3d91b06c	0.07113728
191	0x3b26359f	0.002536155
192	0x3cb1acf0	0.021688908
193	0x3d9d5cf9	0.07683749
194	0x3da1c529	0.078989334
195	0xbb7611b9	-0.0037547185
196	0x3d1a97af	0.037742313
197	0x3cf33856	0.029689949
198	0x3d4d7d14	0.050168112
199	0x3c7f9d9c	0.015601542
200	0xbcb2ab25	-0.021810124
201	0xbccdad6e	-0.025107112
202	0xbe9ea07c	-0.30981815
203	0x3dbfefb0	0.09371889
204	0xbdb080a7	-0.086182885
205	0x3b3e183d	0.0029006146
206	0x39a861d9	0.0003211636
207	0xbecba9bc	-0.39777935
208	0x3d9c6836	0.07637064
209	0x3de81511	0.11332143
210	0x3d137b16	0.036006056
211	0x3e729142	0.23688224
212	0xbd20b75b	-0.03923736
213	0x3c8dc950	0.017307907
214	0x3d71246a	0.058872618
215	0x3cfdd537	0.030985458
216	0x3e21f6ed	0.15816851
217	0xbcf3fdad	-0.029784048
218	0xbca1aec1	-0.01973665
219	0xbccd2d66	-0.025046062
220	0x3ba55cce	0.0050464636
221	0x3ccc9fd6	0.02497856
222	0x3e612b6c	0.2198922
223	0x3d0f2ac0	0.03495288
224	0x3ce86b11	0.028371366
225	0xbd813feb	-0.063110195
226	0xbc34509d	-0.011005548
227	0x3cf3e03b	0.029770007
228	0x3cd05b74	0.025434233
229	0xbcbcc3c6	-0.02304257
230	0xbc93af93	-0.018028056
231	0xbdb6cb20	-0.08925462
232	0x3dbd4ef3	0.09243574
233	0xbcfb5e99	-0.030684756
234	0x3cec542e	0.028848734
235	0x3cc2b676	0.023768645
236	0x3bee58f3	0.007273787
237	0xbbd3048b	-0.0064397505
238	0xbbd47b82	-0.00648445
239	0x3d4836b9	0.048880313
240	0xbd5d1108	-0.05397132
241	0xbbe3c2a7	-0.0069506946
242	0x3d0d24e6	0.034459017
243	0xbc9ce352	-0.019151364
244	0xbd54dad2	-0.051966496
245	0xbd70e496	-0.058811747
246	0xbd4af2b0	-0.04954785
247	0x3caddce8	0.0212235
248	0xb8c48a2b	-9.371744e-05
249	0x3c503ba6	0.012709534
250	0xbe1a2409	-0.15052809
251	0xbda20a92	-0.079121724
252	0xbc6d4f39	-0.01448422
253	0x3c2883be	0.010285316
254	0xbcb22b96	-0.021749299
255	0x3e26e1f4	0.16297132

linear3.bias f4 [3]
0	0x3e62399f	0.22092293
1	0x3e6bdabb	0.23032658
2	0x3e717637	0.23580252
