checkpoint_game_1700.pth (torch, 281418 bytes, 6 tensors)

linear1.weight f4 [256, 11]
-0.20707764 0.17917858 -0.12465361 0.1471451 0.087484494 0.11607977 -0.1928187 -0.16442885
-0.10900319 -0.14658207 -0.26476756 0.1935382 0.13050137 -0.15423608 -0.12032864 -0.02298628
-0.061872963 -0.191212 -0.046200488 -0.2539666 -0.015143925 -0.17253505 0.2778142 0.2154363
-0.05484943 -0.6194803 0.15663804 -0.56739366 0.6530414 -0.33609718 -0.8287614 -0.99153644
0.18502775 -0.06614648 0.07368781 0.15898189 0.012110155 -0.040739987 -0.52208155 -0.35439807
-0.1825265 0.03502036 -0.41649652 -0.3147674 -0.14296342 -0.32225034 -0.40366212 0.026848856
-0.12787026 -0.3163472 0.6063651 -0.91860443 -0.66314435 0.38291776 -0.39343023 -0.076991394
0.18864651 -0.30172762 -0.4432347 -0.037350256 -0.52815926 -0.004684319 -0.28693464 -0.25818807
-0.08472091 -0.4715008 0.6786627 -0.59069103 -0.24432231 0.14867467 0.01437977 -0.30180535
-0.7147542 -0.16862091 0.20472726 0.51723504 0.57523483 -0.5360806 0.008912054 0.32735094
-0.4949353 -0.48660612 -0.11475049 0.11264044 -0.4461962 -0.22682898 -0.10874432 0.124411896
0.23486927 0.09443383 0.083331525 0.32266295 0.30956846 -0.7097492 -0.33552104 -0.87331164
-0.90894234 0.16673455 0.28354323 -0.24157092 0.25159156 0.42399833 -0.28660873 -0.26367465
-0.44491953 -0.26215354 -0.18816876 -0.14979412 -0.26527634 -0.27421328 -0.2767428 0.119990125
0.3121849 -0.22080494 0.004636479 0.35869476 -0.02461604 -0.20266981 -0.4017038 0.4391461
-0.41760543 -0.43887922 0.52439696 0.08943642 0.22377984 0.045174483 -0.47186092 -0.8104498
0.10041374 0.28407905 -0.257732 -0.6213376 -0.16528341 0.23540816 0.03299874 -0.20676324
-0.42479557 -0.17895147 -0.13927329 -0.08344346 -0.025841435 -0.23217356 -0.21111971 0.10814928
0.24708861 -0.059553433 0.050078124 0.012269887 -0.20386341 0.029083459 2.880857e-05 -0.12803882
0.07602709 -0.20631517 0.09205739 0.16291253 -0.5417365 0.28057447 -0.73825455 0.54711026
-0.37397456 -0.5047349 -0.57070583 -0.785933 0.35784063 -0.47744823 0.21954638 0.18982336
-0.4829267 0.14152293 0.20721798 -0.06669908 -0.66745436 -0.48846745 -0.77581924 -0.34463948
0.06798643 0.14281563 0.071220174 -0.012710361 -0.028571337 0.014376939 -0.3243176 -0.4851449
-0.23097618 -0.111691706 -0.50228614 0.09463698 -0.48938537 -0.030517494 -0.017772935 -0.10736714
-0.11626648 -0.025435071 0.034006856 -0.42709044 -0.0021937334 -0.0050304052 0.18696396 -0.2442113
0.10490751 -0.4215884 0.64891016 -0.65467066 -0.6152616 0.58028394 -0.19624591 -1.0636907
-1.0698799 -0.25626484 -0.17554313 -0.23195562 -0.17906912 -0.10749231 0.14651696 -0.16113473
-0.33106542 -0.22933383 -0.13406359 0.12604247 -0.11622119 0.039372377 0.0694703 0.014625644
-0.5176989 -0.30179542 -0.11691431 -0.50887454 -0.41815203 -0.09498132 -0.041400366 -0.09315058
0.85635793 -0.22518446 0.34661096 -0.09567784 -0.25449896 0.19728541 -0.058538448 0.16581298
-0.32369852 0.13974853 0.09953274 -0.20981929 0.09093549 -0.6551011 -0.2720292 -0.34776372
0.003527671 0.0060552545 -0.2075397 -0.36980855 -0.40403256 0.21166767 0.39151368 0.3517206
00000000: 290c 54be 977a 373e 644a ffbd 35ad 163e
00000010: 122b b33d 3bbb ed3d 4472 45be 0960 28be
00000020: 113d dfbd 9c19 16be 9d8f 87be e12e 463e
00000030: 27a2 053e 10f0 1dbe dd6e f6bd b94d bcbc
00000040: 816e 7dbd 14cd 43be b93c 3dbd e907 82be
00000050: 3a1e 78bc 07ad 30be aa3d 8e3e 559b 5c3e
00000060: cca9 60bd 4396 1ebf b965 203e b640 11bf
00000070: b92d 273f ee14 acbe b529 54bf 55d5 7dbf
00000080: ea77 3d3e ce77 87bd a2e9 963d 26cc 223e
00000090: ac69 463c f9de 26bd 23a7 05bf aa73 b5be
000000a0: 3ae8 3abe 8271 0f3d 083f d5be 3129 a1be
000000b0: 0165 12be fffd a4be cdac cebe 22f2 db3c
000000c0: 6cf0 02be 43f8 a1be be3a 1b3f a929 6bbf
000000d0: d4c3 29bf cc0d c43e b06f c9be aaad 9dbd
000000e0: 8d2c 413e 0b7c 9abe a9ef e2be 95fc 18bd
000000f0: 7235 07bf ea7e 99bb 19e9 92be 3a31 84be
00000100: 2882 adbd 8e68 f1be d7bc 2d3f 8737 17bf
00000110: a12f 7abe 2c3e 183e 2099 6b3c 3b86 9abe
00000120: 22fa 36bf f6aa 2cbe 06a4 513e 8469 043f
00000130: 9742 133f 943c 09bf dd03 123c 8b9a a73e
00000140: 2968 fdbe 7024 f9be 4e02 ebbd 08b0 e63d
00000150: d473 e4be db45 68be 58b5 debd aacb fe3d
00000160: 9281 703e 8666 c13d b8a9 aa3d 1434 a53e
00000170: c27f 9e3e 20b2 35bf 6ac9 abbe 5a91 5fbf
00000180: 72b0 68bf 76bc 2a3e 942c 913e 5e5e 77be
00000190: 9cd0 803e 4f16 d93e 61be 92be 5d00 87be
000001a0: 7ecc e3be fd38 86be 50af 40be a163 19be
000001b0: 4dd2 87be af65 8cbe 3bb1 8dbe 62bd f53d
000001c0: b3d6 9f3e b11a 62be 9bed 973b d7a6 b73e
000001d0: 94a7 c9bc ad88 4fbe 1fac cdbe c2d7 e03e
000001e0: 61d0 d5be c7b4 e0be e13e 063f 712a b73d
000001f0: 8b26 653e e108 393d c197 f1be a379 4fbf
00000200: b8a5 cd3d cf72 913e 73f5 83be fb0f 1fbf
00000210: 0e40 29be d60e 713e b029 073d beb9 53be
00000220: ce7e d9be 0e3f 37be a89d 0ebe 68e4 aabd
00000230: 6bb1 d3bc e8be 6dbe c42f 58be 5f7d dd3d
00000240: cc04 7d3e 4dee 73bd b81e 4d3d a307 493c
00000250: 92c1 50be 6f40 ee3c efa9 f137 9c1c 03be
00000260: 17b4 9b3d 4944 53be 9688 bc3d 8bd2 263e
00000270: 3eaf 0abf 75a7 8f3e 40fe 3cbf 6b0f 0c3f
00000280: 9879 bfbe 4e36 01bf c719 12bf e832 49bf
00000290: e336 b73e 1874 f4be c4d0 603e 0e61 423e
000002a0: 2b42 f7be 63eb 103e f330 543e 8799 88bd
000002b0: 4ade 2abf 6818 fabe 179c 46bf 9674 b0be
000002c0: 783c 8b3d 433e 123e e2db 913d 1e3f 50bc
000002d0: 700e eabc 418d 6b3c f50c a6be ea64 f8be
000002e0: 0585 6cbe 9fbe e4bd d395 00bf 08d1 c13d
000002f0: b890 fabe d3ff f9bc 8c98 91bc 4ee3 dbbd
00000300: 1f1d eebd 365d d0bc c64a 0b3d 99ab dabe
00000310: bdc4 0fbb 19d6 a4bb 7b73 3f3e 8712 7abe
00000320: c0d9 d63d 6fda d7be fa1e 263f 7f98 27bf
00000330: c981 1dbf 7d8d 143f b0f4 48be 0427 88bf
00000340: d3f1 88bf 2535 83be 94c1 33be c685 6dbe
00000350: e55d 37be ee24 dcbd 8b08 163e 8100 25be
00000360: 6881 a9be 7dd6 6abe f747 09be 4711 013e
00000370: 6005 eebd ee44 213d 7246 8e3d 66a0 6f3c
00000380: ea87 04bf ee84 9abe c570 efbd 9a45 02bf
00000390: 0618 d6be 9185 c2bd 6e93 29bd bbc5 bebd
000003a0: 463a 5b3f c196 66be fe76 b13e bef2 c3bd
000003b0: b04d 82be 3005 4a3e 03c6 6fbd e1ca 293e
000003c0: d0bb a5be 3d1a 0f3e d2d7 cb3d deda 56be
000003d0: 633c ba3d b5b4 27bf 6947 8bbe 160e b2be
000003e0: 8030 673b 286b c63b 4a85 54be 8c57 bdbe
000003f0: 5bdd cebe 69bf 583e 7b74 c83e b914 b43e

linear1.bias f4 [256]
-0.30690023 -0.34456125 0.032841127 -0.29872835 -0.38816655 -0.1269103 -0.14001273 -0.62971956
-0.045424577 -0.29421586 -0.31723213 -0.16159444 -0.14442791 -0.4837232 0.03481841 -0.2429676
-0.2700587 -0.24846885 -0.32762566 -0.29825026 -0.111378595 -0.094233915 -0.3405084 -0.35444772
-0.2420588 -0.27745256 -0.1647428 -0.3914496 -0.4765909 0.32436696 -0.3187633 -0.09926287
-0.34947807 0.19035976 -0.09658824 -0.3630601 -0.18903393 -0.26669157 -0.30800498 -0.15621904
-0.23122452 -0.10764698 -0.10955239 -0.17997533 -0.23343502 -0.0401304 -0.2602608 -0.36424774
0.28277743 -0.2769143 -0.059881415 -0.35549498 -0.3326403 -0.001167716 0.041131217 0.596371
-0.07621384 -0.3540811 0.5391707 -0.10877062 -0.120827995 -0.44126058 -0.17780472 -0.017498324
-0.32263172 -0.508358 -0.29019436 -0.10596117 -0.0973519 -0.6503398 -0.2564896 0.019193841
1.4017069 -0.6052058 -0.4741178 -0.052097473 -0.32554194 -0.20489933 -0.22722568 -0.4018958
0.119766384 0.25124255 -0.09360356 -0.32760713 -0.14219156 -0.6562428 -0.09204139 -0.7137357
0.06731247 -0.38818693 -0.32418776 0.13705926 0.25461647 -0.036805626 -0.41587448 -0.42810166
-0.3714242 -0.15390505 -0.17804684 -0.4395285 -0.2607587 -0.017354324 0.031832572 -0.57889444
-0.18150614 -0.038248677 -0.025902031 -0.30845222 -0.15414374 -0.5040242 -0.24945663 -0.11964111
-0.27784064 -0.16562122 0.13889988 0.20062004 -0.007901237 0.710232 -0.12286783 -0.33374932
0.35789704 0.15962765 -0.4629436 -0.23043476 -0.016696526 -0.3242951 -0.3907837 -0.06872077
0.38113967 -0.29590064 -0.23230171 -0.048300315 -0.047673404 0.0012457774 -0.041510686 -0.25305134
-0.13522422 0.38398734 0.10038461 0.3483217 -0.16285129 -0.15478115 -0.23014683 -0.4183353
0.02313413 -0.26538882 1.9388493 -0.14774728 -0.40444922 0.16502811 -0.15676282 0.29061568
-0.41527134 -0.12870301 -0.058607385 -0.25311515 -0.19077642 -0.26711458 0.15884267 0.06887282
-0.15567295 0.1668402 -0.45908725 -0.30552447 0.1822369 0.9331065 -0.65519464 -0.26523128
-0.33018523 -0.23441802 0.0054943897 0.015389138 0.48221123 -0.06745739 -0.12900668 0.08249947
0.3454785 -0.17079161 -0.2156448 -0.37256518 0.052219413 0.07193175 -0.19359869 -0.05183324
-0.38089907 -0.047445126 0.0783898 0.062465474 0.1735883 -0.3780662 -0.044805802 -0.04685266
-0.24556935 -0.3643898 -0.34266752 -0.10108374 -0.1568702 -0.58860034 0.002068049 -0.06820009
-0.1390917 -0.5381368 -0.18024845 -0.31270823 -0.04928912 -0.30230966 -0.18801272 -0.049009956
-0.46936473 -0.06381694 1.7778593 0.29009354 -0.28168076 -0.20063911 -0.2633452 -0.298407
-0.050867803 -0.26668844 -0.5088131 -0.117205516 0.051263046 0.17475195 -0.2786917 0.52671945
-0.2542976 0.15473573 -0.27479336 -0.25231975 -0.25695387 -0.4229368 -0.23729159 -0.58868986
0.13425723 -0.36454087 -0.055948343 -0.36544326 -0.21290927 -0.27082312 -0.16016738 0.14232355
-0.15906154 -0.46615857 -0.08543338 -0.18987615 -0.16305184 0.021743458 -0.3234672 -0.2864642
-0.20793694 -0.07006876 2.2217147 0.02482626 -0.23973003 -0.3532054 -0.10158702 -0.31568676
00000000: 0722 9dbe 556a b0be 6b84 063d ecf2 98be
00000010: c4bd c6be c6f4 01be 7f5f 0fbe 4d35 21bf
00000020: 1f0f 3abd 76a3 96be 406c a2be 0379 25be
00000030: e9e4 13be 91aa f7be c09d 0e3d 80cc 78be
00000040: 2245 8abe 9e6e 7ebe 8dbe a7be 42b4 98be
00000050: 761a e4bd b6fd c0bd 1e57 aebe 2c7a b5be
00000060: 43de 77be 430e 8ebe 56b2 28be 156c c8be
00000070: b903 f4be 6d13 a63e f134 a3be 554a cbbd
00000080: caee b2be abed 423e 0ed0 c5bd 03e3 b9be
00000090: 1c92 41be cc8b 88be d4b2 9dbe e2f7 1fbe
000000a0: 1fc6 6cbe 0576 dcbd 015d e0bd 744b 38be
000000b0: 9709 6fbe c65f 24bd e740 85be ae7e babe
000000c0: 34c8 903e b6c7 8dbe 3746 75bd 7003 b6be
000000d0: d44f aabe 0c0e 99ba 3579 283d c5ab 183f
000000e0: 0016 9cbd 1e4a b5be 1707 0a3f 21c3 debd
000000f0: ab74 f7bd e8ec e1be 7112 36be a558 8fbc
00000100: fc2f a5be c023 02bf 5b94 94be 2b02 d9bd
00000110: 6f60 c7bd ab7c 26bf 9b52 83be 673c 9d3c
00000120: 226b b33f c4ee 1abf 91bf f2be 2964 55bd
00000130: 6fad a6be 21d1 51be d9ad 68be 49c5 cdbe
00000140: 1448 f53d dda2 803e 39b3 bfbd 1fbc a7be
00000150: aa9a 11be 87ff 27bf 3280 bcbd 62b7 36bf
00000160: 1fdb 893d 70c0 c6be f0fb a5be 4359 0c3e
00000170: 175d 823e 7fc1 16bd 80ed d4be 2430 dbbe
00000180: 502b bebe 4999 1dbe e951 36be e109 e1be
00000190: 2a82 85be a82a 8ebc df62 023d 6d32 14bf
000001a0: bfdc 39be a5aa 1cbd 7f30 d4bc 73ed 9dbe
000001b0: dbd7 1dbe bb07 01bf 8f71 7fbe 6606 f5bd
000001c0: 2141 8ebe 9c98 29be c53b 0e3e 576f 4d3e
000001d0: 3174 01bc c4d1 353f 21a2 fbbd 31e1 aabe
000001e0: 483e b73e 6e75 233e f206 edbe 17f7 6bbe
000001f0: 27c7 88bc 020a a6be cd14 c8be 7abd 8cbd
00000200: bd24 c33e 4a80 97be 80e0 6dbe 8dd6 45bd
00000210: 3045 43bd 5a49 a33a 1c07 2abd f28f 81be
00000220: 3878 0abe fd99 c43e 7296 cd3d 3957 b23e
00000230: 7dc2 26be f37e 1ebe 9cab 6bbe 0b30 d6be
00000240: c983 bd3c 0be1 87be 372c f83f 104b 17be
00000250: f813 cfbe 21fd 283e 6f86 20be 94cb 943e
00000260: 729e d4be b9ca 03be 4c0e 70bd 4f98 81be
00000270: e55a 43be 3ec3 88be a7a7 223e 310d 8d3d
00000280: bb68 1fbe 28d8 2a3e 7c0d ebbe b46d 9cbe
00000290: 4f9c 3a3e 11e0 6e3f d6ba 27bf 65cc 87be
000002a0: 0a0e a9be 470b 70be 480a b43b b922 7c3c
000002b0: 64e4 f63e 1a27 8abd 541a 04be 7bf5 a83d
000002c0: 8fe2 b03e ffe3 2ebe fed1 5cbe ddc0 bebe
000002d0: 06e4 553d f450 933d bc3e 46be 174f 54bd
000002e0: 3405 c3be d255 42bd d58a a03d ccdb 7f3d
000002f0: 22c1 313e e591 c1be 4a86 37bd 93e8 3fbd
00000300: 8876 7bbe 4d91 babe 1e72 afbe fe04 cfbd
00000310: 95a2 20be 83ae 16bf 1b88 073b 7dac 8bbd
00000320: 0e6e 0ebe 55c3 09bf 0d93 38be 4b1b a0be
00000330: 63e3 49bd 55c8 9abe 6886 40be aabe 48bd
00000340: 9350 f0be 75b2 82bd e590 e33f 2487 943e
00000350: 7638 90be 5774 4dbe 2fd5 86be cdc8 98be
00000360: c25a 50bd 638b 88be 9341 02bf 7209 f0bd
00000370: 33f9 513d 2df2 323e aeb0 8ebe 16d7 063f
00000380: 4c33 82be 0b73 1e3e b7b1 8cbe 0e30 81be
00000390: 758f 83be 2c8b d8be 91fc 72be 61b4 16bf
000003a0: ba7a 093e 1aa5 babe 172a 65bd 611b bbbe
000003b0: e304 5abe 54a9 8abe eb02 24be 44bd 113e
000003c0: 07e1 22be 56ac eebe b2f7 aebd e56e 42be
000003d0: 10f7 26be 561f b23c 7e9d a5be 70ab 92be
000003e0: 6ced 54be 3680 8fbd 9330 0e40 7160 cb3c
000003f0: ca7b 75be 57d7 b4be db0c d0bd b2a1 a1be

linear2.weight f4 [256, 256]
0.00036640465 -0.003813222 0.08785899 0.0033638643 -0.0056282054 -0.010835924 0.018550409 -0.033964433
-0.04910409 -0.033086937 -0.059450056 0.011407919 0.020728512 -0.009715637 -0.0002842416 -0.04841381
-0.061376423 -0.006313165 0.038994864 0.017472692 -0.065216094 -0.0039636455 -0.013547497 -0.006785607
-0.033248037 -0.04818404 -0.066619374 -0.020602046 -0.046473965 -0.048215933 -0.004630778 -0.0011301319
-0.11741775 -0.07856349 -0.05750409 -0.08905999 -0.076510444 -0.05173751 0.054590136 -0.028809719
0.020272022 0.021611033 0.016571019 0.007325314 -0.0052352725 -0.02876421 -0.05791838 0.07131921
-0.022313494 -0.010814875 -0.047140665 0.016589874 -0.05685229 -0.011520312 -0.063265234 -0.05821064
-0.0320676 0.008042855 -0.10568725 0.04202618 0.034634512 -0.0425272 -0.011446133 -0.072409235
-0.06442099 0.01414257 0.016587555 0.07457438 -0.061287757 0.028432095 -0.0006532564 -0.090357825
-0.06586513 -0.018098349 -0.052013006 -0.045201804 -0.0012382732 0.05731513 0.051337063 0.016448952
-0.105614305 -0.037952628 0.0064909053 -0.039977256 -0.103495106 -0.025270693 -0.052298453 -0.0753274
-0.008969174 -0.047852594 -0.016424136 -0.055996306 0.0013200304 0.009681873 0.031562105 -0.0390496
0.048725203 -0.007773561 0.021500757 -0.08852965 -0.004984465 -0.10094173 -0.066046536 -0.06246247
-0.03424928 -0.05172728 0.03879425 -0.053633675 -0.063598245 -0.07782553 -0.015522493 -0.062383488
-0.011728848 -0.04140389 -0.06836494 -0.011851251 0.0041202805 -0.10482074 0.04126118 -0.034502074
-0.09377541 -0.036364082 -0.056768913 -0.037802342 -0.009972717 -0.066452175 -0.05173131 -0.061121978
-0.11893865 -0.08986823 0.022918593 -0.037377335 0.071975246 0.05115977 -0.07373115 -0.013635387
-0.014660091 0.06563149 0.009070352 -0.046789106 -0.026996339 -0.04249798 -0.020905754 -0.01168412
0.014585824 -0.09137061 -0.01676168 -0.048612505 -0.015842974 -0.042174906 0.021945791 -0.025798595
-0.009228142 0.07870475 -0.045686696 -0.048493683 -0.028199822 -0.03841476 0.019807471 -0.04550828
-0.08644241 -0.053835697 -0.05137116 -0.015646033 0.035989486 -0.08315162 -0.053937286 -0.007528481
-0.0116716325 -0.07791484 -0.0015787466 -0.06366916 0.009211477 0.046814177 0.045678414 0.0058156615
0.012381552 0.033048756 -0.030412735 0.017306585 -0.05184374 -0.019208288 -0.121895954 0.058660775
-0.011116545 -0.03576956 0.017554717 -0.029060505 0.00038559746 0.0017932281 -0.061720505 -0.055060346
-0.03756278 -0.057321627 -0.054199938 0.029936232 -0.0805817 0.045320187 -0.108888246 0.042087264
0.019122535 -0.11281145 0.062137052 0.059747115 0.0011236225 -0.03700859 -0.009678645 -0.04671733
-0.04793719 -0.037081648 -0.092911005 -0.04162759 -0.041623004 0.01566368 -0.077007465 0.009737223
0.03263557 0.0507227 -0.025082389 0.0009143952 -0.093562976 0.009010145 0.033451468 -0.04239176
-0.019527288 -0.049672462 -0.04523655 -0.03531459 -0.038038034 -0.0057069384 -0.033235285 -0.081310526
-0.0357703 0.024796223 -0.04571261 -0.03312997 0.041136224 -0.03511946 -0.042686194 -0.0679411
-0.00045132486 -0.07414849 -0.011708138 -0.06970491 0.0013957918 -0.012846582 -0.04753985 0.06757463
0.018678598 -0.067669 -0.07383484 0.016982423 -0.02986756 -0.070338085 0.037615288 -0.011496348
00000000: 001a c039 40e7 79bb 6aef b33d 4774 5c3b
00000010: cf6c b8bb 2989 31bc 07f7 973c 4a1e 0bbd
00000020: 5f21 49bd 2b86 07bd e781 73bd 48e8 3a3c
00000030: d7ce a93c 562e 1fbc 4306 95b9 8f4d 46bd
00000040: d865 7bbd abde cebb 14b9 1f3d e422 8f3c
00000050: 0490 85bd 78e1 81bb 52f6 5dbc cc59 debb
00000060: 182f 08bd a15c 45bd bd6f 88bd 9fc5 a8bc
00000070: 7c5b 3ebd 127e 45bd c8bd 97bb ef20 94ba
00000080: b878 f0bd e5e5 a0bd 6989 6bbd 1665 b6bd
00000090: 82b1 9cbd b6ea 53bd e899 5f3d 5c02 ecbc
000000a0: 8311 a63c 9f09 b13c f2bf 873c 3009 f03b
000000b0: a68c abbb eca2 ebbc d33b 6dbd ce0f 923d
000000c0: caca b6bc e030 31bc 9216 41bd 7de7 873c
000000d0: f2dd 68bd b1bf 3cbc 3491 81bd 486e 6ebd
000000e0: 5159 03bd 2ec6 033c 8f72 d8bd a523 2c3d
000000f0: ebdc 0d3d 0031 2ebd 9088 3bbc 4b4b 94bd
00000100: 27ef 83bd 3db6 673c a0e2 873c 74ba 983d
00000110: df08 7bbd 6dea e83c 4b3f 2bba 860d b9bd
00000120: 4ce4 86bd fd42 94bc 970b 55bd 8725 39bd
00000130: 8e4d a2ba 45c3 6a3d d046 523d f4bf 863c
00000140: 504c d8bd 3774 1bbd a9b1 d43b 31bf 23bd
00000150: 3ef5 d3bd 7c04 cfbc e736 56bd 4045 9abd
00000160: 71f3 12bc 1501 44bd e98b 86bc 625c 65bd
00000170: df04 ad3a b8a0 1e3c 4447 013d 79f2 1fbd
00000180: 1494 473d 5bb9 febb 5b22 b03c 084f b5bd
00000190: b954 a3bb 8aba cebd 6843 87bd a6d8 7fbd
000001a0: f948 0cbd fcdf 53bd b8e6 1e3d fcae 5bbd
000001b0: cc3f 82bd fe62 9fbd 0e52 7ebc d485 7fbd
000001c0: 5b2a 40bc 2097 29bd eb02 8cbd c02b 42bc
000001d0: 6b03 873b 42ac d6bd 7c01 293d 0c52 0dbd
000001e0: 520d c0bd 81f2 14bd 8586 68bd a1d6 1abd
000001f0: 9b64 23bc 1418 88bd 36e4 53bd 0a5b 7abd
00000200: 1b96 f3bd d60c b8bd c6bf bb3c fa18 19bd
00000210: c267 933d e88c 513d 5b00 97bd f566 5fbc
00000220: e130 70bc cd69 863d d09b 143c efa5 3fbd
00000230: 6d27 ddbc 5d12 2ebd 8b42 abbc c06e 3fbc
00000240: 61f9 6e3c 8420 bbbd ca4f 89bc e81d 47bd
00000250: 20c9 81bc 98bf 2cbd a9c7 b33c 9357 d3bc
00000260: a231 17bc f52f a13d f921 3bbd 50a1 46bd
00000270: 5003 e7bc cc58 1dbd 4743 a23c e466 3abd
00000280: b808 b1bd d282 5cbd 916a 52bd 1c2c 80bc
00000290: b669 133d 664b aabd 58ed 5cbd 7ab1 f6bb
000002a0: 603a 3fbc d191 9fbd f2ed ceba fa64 82bd
000002b0: bceb 163c 39c0 3f3d 4a19 3b3d 4e91 be3b
000002c0: fedb 4a3c 225e 073d 2124 f9bc 8ac6 8d3c
000002d0: 1a5a 54bd b35a 9dbc 96a4 f9bd 4846 703d
000002e0: 2b22 36bc 1a83 12bd e9ce 8f3c 4c10 eebc
000002f0: 042a ca39 c00a eb3a a4ce 7cbd f586 61bd
00000300: 6edb 19bd 15ca 6abd c100 5ebd d43c f53c
00000310: 0508 a5bd a9a1 393d cd00 dfbd b263 2c3d
00000320: dda6 9c3c b109 e7bd 6c83 7e3d 64b9 743d
00000330: 8446 933a 5296 17bd 2e93 1ebc ac5a 3fbd
00000340: c959 44bd ede2 17bd 2048 bebd b181 2abd
00000350: e27c 2abd 1e51 803c 17b6 9dbd e088 1f3c
00000360: e0ac 053d 9bc2 4f3d 9579 cdbc 06b4 6f3a
00000370: f29d bfbd 4a9f 133c 6804 093d fba2 2dbd
00000380: b1f7 9fbc 5a75 4bbd f649 39bd 08a6 10bd
00000390: c5cd 1bbd 4501 bbbb b921 08bd 2286 a6bd
000003a0: e183 12bd 7321 cb3c 253d 3bbd 4bb3 07bd
000003b0: 757e 283d 6cd9 0fbd b8d7 2ebd b424 8bbd
000003c0: cc9f ecb9 2adb 97bd 7dd3 3fbc 73c1 8ebd
000003d0: 00f3 b63a 787a 52bc 25b9 42bd 9164 8a3d
000003e0: dc03 993c 0b96 8abd b836 97bd b91e 8b3c
000003f0: d0ac f4bc 6a0d 90bd 7d12 1a3d 2e5b 3cbc

linear2.bias f4 [256]
-0.00015093996 -0.02070619 -0.07845683 -0.06132444 -0.047687106 -0.09441034 0.012255584 -0.04971541
-0.22527368 -0.0680349 0.12395231 -0.04477993 -0.07724334 -0.025740914 -0.05074548 -0.13506131
-0.10572056 -0.06942126 -0.029017456 0.003810597 -0.13528705 -0.09104955 0.34166768 -0.14257032
-0.122876815 -0.03176123 -0.05434745 -0.042725228 -0.0574219 -0.09868324 -0.099483766 0.30327037
-0.17863917 -0.16629662 -0.04203017 -0.005748714 -0.155305 0.017246148 0.006628544 -0.100472435
-0.07233889 -0.032484 -0.087146014 -0.07642164 -0.15824603 -0.266496 -0.104850926 0.22710793
0.04311054 -0.13987957 0.012230783 -0.091938555 -0.041537076 -0.10059779 -0.09458937 -0.04230866
-0.05924982 -0.044966567 -0.043725684 -0.09464936 3.3780577 -0.020299783 -0.0661431 -0.08577945
-0.09467359 0.022924822 -0.10182207 -0.0060661207 -0.17403555 -0.18990618 -0.095172614 -0.05029512
-0.1521242 -0.029292794 -0.12419547 0.013485943 -0.080259986 -0.10152754 -0.037692543 -0.10456247
2.9831436 0.45318356 0.019140944 -0.28188753 -0.07914882 -0.034626365 -0.05013783 -0.043735486
-0.07289048 0.016013527 -0.04740348 0.23148133 -0.15128927 -0.110158645 -0.13951688 -0.0853105
-0.03590059 -0.118674405 -0.08080673 -0.026619716 -0.038482234 -0.021752676 -0.07262441 -0.06338918
1.5244269 -0.04554492 -0.052031133 -0.066901736 0.015548783 -0.1630309 -0.05587189 -0.061691042
-0.0437919 -0.0279722 -0.14047764 -0.09871135 -0.045293268 -0.101019606 -0.06019332 -0.17692502
-0.039560065 -0.009089752 -0.088732764 -0.18282054 0.12933578 -0.09612646 0.28921783 0.010156108
-0.06437294 0.009678599 -0.04867311 -0.28163296 -0.46778262 -0.040890753 -0.2893805 2.7070918
-0.096025586 -0.111010574 -0.00452221 0.066982046 -0.10248918 -0.064410634 -0.06340577 -0.05944899
-0.08975049 -0.17543733 -0.0800589 -0.012787657 -0.047408752 -0.09022305 -0.047988813 -0.18712333
-0.0689699 -0.07783003 -0.0854806 -0.037300576 -0.074438915 -0.08057562 0.63634497 -0.025818113
-0.29785067 -0.05017434 -0.07580515 -0.107278526 -0.16861248 0.025751103 -0.06817024 -0.05074441
-0.11245584 -0.25506032 -0.10832114 0.08292755 0.5582778 -0.35692298 -0.033607002 -0.014867271
-0.08548218 0.28109175 -0.07585726 -0.1094473 -0.07730969 -0.027110713 -0.1239217 -0.29864854
-0.07259089 -0.068760484 3.3732738 -0.090863824 -0.1175946 -0.017629683 0.19471139 -0.01260032
-0.051140033 -0.1575471 -0.1576589 -0.014077071 -0.08480081 -0.050985813 -0.06712525 -0.11641464
-0.09797862 -0.102256924 -0.336196 -0.20782714 -0.24183547 -0.0807056 -0.026728066 -0.25248086
-0.07832698 0.00021823638 -0.089937545 3.7450516 -0.1016831 0.0056819734 0.021441069 -0.07126126
0.47222343 -0.08036413 -0.04069054 -0.02486596 0.0035117955 -0.07389562 2.4184864 -0.047991097
-0.017039383 -0.10174381 -0.06466378 0.039198328 -0.1297501 -0.11918009 -0.08148709 -0.027420804
-0.20052138 -0.057811383 -0.023480527 -0.053990565 -0.19189614 -0.017066086 -0.14598131 0.35688314
-0.22810723 -0.074316956 -0.059810817 -0.11995126 -0.11328881 -0.010041203 -0.00347738 -0.07251059
-0.048287213 -0.10110343 -0.25166634 -0.10325464 -0.21340843 -0.11390814 -0.05874063 0.056636147
00000000: a345 1eb9 07a0 a9bc f9ad a0bd 562f 7bbd
00000010: 8e53 43bd 355a c1bd a5cb 483c 63a2 4bbd
00000020: 25ae 66be e255 8bbd b5da fd3d 296b 37bd
00000030: c231 9ebd 9cde d2bc 7eda 4fbd 834d 0abe
00000040: 0584 d8bd bc2c 8ebd 04b6 edbc 35bb 793b
00000050: b088 0abe 3078 babd 11ef ae3e f4fd 11be
00000060: d7a6 fbbd 1018 02bd 6f9b 5ebd a600 2fbd
00000070: 3a33 6bbd 701a cabd 25be cbbd 4146 9b3e
00000080: 30ed 36be a949 2abe d427 2cbd b55f bcbb
00000090: 4608 1fbe cb47 8d3c 4234 d93b 7ec4 cdbd
000000a0: 6926 94bd f10d 05bd 9c79 b2bd f382 9cbd
000000b0: 3f0b 22be 2a72 88be 15bc d6bd fb8e 683e
000000c0: ad94 303d 973c 0fbe 9f63 483c 484a bcbd
000000d0: c822 2abd 3706 cebd 12b8 c1bd d84b 2dbd
000000e0: f0af 72bd dd2e 38bd b419 33bd 86d7 c1bd
000000f0: 1932 5840 bb4b a6bc 0976 87bd 23ad afbd
00000100: 3ae4 c1bd d6cc bb3c 1788 d0bd 4fc6 c6bb
00000110: 6036 32be c476 42be dce9 c2bd 4102 4ebd
00000120: 72c6 1bbe 71f7 efbc 325a febd 25f4 5c3c
00000130: 595f a4bd aced cfbd 7f63 1abd d924 d6bd
00000140: d3eb 3e40 ad07 e83e 78cd 9c3c 9053 90be
00000150: c718 a2bd 60d4 0dbd 535d 4dbd fb23 33bd
00000160: 9b47 95bd cd2e 833c 272a 42bd 7109 6d3e
00000170: 93eb 1abe db9a e1bd 83dd 0ebe 45b7 aebd
00000180: 7f0c 13bd 910b f3bd 007e a5bd 9711 dabc
00000190: 8c9f 1dbd ab32 b2bc 1bbc 94bd 30d2 81bd
000001a0: 6c20 c33f 4f8d 3abd 991e 55bd c703 89bd
000001b0: 53c0 7e3c 92f1 26be ecd9 64bd bfaf 7cbd
000001c0: 235f 33bd f525 e5bc 5fd9 0fbe 2d29 cabd
000001d0: 6f85 39bd 5ee3 cebd 458d 76bd d52b 35be
000001e0: bc09 22bd 2fed 14bc 86b9 b5bd 4f35 3bbe
000001f0: 9970 043e f3dd c4bd 5c14 943e ce65 263c
00000200: f6d5 83bd fd92 1e3c 745d 47bd 3232 90be
00000210: 3481 efbe 107d 27bd ae29 94be fe40 2d40
00000220: 10a9 c4bd 8359 e3bd 0c2f 94bb e22d 893d
00000230: d9e5 d1bd b9e9 83bd e2da 81bd c980 73bd
00000240: 1bcf b7bd d8a5 33be ecf5 a3bd 5283 51bc
00000250: ae2f 42bd ddc6 b8bd eb8f 44bd 429d 3fbe
00000260: 1740 8dbd 5a65 9fbd 7410 afbd 7dc8 18bd
00000270: 6e73 98bd d504 a5bd 81e7 223f 8280 d3bc
00000280: e27f 98be 9c83 4dbd bb3f 9bbd d8b4 dbbd
00000290: c0a8 2cbe faf3 d23c d79c 8bbd 5fd9 4fbd
000002a0: 3f4f e6bd 4497 82be 79d7 ddbd ebd5 a93d
000002b0: 4beb 0e3f 9cbe b6be 7fa7 09bd db95 73bc
000002c0: 4811 afbd 42eb 8f3e 0d5b 9bbd e825 e0bd
000002d0: 8b54 9ebd 4917 debc a9ca fdbd 76e8 98be
000002e0: 88aa 94bd 4cd2 8cbd b8e3 5740 d016 babd
000002f0: 70d5 f0bd 206c 90bc 6c62 473e 9371 4ebc
00000300: 3678 51bd 0754 21be 5671 21be 84a3 66bc
00000310: 0cac adbd 80d6 50bd f778 89bd cc6a eebd
00000320: 04a9 c8bd 146c d1bd e221 acbe a3d0 54be
00000330: b8a3 77be fa48 a5bd d1f4 dabc 2c45 81be
00000340: e569 a0bd 62d6 6439 2d31 b8bd edae 6f40
00000350: 3b3f d0bd d92f ba3b 2ea5 af3c 6cf1 91bd
00000360: 45c7 f13e f395 a4bd 20ab 26bd b3b3 cbbc
00000370: 2726 663b 9656 97bd 7bc8 1a40 5092 44bd
00000380: 2d96 8bbc 0f5f d0bd 726e 84bd 6d8e 203d
00000390: 36dd 04be b114 f4bd b4e2 a6bd 98a1 e0bc
000003a0: 7a55 4dbe a1cb 6cbd 3c5a c0bc 3625 5dbd
000003b0: 6c80 44be 2dce 8bbc 207c 15be 63b9 b63e
000003c0: f194 69be 7d33 98bd 30fc 74bd 02a9 f5bd
000003d0: f703 e8bd dc83 24bc c1e4 63bb 6f80 94bd
000003e0: d0c8 45bd 510f cfbd 69da 80be 2b77 d3bd
000003f0: bd87 5abe ac48 e9bd 049a 70bd 4efb 673d

linear3.weight f4 [3, 256]
0.008210618 -0.012096445 -0.0066791745 0.05734285 -0.0020802289 -0.59251624 0.01816385 -0.03234655
0.022279661 -0.009987116 -1.5414586 0.026213681 -0.008499874 -0.005495646 0.00240725 -0.359531
0.03428689 -0.008283719 -0.03944536 0.052788086 -0.039602194 0.04031796 0.14867586 -0.103807606
-0.0027994646 -0.0042439476 0.043264095 -0.015346982 -0.013424024 0.021117914 0.02375113 -0.049360376
-0.014890813 -0.5787749 -0.047907975 0.03538066 -0.019608084 0.10614635 -0.03856898 -0.3324431
0.0030936226 0.025919938 -0.049757056 0.015742347 -0.1782352 -0.104183346 0.015340429 0.01357943
0.10612166 -0.007670891 0.01753592 0.013062527 0.004218144 0.029930845 -0.029712854 0.0077168834
-0.026499547 -0.02785031 0.024239127 -1.0068619 0.30570936 -0.8356339 0.015751882 -0.11418985
0.02609485 0.026195679 -0.09238255 0.020445412 -0.6823308 -0.073368356 0.008176526 0.04467779
-0.0068820417 -0.0070283515 0.008528335 -1.1985235 -0.2924556 -0.00054148794 -0.031390008 0.031345494
0.28627396 -0.026334606 -0.015103222 -0.3989742 -0.017827412 0.015148929 -0.024401478 -0.009335468
0.047267564 -0.011620676 0.0018085528 -0.0036516332 -0.07766892 -0.104892105 0.029436309 0.12410497
0.032076485 0.02449614 -0.00050998013 -0.002299405 -0.016517702 0.0063940478 -0.022991713 -0.0042608376
0.008085979 0.01688957 0.015102609 -0.04060331 -0.060394727 0.016701216 0.024369942 -0.0058828155
0.07293139 -0.030407613 -0.066891074 0.02589196 -0.043738786 -0.037251063 -0.15778275 -0.062219348
0.046107102 0.08424834 0.0018785463 0.0038212794 -0.00626901 0.03641635 -0.035313703 -0.007881687
-0.002205746 -0.03516736 0.052940544 -0.06627242 -0.47892228 -0.0066109593 -0.013836139 0.23639187
0.026262846 -0.18987708 0.00271543 -1.1821879 -0.02223217 0.011501546 0.0664626 0.030767292
-0.022291092 -0.3133883 -0.006627588 0.022707753 0.0663515 -0.011995296 -0.007123928 -0.05863521
-0.03092616 0.027653133 -0.11215159 -0.0190624 -0.047011673 0.03545797 0.09022621 -0.008269992
-0.27735543 -0.026579544 -0.027850641 -0.03574278 0.019478071 0.023019774 0.030773016 0.029961016
0.028043427 -0.06177308 0.0015607199 0.21529998 0.016175626 0.04260356 0.041416444 -0.45014802
0.009315764 0.0800151 -0.026854277 -0.05329303 -0.0007533729 -0.012766725 0.020285256 0.17726022
0.054842837 0.008025475 0.31181288 0.028323319 0.011343206 0.040676396 0.02630393 0.002536155
0.021688908 0.039327327 0.05427939 -0.0037547185 0.005976684 0.029689949 0.050168112 -0.019018466
0.009955683 -0.025107112 -0.25660148 -0.019451872 -0.061837442 0.0029006146 -0.031429917 -0.60653406
-0.008287416 0.12073147 0.036006056 0.33109725 -0.0074715484 0.0008904562 0.058872618 0.030985458
0.0074176267 -0.029784048 -0.01973665 -0.025046062 0.0050464636 -0.022244068 0.20331518 0.03495288
-0.010583331 -0.063110195 -0.011005548 0.029770007 0.025434233 -0.02304257 -0.018028056 -0.014903555
-0.020968262 -0.0024258022 0.028848734 0.16480662 -0.021107187 -0.004664952 0.03825689 -0.013794275
-0.06523577 -0.0069506946 0.06171473 -0.019151364 -0.051966496 -0.027398154 -0.04954785 0.0212235
-9.371744e-05 0.012709534 -0.07396844 -0.079121724 0.0172369 0.010285316 -0.021749299 0.05423664
00000000: d485 063c 2b30 46bc fadc dabb 56e0 6a3d
00000010: 7354 08bb 25af 17bf 5bcc 943c d17d 04bd
00000020: d683 b63c 00a1 23bc 844e c5bf 13be d63c
00000030: 0e43 0bbc d214 b4bb f4c2 1d3b 7214 b8be
00000040: 6970 0c3d 70b8 07bc 7591 21bd 5238 583d
00000050: e935 22bd 7224 253d 7c3e 183e 1599 d4bd
00000060: 3977 37bb d010 8bbb b135 313d e871 7bbc
00000070: 70f0 5bbc 7aff ac3c bb91 c23c 1b2e 4abd
00000080: 99f8 73bc 982a 14bf 273b 44bd 50eb 103d
00000090: 22a1 a0bc 4263 d93d 82fa 1dbd fb35 aabe
000000a0: 60be 4a3b 0d56 d43c 0ece 4bbd 18f6 803c
000000b0: 4a83 36be 145e d5bd 6c56 7b3c 427c 5e3c
000000c0: 5056 d93d 195c fbbb 7da7 8f3c 3604 563c
000000d0: 5b38 8a3b 8831 f53c 5f68 f3bc e9dd fc3b
000000e0: 9415 d9bc 5526 e4bc 2291 c63c dae0 80bf
000000f0: f085 9c3e 1aec 55bf 170a 813c 5edc e9bd
00000100: dec4 d53c 5298 d63c 1033 bdbd 237d a73c
00000110: 3bad 2ebf 2642 96bd d6f6 053c 0f00 373d
00000120: c082 e1bb 164e e6bb 6eba 0b3c 3869 99bf
00000130: bebc 95be a4f2 0dba cf92 00bd 2264 003d
00000140: 8092 923e acbb d7bc 8173 77bc 5946 ccbe
00000150: cb0a 92bc 3733 783c 9ce5 c7bc caf3 18bc
00000160: a29b 413d a664 3ebc f60c ed3a 3d50 6fbb
00000170: e210 9fbd acd1 d6bd 6a24 f13c bf2a fe3d
00000180: a262 033d 21ac c83c 30b0 05ba 9db1 16bb
00000190: 2250 87bc 2985 d13b 1e59 bcbc 7f9e 8bbb
000001a0: 0e7b 043c ff5b 8a3c ef70 773c a84f 26bd
000001b0: 7660 77bd fdd0 883c 79a3 c73c a2c4 c0bb
000001c0: 0d5d 953d 6319 f9bc 30fe 88bd 601b d43c
000001d0: 7127 33bd 9294 18bd cd91 21be b7d9 7ebd
000001e0: cdda 3c3d 658a ac3d 8e39 f63a 6e6e 7a3b
000001f0: 446c cdbb 5029 153d 1aa5 10bd 3122 01bc
00000200: 478e 10bb a60b 10bd 2fd8 583d d6b9 87bd
00000210: 4d35 f5be bfa0 d8bb f9b0 62bc b610 723e
00000220: 2e25 d73c 236f 42be 5bf5 313b ef51 97bf
00000230: 3d20 b6bc fb70 3c3c 8b1d 883d b00b fc3c
00000240: cf9b b6bc 6e74 a0be 3d2c d9bb 9c05 ba3c
00000250: 4ce3 873d eb87 44bc d76f e9bb 792b 70bd
00000260: dc58 fdbc d388 e23c bcaf e5bd c028 9cbc
00000270: 508f 40bd 603c 113d 85c8 b83d dc7e 07bc
00000280: 8801 8ebe 58bd d9bc 0727 e4bc 0567 12bd
00000290: 7a90 9f3c f793 bc3c b117 fc3c ce70 f53c
000002a0: 54bb e53c c505 7dbd 1291 cc3a 9977 5c3e
000002b0: bf82 843c 1281 2e3d 4aa4 293d cd79 e6be
000002c0: 25a1 183c f5de a33d 80fd dbbc cb49 5abd
000002d0: 007e 45ba 872b 51bc 442d a63c b483 353e
000002e0: e2a2 603d 487d 033c f0a5 9f3e 4e06 e83c
000002f0: dbd8 393c 4b9c 263d 577b d73c 9f35 263b
00000300: f0ac b13c b115 213d 1154 5e3d b911 76bb
00000310: 0fd8 c33b 5638 f33c 147d 4d3d 9dcc 9bbc
00000320: 291d 233c 6ead cdbc 4561 83be 8859 9fbc
00000330: 4249 7dbd 3d18 3e3b a8bc 00bd d145 1bbf
00000340: f1c7 07bc 1042 f73d 167b 133d 9485 a93e
00000350: e4d3 f4bb 816d 693a 6a24 713d 37d5 fd3c
00000360: 900f f33b adfd f3bc c1ae a1bc 662d cdbc
00000370: ce5c a53b 3139 b6bc db31 503e c02a 0f3d
00000380: b565 2dbc eb3f 81bd 9d50 34bc 3be0 f33c
00000390: 745b d03c c6c3 bcbc 93af 93bc 0a2e 74bc
000003a0: a2c5 abbc 35fa 1ebb 2e54 ec3c 11c3 283e
000003b0: fbe8 acbc 74dc 98bb 42b3 1c3d 6201 62bc
000003c0: 559a 85bd a7c2 e3bb 96c8 7c3d 52e3 9cbc
000003d0: d2da 54bd 1872 e0bc b0f2 4abd e8dc ad3c
000003e0: 2b8a c4b8 a63b 503c c47c 97bd 920a a2bd
000003f0: 6634 8d3c be83 283c 962b b2bc 3d27 5e3d

linear3.bias f4 [3]
0.54714847 0.7355644 0.6827384
00000000: ec11 0c3f f34d 3c3f f2c7 2e3f
