checkpoint_game_1100.pth (torch, 281418 bytes, 6 tensors)

linear1.weight f4 [256, 11]
0	0xbe540c29	-0.20707764
1	0x3e377a97	0.17917858
2	0xbdff4a64	-0.12465361
3	0x3e16ad35	0.1471451
4	0x3db32b12	0.087484494
5	0x3dedbb3b	0.11607977
6	0xbe457244	-0.1928187
7	0xbe286009	-0.16442885
8	0xbddf3d11	-0.10900319
9	0xbe16199c	-0.14658207
10	0xbe878f9d	-0.26476756
11	0x3e462ee1	0.1935382
12	0x3e05a227	0.13050137
13	0xbe1df010	-0.15423608
14	0xbdf66edd	-0.12032864
15	0xbcbc4db9	-0.02298628
16	0xbd7d6e81	-0.061872963
17	0xbe43cd14	-0.191212
18	0xbd3d3cb9	-0.046200488
19	0xbe8207e9	-0.2539666
20	0xbc781e3a	-0.015143925
21	0xbe30ad07	-0.17253505
22	0x3e15a5f3	0.14614086
23	0x3e0d917e	0.13825032
24	0x3e4ddae8	0.20103037
25	0xbef42173	-0.4768177
26	0x3e3a9c67	0.18223725
27	0xbee53726	-0.44768637
28	0x3f125b66	0.5717071
29	0xbeaa5cc2	-0.33273894
30	0xbf2add43	-0.6674387
31	0xbf426606	-0.75936925
32	0x3e5964c5	0.21229847
33	0xbd8777ce	-0.06614648
34	0x3d96e9a2	0.07368781
35	0x3e22cc26	0.15898189
36	0x3c4669ac	0.012110155
37	0xbd26def9	-0.040739987
38	0xbf05a723	-0.52208155
39	0xbeb573aa	-0.35439807
40	0xbe3ae83a	-0.1825265
41	0x3d0f7182	0.03502036
42	0xbed53f08	-0.41649652
43	0xbea12931	-0.3147674
44	0x3cc3e4d7	0.02391283
45	0xbe5ae30a	-0.21375671
46	0xbe6d944b	-0.232011
47	0x3bd4ddad	0.0064961524
48	0xbd835e98	-0.06414527
49	0xbea1f843	-0.3163472
50	0x3f1a147e	0.6018752
51	0xbeef82b3	-0.46779403
52	0xbf080d2c	-0.531451
53	0x3ea300cd	0.31836548
54	0xbe8edb1b	-0.2790154
55	0xbd9dadaa	-0.076991394
56	0x3e412c8d	0.18864651
57	0xbe9a7c0b	-0.30172762
58	0xbee2efa9	-0.4432347
59	0xbd18fc95	-0.037350256
60	0xbf073572	-0.52815926
61	0xbb997eea	-0.004684319
62	0xbe92e919	-0.28693464
63	0xbe84313a	-0.25818807
64	0xbdad8228	-0.08472091
65	0xbef1688e	-0.4715008
66	0x3f2ec28d	0.6826561
67	0xbedcb9a0	-0.4311037
68	0xbe8becf2	-0.27329212
69	0x3e8b2a24	0.27180588
70	0xbcc829fc	-0.024434082
71	0xbefa49cf	-0.48884436
72	0xbed22c04	-0.41049206
73	0xbda4b202	-0.08041765
74	0x3e5a020f	0.21289848
75	0x3f010c0f	0.50409025
76	0x3ee9d198	0.4566772
77	0xbeb65d18	-0.356179
78	0x3e3af61a	0.18257943
79	0x3ec81927	0.3908169
80	0xbeed29a3	-0.4632083
81	0xbef92470	-0.48660612
82	0x3e91ace5	0.2845222
83	0x3e93d215	0.28871217
84	0xbe5db92b	-0.21652667
85	0xbea32e1b	-0.31871113
86	0x3e227008	0.15863049
87	0x3e3771db	0.17914526
88	0x3ea1a964	0.31574547
89	0x3dfeb5a1	0.12436987
90	0xbc828830	-0.01593408
91	0x3eb275af	0.3485541
92	0x3e7c43dc	0.24635261
93	0xbf3dd3b8	-0.7415118
94	0xbee0c791	-0.43902257
95	0xbf5d8474	-0.8653023
96	0xbf30cdd3	-0.6906406
97	0x3e241d69	0.16026844
98	0x3ea8ebf6	0.32992524
99	0xbe79a27d	-0.2437839
100	0x3eca8527	0.39554712
101	0x3f19303a	0.5983921
102	0xbe38b9ea	-0.1803967
103	0xbe46645f	-0.19374226
104	0xbec2e14d	-0.38062516
105	0xbe32bdc1	-0.17455198
106	0x3c66b2c4	0.014080707
107	0xbe3b3d93	-0.18285207
108	0xbe246944	-0.1605578
109	0xbea4b5e5	-0.32170025
110	0xbe548578	-0.2075404
111	0xbd6601c2	-0.05615402
112	0xbbf5d7b8	-0.0075025223
113	0xbe9449df	-0.2896261
114	0x3d959d6f	0.07305419
115	0x3ef39158	0.47571826
116	0xbea09338	-0.3136232
117	0xbebce67a	-0.3689459
118	0xbe6a1d8b	-0.22862832
119	0x3ee41bb0	0.44552374
120	0xbe578c2c	-0.21049565
121	0xbe502d57	-0.20329796
122	0x3f111f33	0.5668823
123	0xbced7965	-0.02898855
124	0x3e714a2f	0.23563455
125	0x3d8d721f	0.069065325
126	0xbe8b9234	-0.27259982
127	0xbf3d548c	-0.73957133
128	0x3e6b2d3f	0.22966479
129	0x3e9f8f81	0.31164172
130	0xbec9d9ed	-0.39424077
131	0xbefb6356	-0.49099225
132	0xbe29400e	-0.16528341
133	0x3e710ed6	0.23540816
134	0x3d0729b0	0.03299874
135	0xbe53b9be	-0.20676324
136	0xbed97ece	-0.42479557
137	0xbe373f0e	-0.17895147
138	0xbe0e9da8	-0.13927329
139	0xbdaae468	-0.08344346
140	0xbcd3b16b	-0.025841435
141	0xbe6dbee8	-0.23217356
142	0xbe582fc4	-0.21111971
143	0x3ddd7d5f	0.10814928
144	0x3e7d04cc	0.24708861
145	0xbd73ee4d	-0.059553433
146	0x3d4d1eb8	0.050078124
147	0x3c4907a3	0.012269887
148	0xbe50c192	-0.20386341
149	0x3cee406f	0.029083459
150	0x37f1a9ef	2.880857e-05
151	0xbe031c9c	-0.12803882
152	0x3d9bb417	0.07602709
153	0xbe534449	-0.20631517
154	0x3e1b3a06	0.15158853
155	0x3e80f88c	0.25189626
156	0xbf0458d3	-0.51698035
157	0x3dfdbe01	0.12389756
158	0xbedd07bb	-0.4316996
159	0x3ef9c868	0.4878571
160	0xbea92f3a	-0.33043844
161	0xbec0535e	-0.37563604
162	0xbf2ee3be	-0.68316257
163	0xbf33e473	-0.7027046
164	0x3e17ce81	0.14824869
165	0xbef47418	-0.47744823
166	0x3e925780	0.28582382
167	0x3e5ee504	0.2176705
168	0xbef7422b	-0.4829267
169	0x3db59c64	0.0886772
170	0x3e9c5249	0.3053153
171	0xbd6f17da	-0.058372356
172	0xbf2ac053	-0.66699713
173	0xbeb98796	-0.36236256
174	0xbf469c17	-0.77581924
175	0xbe876c1e	-0.26449674
176	0x3d8b3c78	0.06798643
177	0x3e123e43	0.14281563
178	0x3d91dbe2	0.071220174
179	0xbc503f1e	-0.012710361
180	0xbcea0e70	-0.028571337
181	0x3c6b8d41	0.014376939
182	0xbea60cf5	-0.3243176
183	0xbef864ea	-0.4851449
184	0xbe6c8505	-0.23097618
185	0xbde4be9f	-0.111691706
186	0xbf0095d3	-0.50228614
187	0x3dc1d108	0.09463698
188	0xbefa90b8	-0.48938537
189	0xbcf9ffd3	-0.030517494
190	0xbc91988c	-0.017772935
191	0xbddbe34e	-0.10736714
192	0xbdee1d1f	-0.11626648
193	0xbcd05d36	-0.025435071
194	0x3d0b4ac6	0.034006856
195	0xbedaab99	-0.42709044
196	0xbb0fc4bd	-0.0021937334
197	0xbba4d619	-0.0050304052
198	0x3e20f220	0.15717363
199	0xbe9ac100	-0.30225372
200	0xbdb1ade2	-0.08675744
201	0xbe735f22	-0.23766759
202	0x3ede53af	0.4342322
203	0xbefdcaf0	-0.49568892
204	0xbeed7ff1	-0.46386674
205	0x3f12276c	0.57091403
206	0xbe9ab7e9	-0.30218437
207	0xbf5ecc99	-0.8703094
208	0xbf414b3a	-0.7550541
209	0xbe833525	-0.25626484
210	0xbe33c194	-0.17554313
211	0xbe6d85c6	-0.23195562
212	0xbe375de5	-0.17906912
213	0xbddc24ee	-0.10749231
214	0x3e16088b	0.14651696
215	0xbe250081	-0.16113473
216	0xbea98168	-0.33106542
217	0xbe6ad67d	-0.22933383
218	0xbe0947f7	-0.13406359
219	0x3e011147	0.12604247
220	0xbdee0560	-0.11622119
221	0x3d2144ee	0.039372377
222	0x3d8e4672	0.0694703
223	0x3c6fa066	0.014625644
224	0xbf0487ea	-0.5176989
225	0xbe9a84ee	-0.30179542
226	0xbdef70c5	-0.11691431
227	0xbf02459a	-0.50887454
228	0xbed61806	-0.41815203
229	0xbdc28591	-0.09498132
230	0xbd29936e	-0.041400366
231	0xbd38026a	-0.044924177
232	0x3f44ecda	0.76923907
233	0xbe128016	-0.14306673
234	0x3eb705fa	0.35746747
235	0xbe4b893b	-0.19876568
236	0xbe4e5c85	-0.20152481
237	0x3e666576	0.22499642
238	0xbde87e8b	-0.11352261
239	0x3e045bbf	0.12925623
240	0xbeafcd1f	-0.34336182
241	0x3e2304fd	0.15919872
242	0x3e3d2369	0.18470539
243	0xbe883ba1	-0.26607993
244	0x3e25655b	0.16151945
245	0xbf27b4b5	-0.6551011
246	0xbe496f93	-0.19671468
247	0xbea1d5bc	-0.3160838
248	0x3da7e84b	0.08198603
249	0x3dd43b59	0.10362882
250	0xbe3438e9	-0.17599835
251	0xbeb97ec7	-0.36229536
252	0xbecedd5b	-0.40403256
253	0x3ec1082f	0.37701556
254	0x3f0a2368	0.53960276
255	0x3f04039d	0.51568013

linear1.bias f4 [256]
0	0xbe9d2207	-0.30690023
1	0xbeb06a55	-0.34456125
2	0x3ce994de	0.028513368
3	0xbe98f2ec	-0.29872835
4	0xbe888943	-0.26667222
5	0xbe01f4c6	-0.1269103
6	0xbdae0246	-0.084965274
7	0xbeaeea05	-0.34162918
8	0xbd68b41a	-0.056812383
9	0xbdc270ed	-0.09494195
10	0xbe95d751	-0.29265836
11	0xbd6bd961	-0.057580356
12	0xbe13e4e9	-0.14442791
13	0xbef7aa91	-0.4837232
14	0x3d3c823f	0.04602265
15	0xbdcbc242	-0.09949161
16	0xbe8a4522	-0.2700587
17	0xbe7e6e9e	-0.24846885
18	0xbeb65938	-0.35614944
19	0xbe98b442	-0.29825026
20	0xbde41a76	-0.111378595
21	0xbd9f1ef2	-0.07769574
22	0xbe78c3c6	-0.24293432
23	0xbe49ba3a	-0.19699946
24	0xbdec5a7a	-0.115406945
25	0xbe8e0e43	-0.27745256
26	0xbddfb05c	-0.1092231
27	0xbec86c15	-0.3914496
28	0xbef403b9	-0.4765909
29	0x3eae0cfb	0.33994278
30	0xbea334f1	-0.3187633
31	0xbd7f15e9	-0.062276755
32	0xbdee28b0	-0.11628854
33	0x3eb04a17	0.34431526
34	0xbd0a9663	-0.033834826
35	0xbeb9e303	-0.3630601
36	0xbe41921c	-0.18903393
37	0xbe1da915	-0.15396531
38	0xbe9db2d4	-0.30800498
39	0xbe0c2fa0	-0.13690042
40	0xbe6cc61f	-0.23122452
41	0x3d81ccec	0.06337914
42	0xbde05d01	-0.10955239
43	0xbe384b74	-0.17997533
44	0xbe0ab141	-0.1354418
45	0xbd2d46de	-0.042303912
46	0xbe8540e7	-0.2602608
47	0xbe60562e	-0.21907875
48	0x3e33c3bb	0.17555134
49	0xbe8dc7b6	-0.2769143
50	0xbd754637	-0.059881415
51	0xbeb60370	-0.35549498
52	0xbeaa4fd4	-0.3326403
53	0x3dd371e9	0.10324461
54	0x3ed021c6	0.40650767
55	0x3f64fbab	0.89446515
56	0x3c9ad28d	0.018899227
57	0xbeabba0e	-0.33540386
58	0x3f674ed1	0.9035464
59	0xbd872d66	-0.06600456
60	0xbd8f63ba	-0.07001443
61	0xbe8085f4	-0.25102198
62	0xbe361271	-0.17780472
63	0xbcf672bb	-0.030084005
64	0xbea52ffc	-0.32263172
65	0xbe96a9f5	-0.29426542
66	0xbe94945b	-0.29019436
67	0xbd637bd0	-0.055538
68	0xbd504583	-0.05084754
69	0xbec5d4e0	-0.38638973
70	0x3dac8616	0.08424012
71	0x3c9d3c67	0.019193841
72	0x3fa05366	1.2525451
73	0xbe8b67ad	-0.27227536
74	0xbe8f9592	-0.280438
75	0xbd556429	-0.052097473
76	0xbdd21c48	-0.102593005
77	0xbe51d121	-0.20489933
78	0xbe68add9	-0.22722568
79	0xbecdc549	-0.4018958
80	0x3e75aae3	0.2399097
81	0x3edf8bb7	0.4366128
82	0xbdbfb339	-0.09360356
83	0xbdf07c5c	-0.1174247
84	0xbdb8cd0f	-0.09023487
85	0xbe8519ac	-0.2599615
86	0xbdbc8032	-0.09204139
87	0xbed47ecd	-0.4150299
88	0x3d89db1f	0.06731247
89	0xbea3968e	-0.31950802
90	0xbea5fbf0	-0.32418776
91	0x3dfe5f9a	0.12420578
92	0x3e5bbdfa	0.21459189
93	0xbd1f93c4	-0.03895928
94	0xbed4ed80	-0.41587448
95	0xbedb3024	-0.42810166
96	0xbebe2b50	-0.3714242
97	0xbe4969d9	-0.19669284
98	0xbdec0ed9	-0.115262695
99	0xbee109e1	-0.4395285
100	0xbe83ac6b	-0.25717482
101	0x3d47976c	0.04872839
102	0x3d0262df	0.031832572
103	0xbeb1ea1e	-0.3474893
104	0xbde44e63	-0.111477636
105	0xbbef480f	-0.007302291
106	0xbca3af66	-0.019981097
107	0xbe41bbff	-0.18919371
108	0xbdc28f31	-0.09499968
109	0xbf0107bb	-0.5040242
110	0xbe7f718f	-0.24945663
111	0xbde7675c	-0.11299011
112	0xbe8e4121	-0.27784064
113	0xbe0d6843	-0.13809304
114	0x3e03f204	0.1288529
115	0x3e3c6ef8	0.18401706
116	0xbd907902	-0.070543304
117	0x3f5f797f	0.87294763
118	0xbdfba221	-0.12286783
119	0xbeaae131	-0.33374932
120	0x3ead0a23	0.33796796
121	0x3e16d248	0.14728653
122	0xbee0c2a2	-0.43898493
123	0xbe461656	-0.19344458
124	0xbde60593	-0.11231532
125	0xbe8f25db	-0.2795857
126	0xbec814cd	-0.3907837
127	0x3d4534fe	0.04814624
128	0x3f3c66fd	0.7359465
129	0xbe97804a	-0.29590064
130	0x3c91cfb1	0.01779923
131	0xbd202a39	-0.039102767
132	0xbdc09701	-0.09403802
133	0x3db74546	0.0894876
134	0xbda8c55d	-0.08240769
135	0xbe818ff2	-0.25305134
136	0xbcf45e18	-0.029830024
137	0x3ea88195	0.32911363
138	0x3e0582a9	0.13038124
139	0x3eb25739	0.3483217
140	0xbce2e8ac	-0.027698837
141	0xbe1e7ef3	-0.15478115
142	0xbe4cd165	-0.20001753
143	0xbed6300b	-0.4183353
144	0xbe00aba3	-0.12565474
145	0xbe87e10b	-0.26538882
146	0x3fd10b48	1.6331568
147	0xbddf7749	-0.10911424
148	0xbea728dc	-0.3264836
149	0x3de760d2	0.11297764
150	0xbe6b451d	-0.22975583
151	0x3e8746d1	0.26421216
152	0xbe0b75bf	-0.13619135
153	0xbe2b4855	-0.16726811
154	0x3dc972af	0.09836327
155	0xbdb961c5	-0.09051851
156	0xbe9c2e41	-0.3050404
157	0xbe7d2623	-0.24721579
158	0x3d4ad5b5	0.049520213
159	0x3da69ea6	0.081357285
160	0xbe1f68bb	-0.15567295
161	0x3e2a1faf	0.16613649
162	0xbedf920b	-0.4366611
163	0xbe9c6db4	-0.30552447
164	0x3e0342fa	0.12818518
165	0x3f50043f	0.8125648
166	0xbeb4203e	-0.3518085
167	0xbe1e2d1b	-0.15446894
168	0xbea90e0a	-0.33018523
169	0xbe700b47	-0.23441802
170	0xbc8b8a4b	-0.017033717
171	0x3e0a048f	0.13478301
172	0x3eb295de	0.34879965
173	0x3d6e65bb	0.058202486
174	0xbd6817c6	-0.056663297
175	0x3ed2b2f4	0.41152155
176	0x3e8c5d75	0.27415052
177	0xbe299d8f	-0.1656401
178	0xbe3da3b0	-0.18519473
179	0xbebec0dd	-0.37256518
180	0x3de78dab	0.11306318
181	0x3ec880e0	0.39160824
182	0xbe463ebc	-0.19359869
183	0x3d2583c9	0.040408883
184	0xbec30534	-0.38089907
185	0x3df84228	0.12121993
186	0x3df38381	0.11890317
187	0x3dcdb9f4	0.10045233
188	0x3e3ebd17	0.1862682
189	0xbec191e5	-0.3780662
190	0xbd46d383	-0.048541557
191	0xbd7a1e06	-0.06106379
192	0xbe7b7688	-0.24556935
193	0xbeba914d	-0.3643898
194	0xbe094e0f	-0.13408683
195	0xbdcf04fe	-0.10108374
196	0xbddeaf73	-0.10873308
197	0xbf16ae83	-0.58860034
198	0x3da15091	0.07876695
199	0x3cebeebb	0.028800359
200	0xbdd15e44	-0.10223058
201	0xbf09c355	-0.5381368
202	0xbe1664aa	-0.14686838
203	0xbe74bab5	-0.23899348
204	0x3e0dc538	0.13844764
205	0xbe9ac855	-0.30230966
206	0xbe408668	-0.18801272
207	0xbd48beaa	-0.049009956
208	0xbedcaff6	-0.43102998
209	0xbd82b275	-0.06381694
210	0x3fba422a	1.4551442
211	0x3e9c57f9	0.30535868
212	0xbe903876	-0.28168076
213	0x3da432ed	0.08017526
214	0xbe86d52f	-0.2633452
215	0xbe98c8cd	-0.298407
216	0xbd505ac2	-0.050867803
217	0xbe8595e4	-0.2609092
218	0xbf024193	-0.5088131
219	0xbce39cc0	-0.027784705
220	0xbd01c38b	-0.031680625
221	0x3e30ab66	0.17252883
222	0xbe8eb0ae	-0.2786917
223	0x3eb4cea9	0.3531392
224	0xbe82aec3	-0.25523958
225	0x3e1e730b	0.15473573
226	0xbe8cb1b7	-0.27479336
227	0xbe50bfbb	-0.2038564
228	0xbc1af0df	-0.009456842
229	0xbe87e668	-0.26542974
230	0xbe72fc91	-0.23729159
231	0xbefcc2e0	-0.49367428
232	0x3e102cdb	0.14079611
233	0xbe65f511	-0.22456767
234	0xbbe13ee7	-0.0068739536
235	0xbebb1b61	-0.36544326
236	0xbdde5139	-0.10855336
237	0xbd2c43b3	-0.04205675
238	0x3d21b5ab	0.039479893
239	0x3e11bd44	0.14232355
240	0xbe22e107	-0.15906154
241	0xbe1ad1f6	-0.15119156
242	0xbdaef7b2	-0.08543338
243	0xbdfca609	-0.12336356
244	0xbe26f710	-0.16305184
245	0x3cf61dcd	0.030043507
246	0xbea59d7e	-0.3234672
247	0xbe2e9ccc	-0.17052001
248	0xbd88c436	-0.06678049
249	0x3ebc6a84	0.36800015
250	0x3fdad094	1.7094903
251	0x3e339623	0.17537741
252	0xbe757bca	-0.23973003
253	0xbeb4d757	-0.3532054
254	0xbdd00cdb	-0.10158702
255	0xbea1a1b2	-0.31568676

linear2.weight f4 [256, 256]
0	0x39c01a00	0.00036640465
1	0xbb79e740	-0.003813222
2	0x3db3ef6a	0.08785899
3	0x3b5c7447	0.0033638643
4	0xbbb86ccf	-0.0056282054
5	0xbc318929	-0.010835924
6	0x3c97f707	0.018550409
7	0xbd0b1e4a	-0.033964433
8	0xbd49215f	-0.04910409
9	0xbd07862b	-0.033086937
10	0xbd7381e7	-0.059450056
11	0x3c3ae848	0.011407919
12	0x3ca9ced7	0.020728512
13	0xbc1f2e56	-0.009715637
14	0xb9950643	-0.0002842416
15	0xbd464d8f	-0.04841381
16	0xbd7b65d8	-0.061376423
17	0xbbcedeab	-0.006313165
18	0x3d1fb914	0.038994864
19	0x3c8f22e4	0.017472692
20	0xbd859004	-0.065216094
21	0xbb81e178	-0.0039636455
22	0xbc5df652	-0.013547497
23	0xbbde59cc	-0.006785607
24	0xbd082f18	-0.033248037
25	0xbd455ca1	-0.04818404
26	0xbd886fbd	-0.066619374
27	0xbca8c59f	-0.020602046
28	0xbd3e5b7c	-0.046473965
29	0xbd457e12	-0.048215933
30	0xbb97bdc8	-0.004630778
31	0xba9420ef	-0.0011301319
32	0xbdf078b8	-0.11741775
33	0xbda0e5e5	-0.07856349
34	0xbd6b8969	-0.05750409
35	0xbdb66516	-0.08905999
36	0xbd9cb182	-0.076510444
37	0xbd53eab6	-0.05173751
38	0x3d5f99e8	0.054590136
39	0xbcec025c	-0.028809719
40	0x3ca61183	0.020272022
41	0x3cb1099f	0.021611033
42	0x3c87bff2	0.016571019
43	0x3bf00930	0.007325314
44	0xbbab8ca6	-0.0052352725
45	0xbceba2ec	-0.02876421
46	0xbd6d3bd3	-0.05791838
47	0x3d920fce	0.07131921
48	0xbcb6caca	-0.022313494
49	0xbc3130e0	-0.010814875
50	0xbd411692	-0.047140665
51	0x3c87e77d	0.016589874
52	0xbd68ddf2	-0.05685229
53	0xbc3cbfb1	-0.011520312
54	0xbd819134	-0.063265234
55	0xbd6e6e48	-0.05821064
56	0xbd035951	-0.0320676
57	0x3c03c62e	0.008042855
58	0xbdd8728f	-0.10568725
59	0x3d2c23a5	0.04202618
60	0x3d0ddceb	0.034634512
61	0xbd2e3100	-0.0425272
62	0xbc3b8890	-0.011446133
63	0xbd944b4b	-0.072409235
64	0xbd83ef27	-0.06442099
65	0x3c67b63d	0.01414257
66	0x3c87e2a0	0.016587555
67	0x3d98ba74	0.07457438
68	0xbd7b08df	-0.061287757
69	0x3ce8ea6d	0.028432095
70	0xba2b3f4b	-0.0006532564
71	0xbdb90d86	-0.090357825
72	0xbd86e44c	-0.06586513
73	0xbc9442fd	-0.018098349
74	0xbd550b97	-0.052013006
75	0xbd392587	-0.045201804
76	0xbaa24d8e	-0.0012382732
77	0x3d6ac345	0.05731513
78	0x3d5246d0	0.051337063
79	0x3c86bff4	0.016448952
80	0xbdd84c50	-0.105614305
81	0xbd1b7437	-0.037952628
82	0x3bd4b1a9	0.0064909053
83	0xbd23bf31	-0.039977256
84	0xbdd3f53e	-0.103495106
85	0xbccf047c	-0.025270693
86	0xbd5636e7	-0.052298453
87	0xbd9a4540	-0.0753274
88	0xbc12f371	-0.008969174
89	0xbd440115	-0.047852594
90	0xbc868be9	-0.016424136
91	0xbd655c62	-0.055996306
92	0x3aad04df	0.0013200304
93	0x3c1ea0b8	0.009681873
94	0x3d014744	0.031562105
95	0xbd1ff279	-0.0390496
96	0x3d479414	0.048725203
97	0xbbfeb95b	-0.007773561
98	0x3cb0225b	0.021500757
99	0xbdb54f08	-0.08852965
100	0xbba354b9	-0.004984465
101	0xbdceba8a	-0.10094173
102	0xbd874368	-0.066046536
103	0xbd7fd8a6	-0.06246247
104	0xbd0c48f9	-0.03424928
105	0xbd53dffc	-0.05172728
106	0x3d1ee6b8	0.03879425
107	0xbd5baefc	-0.053633675
108	0xbd823fcc	-0.063598245
109	0xbd9f62fe	-0.07782553
110	0xbc7e520e	-0.015522493
111	0xbd7f85d4	-0.062383488
112	0xbc402a5b	-0.011728848
113	0xbd299720	-0.04140389
114	0xbd8c02eb	-0.06836494
115	0xbc422bc0	-0.011851251
116	0x3b87036b	0.0041202805
117	0xbdd6ac42	-0.10482074
118	0x3d29017c	0.04126118
119	0xbd0d520c	-0.034502074
120	0xbdc00d52	-0.09377541
121	0xbd14f281	-0.036364082
122	0xbd688685	-0.056768913
123	0xbd1ad6a1	-0.037802342
124	0xbc23649b	-0.009972717
125	0xbd881814	-0.066452175
126	0xbd53e436	-0.05173131
127	0xbd7a5b0a	-0.061121978
128	0xbdf3961b	-0.11893865
129	0xbdb80cd6	-0.08986823
130	0x3cbbbfc6	0.022918593
131	0xbd1918fa	-0.037377335
132	0x3d9367c2	0.071975246
133	0x3d518ce8	0.05115977
134	0xbd97005b	-0.07373115
135	0xbc5f66f5	-0.013635387
136	0xbc7030e1	-0.014660091
137	0x3d8669cd	0.06563149
138	0x3c149bd0	0.009070352
139	0xbd3fa5ef	-0.046789106
140	0xbcdd276d	-0.026996339
141	0xbd2e125d	-0.04249798
142	0xbcab428b	-0.020905754
143	0xbc3f6ec0	-0.01168412
144	0x3c6ef961	0.014585824
145	0xbdbb2084	-0.09137061
146	0xbc894fca	-0.01676168
147	0xbd471de8	-0.048612505
148	0xbc81c920	-0.015842974
149	0xbd2cbf98	-0.042174906
150	0x3cb3c7a9	0.021945791
151	0xbcd35793	-0.025798595
152	0xbc1731a2	-0.009228142
153	0x3da12ff5	0.07870475
154	0xbd3b21f9	-0.045686696
155	0xbd46a150	-0.048493683
156	0xbce70350	-0.028199822
157	0xbd1d58cc	-0.03841476
158	0x3ca24347	0.019807471
159	0xbd3a66e4	-0.04550828
160	0xbdb108b8	-0.08644241
161	0xbd5c82d2	-0.053835697
162	0xbd526a91	-0.05137116
163	0xbc802c1c	-0.015646033
164	0x3d1369b6	0.035989486
165	0xbdaa4b66	-0.08315162
166	0xbd5ced58	-0.053937286
167	0xbbf6b17a	-0.007528481
168	0xbc3f3a60	-0.0116716325
169	0xbd9f91d1	-0.07791484
170	0xbaceedf2	-0.0015787466
171	0xbd8264fa	-0.06366916
172	0x3c16ebbc	0.009211477
173	0x3d3fc039	0.046814177
174	0x3d3b194a	0.045678414
175	0x3bbe914e	0.0058156615
176	0x3c4adbfe	0.012381552
177	0x3d075e22	0.033048756
178	0xbcf92421	-0.030412735
179	0x3c8dc68a	0.017306585
180	0xbd545a1a	-0.05184374
181	0xbc9d5ab3	-0.019208288
182	0xbdf9a496	-0.121895954
183	0x3d704648	0.058660775
184	0xbc36222b	-0.011116545
185	0xbd12831a	-0.03576956
186	0x3c8fcee9	0.017554717
187	0xbcee104c	-0.029060505
188	0x39ca2a04	0.00038559746
189	0x3aeb0ac0	0.0017932281
190	0xbd7ccea4	-0.061720505
191	0xbd6186f5	-0.055060346
192	0xbd19db6e	-0.03756278
193	0xbd6aca15	-0.057321627
194	0xbd5e00c1	-0.054199938
195	0x3cf53cd4	0.029936232
196	0xbda50805	-0.0805817
197	0x3d39a1a9	0.045320187
198	0xbddf00cd	-0.108888246
199	0x3d2c63b2	0.042087264
200	0x3c9ca6dd	0.019122535
201	0xbde709b1	-0.11281145
202	0x3d7e836c	0.062137052
203	0x3d74b964	0.059747115
204	0x3a934684	0.0011236225
205	0xbd179652	-0.03700859
206	0xbc1e932e	-0.009678645
207	0xbd3f5aac	-0.04671733
208	0xbd4459c9	-0.04793719
209	0xbd17e2ed	-0.037081648
210	0xbdbe4820	-0.092911005
211	0xbd2a81b1	-0.04162759
212	0xbd2a7ce2	-0.041623004
213	0x3c80511e	0.01566368
214	0xbd9db617	-0.077007465
215	0x3c1f88e0	0.009737223
216	0x3d05ace0	0.03263557
217	0x3d4fc29b	0.0507227
218	0xbccd7995	-0.025082389
219	0x3a6fb406	0.0009143952
220	0xbdbf9df2	-0.093562976
221	0x3c139f4a	0.009010145
222	0x3d090468	0.033451468
223	0xbd2da2fb	-0.04239176
224	0xbc9ff7b1	-0.019527288
225	0xbd4b755a	-0.049672462
226	0xbd3949f6	-0.04523655
227	0xbd10a608	-0.03531459
228	0xbd1bcdc5	-0.038038034
229	0xbbbb0145	-0.0057069384
230	0xbd0821b9	-0.033235285
231	0xbda68622	-0.081310526
232	0xbd1283e1	-0.0357703
233	0x3ccb2173	0.024796223
234	0xbd3b3d25	-0.04571261
235	0xbd07b34b	-0.03312997
236	0x3d287e75	0.041136224
237	0xbd0fd96c	-0.03511946
238	0xbd2ed7b8	-0.042686194
239	0xbd8b24b4	-0.0679411
240	0xb9ec9fcc	-0.00045132486
241	0xbd97db2a	-0.07414849
242	0xbc3fd37d	-0.011708138
243	0xbd8ec173	-0.06970491
244	0x3ab6f300	0.0013957918
245	0xbc527a78	-0.012846582
246	0xbd42b925	-0.04753985
247	0x3d8a6491	0.06757463
248	0x3c9903dc	0.018678598
249	0xbd8a960b	-0.067669
250	0xbd9736b8	-0.07383484
251	0x3c8b1eb9	0.016982423
252	0xbcf4acd0	-0.02986756
253	0xbd900d6a	-0.070338085
254	0x3d1a127d	0.037615288
255	0xbc3c5b2e	-0.011496348

linear2.bias f4 [256]
0	0xb91e45a3	-0.00015093996
1	0xbca9a007	-0.02070619
2	0xbda0adf9	-0.07845683
3	0xbd7b2f56	-0.06132444
4	0xbd0bec71	-0.034161035
5	0x3d791888	0.06081441
6	0x3cb6b345	0.02230228
7	0xbd4ba263	-0.04971541
8	0xbe66ae25	-0.22527368
9	0xbd148f40	-0.036269426
10	0x3e38c2b7	0.18043028
11	0xbd376b29	-0.04477993
12	0xbd3cac23	-0.0460626
13	0xbcd2de9c	-0.025740914
14	0xbd4fda7e	-0.05074548
15	0xbe0a4d83	-0.13506131
16	0xbdd88405	-0.10572056
17	0xbd8e2cbc	-0.06942126
18	0xbcedb604	-0.029017456
19	0x3b79bb35	0.003810597
20	0xbe0a88b0	-0.13528705
21	0xbd72d5c5	-0.059285898
22	0x3e8028eb	0.25031218
23	0xbe11fdf4	-0.14257032
24	0xbdfba6d7	-0.122876815
25	0xbd021810	-0.03176123
26	0xbbdad3d8	-0.006678086
27	0xbd2f00a6	-0.042725228
28	0xbd6b333a	-0.0574219
29	0xbdca1a70	-0.09868324
30	0xbdcbbe25	-0.099483766
31	0x3eeed3bd	0.46645918
32	0xbe36ed30	-0.17863917
33	0xbd968857	-0.073502235
34	0xbd2c27d4	-0.04203017
35	0xbbbc5fb5	-0.005748714
36	0xbdfd0239	-0.123539396
37	0x3dafa73b	0.085768186
38	0x3bd93442	0.006628544
39	0xbdcdc47e	-0.100472435
40	0xbd942669	-0.07233889
41	0xbd050df1	-0.032484
42	0xbdb2799c	-0.087146014
43	0xbd9c82f3	-0.07642164
44	0xbe220b3f	-0.15824603
45	0xbe88722a	-0.266496
46	0xbdd6bc15	-0.104850926
47	0x3e7723f1	0.24134804
48	0x3d39a406	0.04532244
49	0xbddd6f33	-0.10812225
50	0x3c48639f	0.012230783
51	0xbdbc4a48	-0.091938555
52	0xbd2a22c8	-0.041537076
53	0xbdce0637	-0.10059779
54	0xbdc1b812	-0.09458937
55	0xbd2d4bd8	-0.04230866
56	0xbd72aff0	-0.05924982
57	0xbd382edd	-0.044966567
58	0xbd3319b4	-0.043725684
59	0xbdb853d1	-0.09000362
60	0x4024e171	2.5762599
61	0x3b810aea	0.0039380686
62	0xbd877609	-0.0661431
63	0xbd62fd5e	-0.05541741
64	0xbdc1e43a	-0.09467359
65	0x3d5f4b02	0.054514892
66	0xbd8f79c8	-0.0700565
67	0xbbc6c64f	-0.0060661207
68	0xbd494a3e	-0.04914307
69	0xbe4276c4	-0.18990618
70	0xbdc2e9dc	-0.095172614
71	0xbd4e0241	-0.05029512
72	0xbe1bc672	-0.1521242
73	0xbceff771	-0.029292794
74	0xbdfe5a32	-0.12419547
75	0x3dad1930	0.0845207
76	0xbda45f59	-0.080259986
77	0xbdcfedac	-0.10152754
78	0xbd1a637f	-0.037692543
79	0xbdd624d9	-0.10456247
80	0x40146f0d	2.319278
81	0x3eacaae7	0.33724138
82	0x3c9ccd78	0.019140944
83	0xbe3d2a1d	-0.18473096
84	0xbda218c7	-0.07914882
85	0xbd0dd460	-0.034626365
86	0xbd4d5d53	-0.05013783
87	0xbd3323fb	-0.043735486
88	0xbd95479b	-0.07289048
89	0x3c832ecd	0.016013527
90	0xbd422a27	-0.04740348
91	0x3e5d2b32	0.21598509
92	0xbe1aeb93	-0.15128927
93	0xbde19adb	-0.110158645
94	0xbe0edd83	-0.13951688
95	0xbdaeb745	-0.0853105
96	0xbd130c7f	-0.03590059
97	0xbdf30b91	-0.118674405
98	0xbda57e00	-0.08080673
99	0xbcda1197	-0.026619716
100	0xbd1d9f8c	-0.038482234
101	0xbcb232ab	-0.021752676
102	0xbd94bc1b	-0.07262441
103	0xbd81d230	-0.06338918
104	0x3fe3968b	1.7780317
105	0xbc61c498	-0.013779782
106	0xbd551e99	-0.052031133
107	0xbd8903c7	-0.066901736
108	0x3c7ec053	0.015548783
109	0xbe26f192	-0.1630309
110	0xbd64d9ec	-0.05587189
111	0xbd7cafbf	-0.061691042
112	0xbd335f23	-0.0437919
113	0xbce525f5	-0.0279722
114	0xbe0fd95f	-0.14047764
115	0xbd6e53b8	-0.05818531
116	0xbd39856f	-0.045293268
117	0xbdcee35e	-0.101019606
118	0xbd768d45	-0.06019332
119	0xbe352bd5	-0.17692502
120	0xbd2209bc	-0.039560065
121	0xbc14ed2f	-0.009089752
122	0xbdb5b986	-0.088732764
123	0xbe3b354f	-0.18282054
124	0x3da94d08	0.08266646
125	0xbdc4ddf3	-0.09612646
126	0x3e691203	0.22760777
127	0x3c2665ce	0.010156108
128	0xbd7b8d02	-0.061413772
129	0x3c1e92fd	0.009678599
130	0xbd475d74	-0.04867311
131	0xbe008f6e	-0.12554714
132	0xbe92331a	-0.28554612
133	0xbd277d10	-0.040890753
134	0x3cf574c2	0.029962901
135	0x400e8bfa	2.2272935
136	0xbdc4a910	-0.096025586
137	0xbde35983	-0.111010574
138	0xbb942f0c	-0.00452221
139	0x3e5d4b8d	0.21610852
140	0xbdd1e5d9	-0.10248918
141	0xbd83e9b9	-0.064410634
142	0xbd81dae2	-0.06340577
143	0xbd7380c9	-0.05944899
144	0xbdb7cf1b	-0.08975049
145	0xbe058059	-0.13037242
146	0xbda3f5ec	-0.0800589
147	0xbc518352	-0.012787657
148	0xbd422fae	-0.047408752
149	0xbdb8c6dd	-0.09022305
150	0xbc9f43e2	-0.019441549
151	0xbe5f1c03	-0.2178803
152	0xbd8d4017	-0.0689699
153	0xbd9f655a	-0.07783003
154	0xbdaf1074	-0.0854806
155	0xbd18c87d	-0.037300576
156	0xbd98736e	-0.074438915
157	0xbda504d5	-0.08057562
158	0x3f22e781	0.63634497
159	0xbcd38082	-0.025818113
160	0xbdd20720	-0.10255265
161	0xbd4d839c	-0.05017434
162	0xbd9b3fbb	-0.07580515
163	0xbddbb4d8	-0.107278526
164	0xbe20bb38	-0.15696418
165	0x3cd2f3fa	0.025751103
166	0xbd8b9cd7	-0.06817024
167	0xbd4fd95f	-0.05074441
168	0xbde64f3f	-0.11245584
169	0xbe829744	-0.25506032
170	0xbdddd779	-0.10832114
171	0x3cf53aa9	0.029935198
172	0x3f1b1427	0.60577625
173	0xbe57bd4f	-0.21068309
174	0xbd09a77f	-0.033607002
175	0x3c7ab3dc	0.015301671
176	0xbdaf1148	-0.08548218
177	0x3e7f1ca0	0.24913263
178	0xbd9b5b0d	-0.07585726
179	0xbdf4c61b	-0.11951848
180	0xbd9e548b	-0.07730969
181	0xbcde1749	-0.027110713
182	0xbdfdcaa9	-0.1239217
183	0xbe0d6777	-0.13809
184	0xbd94aa88	-0.07259089
185	0xbd8cd24c	-0.068760484
186	0x40239b7e	2.5563655
187	0xbd7210d9	-0.0590981
188	0xbdf0d570	-0.1175946
189	0xbc906c20	-0.017629683
190	0x3e47626c	0.19471139
191	0xbc4e7193	-0.01260032
192	0xbd517836	-0.051140033
193	0xbe06fbf3	-0.13182048
194	0xbdaa0c80	-0.083031654
195	0xbc66a384	-0.014077071
196	0xbdadac0c	-0.08480081
197	0xbd50d680	-0.050985813
198	0xbd8978f7	-0.06712525
199	0xbda929a4	-0.082598954
200	0xbdc8a904	-0.09797862
201	0xbdd16c14	-0.102256924
202	0xbe9be30b	-0.30446658
203	0xbe54d0a3	-0.20782714
204	0xbe77a3b8	-0.24183547
205	0xbda548fa	-0.0807056
206	0xbcdaf4d1	-0.026728066
207	0xbe62550b	-0.22102754
208	0x3bcdd6cd	0.0062817098
209	0x3daa9b9b	0.08330461
210	0xbdb8312d	-0.089937545
211	0x40340a0f	2.813114
212	0xbdd03f3b	-0.1016831
213	0x3d18e4e3	0.03732766
214	0x3cafa52e	0.021441069
215	0xbd91f16c	-0.07126126
216	0x3f0f21ec	0.55911136
217	0xbda495f3	-0.08036413
218	0xbd26ab20	-0.04069054
219	0xbccbb3b3	-0.02486596
220	0x3b662627	0.0035117955
221	0xbd975696	-0.07389562
222	0x400188d6	2.0239768
223	0xbd449250	-0.047991097
224	0xbc8b962d	-0.017039383
225	0xbdd05f0f	-0.10174381
226	0xbd846e72	-0.06466378
227	0x3d208e6d	0.039198328
228	0xbe04dd36	-0.1297501
229	0xbdf414b1	-0.11918009
230	0xbda6e2b4	-0.08148709
231	0xbce0a198	-0.027420804
232	0xbe4d557a	-0.20052138
233	0xbd6ccba1	-0.057811383
234	0xbcc05a3c	-0.023480527
235	0xbd5c7fdf	-0.053832885
236	0xbe44806c	-0.19189614
237	0xbc15227a	-0.009102458
238	0xbe157c20	-0.14598131
239	0x3ea5c99f	0.32380387
240	0xbe6994f1	-0.22810723
241	0xbd98337d	-0.074316956
242	0xbd74fc30	-0.059810817
243	0xbdf5a902	-0.11995126
244	0xbde803f7	-0.11328881
245	0xbc2483dc	-0.010041203
246	0xbb63e4c1	-0.00347738
247	0xbd94806f	-0.07251059
248	0xbd45c8d0	-0.048287213
249	0xbdcf0f51	-0.10110343
250	0xbe80da69	-0.25166634
251	0xbdd3772b	-0.10325464
252	0xbe5a87bd	-0.21340843
253	0xbde948ac	-0.11390814
254	0xbd709a04	-0.05874063
255	0x3ce9945d	0.028513128

linear3.weight f4 [3, 256]
0	0x3c0685d4	0.008210618
1	0xbc46302b	-0.012096445
2	0xbbdadcfa	-0.0066791745
3	0x3d6ae056	0.05734285
4	0xbb085473	-0.0020802289
5	0xbf17acc1	-0.59247977
6	0x3d38c771	0.045112077
7	0xbd047dd1	-0.03234655
8	0x3cb683d6	0.022279661
9	0x3cb24523	0.021761483
10	0xbf98062a	-1.1876881
11	0x3cd6be13	0.026213681
12	0xbc0b430e	-0.008499874
13	0xbbb414d2	-0.005495646
14	0x3b1dc2f4	0.00240725
15	0xbeb81472	-0.359531
16	0x3d0c7069	0.03428689
17	0xbc07b870	-0.008283719
18	0xbd219175	-0.03944536
19	0x3d583852	0.052788086
20	0xbd2235e9	-0.039602194
21	0x3d252472	0.04031796
22	0x3e0cc270	0.13746047
23	0xbdd49915	-0.103807606
24	0xbb377739	-0.0027994646
25	0xbb8b10d0	-0.0042439476
26	0x3d9a950e	0.07547961
27	0xbc7b71e8	-0.015346982
28	0xbc5bf070	-0.013424024
29	0x3cacff7a	0.021117914
30	0x3cc291bb	0.02375113
31	0x3d4a2222	0.049348958
32	0xbc73f899	-0.014890813
33	0xbf1c4b92	-0.6105281
34	0xbd443b27	-0.047907975
35	0x3d10eb50	0.03538066
36	0xbca0a122	-0.019608084
37	0x3dd1e653	0.10249009
38	0xbd1dfa82	-0.03856898
39	0xbeaa35fb	-0.3324431
40	0x3b4abe60	0.0030936226
41	0x3cd4560d	0.025919938
42	0xbd4bce0e	-0.049757056
43	0x3c80f618	0.015742347
44	0xbe36834a	-0.1782352
45	0xbdd55e14	-0.104183346
46	0x3c7b566c	0.015340429
47	0x3d2bef9a	0.04197655
48	0x3d0b295a	0.033974983
49	0xbbfb5c19	-0.007670891
50	0x3c8fa77d	0.01753592
51	0x3c560436	0.013062527
52	0x3b8a385b	0.004218144
53	0x3cf53188	0.029930845
54	0xbcf3685f	-0.029712854
55	0x3bfcdde9	0.0077168834
56	0xbcd91594	-0.026499547
57	0xbce42655	-0.02785031
58	0x3cc69122	0.024239127
59	0xbf249710	-0.64293003
60	0x3e932864	0.28741753
61	0xbefab6f1	-0.48967698
62	0x3c810a17	0.015751882
63	0xbde9dc5e	-0.11418985
64	0x3cd5c4de	0.02609485
65	0x3cd69852	0.026195679
66	0xbdbd3310	-0.09238255
67	0x3ca77d23	0.020445412
68	0xbf573fb2	-0.84081566
69	0xbd964226	-0.073368356
70	0x3c05f6d6	0.008176526
71	0x3d37000f	0.04467779
72	0xbbe182c0	-0.0068820417
73	0xbbe64e16	-0.0070283515
74	0x3c0bba6e	0.008528335
75	0xbf6b07f5	-0.91809016
76	0xbe95bcbe	-0.2924556
77	0xba0df2a4	-0.00054148794
78	0xbd0092cf	-0.031390008
79	0x3d006422	0.031345494
80	0x3e8d6006	0.27612323
81	0x3d149e82	0.036283977
82	0xbc777381	-0.015103222
83	0xbf091d44	-0.5356028
84	0xbc920acb	-0.017827412
85	0x3c783337	0.015148929
86	0xbcc7e59c	-0.024401478
87	0xbc18f3ca	-0.009335468
88	0x3d419ba2	0.047267564
89	0xbc3e64a6	-0.011620676
90	0x3aed0cf6	0.0018085528
91	0x3d69a3d7	0.057041015
92	0xbd9f10e2	-0.07766892
93	0xbdd6d1ac	-0.104892105
94	0x3cf1246a	0.029436309
95	0x3dfe2abf	0.12410497
96	0x3d0362a2	0.032076485
97	0x3cc8ac21	0.02449614
98	0xba05b030	-0.00050998013
99	0xbb16b19d	-0.002299405
100	0xbc875022	-0.016517702
101	0x3bd18529	0.0063940478
102	0xbcbc591e	-0.022991713
103	0xbb8b9e7f	-0.0042608376
104	0x3e3f6913	0.18692426
105	0x3c8a5bff	0.01688957
106	0x3c7770ef	0.015102609
107	0xbd264fa8	-0.04060331
108	0xbd776076	-0.060394727
109	0x3c88d0fd	0.016701216
110	0x3cc7a379	0.024369942
111	0xbbc0c4a2	-0.0058828155
112	0x3d955d0d	0.07293139
113	0xbcf91963	-0.030407613
114	0xbd88fe30	-0.066891074
115	0x3d6c6c32	0.05772037
116	0xbd332771	-0.043738786
117	0xbd189492	-0.037251063
118	0xbe2191cd	-0.15778275
119	0xbd7ed9b7	-0.062219348
120	0x3d3cdacd	0.046107102
121	0x3dac8a65	0.08424834
122	0x3af6398e	0.0018785463
123	0x3b7a6e6e	0.0038212794
124	0x3d93e11a	0.07220669
125	0x3d152950	0.03641635
126	0xbb8df3b0	-0.0043320283
127	0xbc012231	-0.007881687
128	0xbb108e47	-0.002205746
129	0xbd100ba6	-0.03516736
130	0x3d58d82f	0.052940544
131	0x3e05b9a4	0.13059098
132	0xbf155dea	-0.58346426
133	0xbbd8a0bf	-0.0066109593
134	0x3bb67390	0.0055679753
135	0x3e7df508	0.24800503
136	0x3cd7252e	0.026262846
137	0xbe426f23	-0.18987708
138	0x3b31f55b	0.00271543
139	0xbf63c66a	-0.8897463
140	0xbcb6203d	-0.02223217
141	0x3c3c70fb	0.011501546
142	0x3d881d8b	0.0664626
143	0x3cfc0bb0	0.030767292
144	0xbcb69bcf	-0.022291092
145	0xbea0746e	-0.3133883
146	0xbbd92c3d	-0.006627588
147	0x3cba059c	0.022707753
148	0x3d87e34c	0.0663515
149	0xbc4487eb	-0.011995296
150	0xbbe96fd7	-0.007123928
151	0xbc9b19cb	-0.018933197
152	0xbcfd58dc	-0.03092616
153	0x3ce288d3	0.027653133
154	0xbde5afbc	-0.11215159
155	0xbc9c28c0	-0.0190624
156	0xbd408f50	-0.047011673
157	0x3d113c60	0.03545797
158	0x3db8c885	0.09022621
159	0xbc077edc	-0.008269992
160	0xbe8bf36d	-0.27334157
161	0xbcd9bd58	-0.026579544
162	0xbce42707	-0.027850641
163	0xbd126705	-0.03574278
164	0xbc214630	-0.009843394
165	0x3cbc93f7	0.023019774
166	0x3cfc17b1	0.030773016
167	0x3cf570ce	0.029961016
168	0x3ce5bb54	0.028043427
169	0xbd7d05c5	-0.06177308
170	0x3acc9112	0.0015607199
171	0x3e04e635	0.12978442
172	0x39b1b800	0.00033897161
173	0xbec46429	-0.38357666
174	0x3d29a44a	0.041416444
175	0xbee679cd	-0.45014802
176	0x3c18a125	0.009315764
177	0x3d4bd19b	0.049760442
178	0xbcdbfd80	-0.026854277
179	0xbd87d999	-0.066333
180	0xba457e00	-0.0007533729
181	0xbc512b87	-0.012766725
182	0x3ca62d44	0.020285256
183	0x3dd1afd6	0.10238616
184	0x3d60a2e2	0.054842837
185	0x3c037d48	0.008025475
186	0x3e92dcaa	0.28683978
187	0x3ce8064e	0.028323319
188	0x3c39d8db	0.011343206
189	0x3d269c4b	0.040676396
190	0x3cd77b57	0.02630393
191	0x3b26359f	0.002536155
192	0x3cb1acf0	0.021688908
193	0x3d762dfe	0.060102455
194	0x3da29fbf	0.079406254
195	0xbb7611b9	-0.0037547185
196	0x3bc3d80f	0.005976684
197	0x3cf33856	0.029689949
198	0x3d4d7d14	0.050168112
199	0xbc9bcc9d	-0.019018466
200	0x3c231d29	0.009955683
201	0xbccdad6e	-0.025107112
202	0xbe836145	-0.25660148
203	0xbc9f5988	-0.019451872
204	0xbd7d4942	-0.061837442
205	0x3b3e183d	0.0029006146
206	0xbd00bca8	-0.031429917
207	0xbf1b45d1	-0.60653406
208	0xbe813ffa	-0.25244123
209	0x3dc5e7f3	0.096633814
210	0x3d137b16	0.036006056
211	0x3e9a2e3b	0.30113396
212	0xbbf4d3e4	-0.0074715484
213	0x3c8dc950	0.017307907
214	0x3d71246a	0.058872618
215	0x3cfdd537	0.030985458
216	0xbcca426d	-0.024689877
217	0xbcf3fdad	-0.029784048
218	0xbca1aec1	-0.01973665
219	0xbccd2d66	-0.025046062
220	0x3ba55cce	0.0050464636
221	0xbcb63931	-0.022244068
222	0x3e73c132	0.23804167
223	0x3d0f2ac0	0.03495288
224	0xbc2d65b5	-0.010583331
225	0xbd813feb	-0.063110195
226	0xbc34509d	-0.011005548
227	0x3cf3e03b	0.029770007
228	0x3cd05b74	0.025434233
229	0xbcbcc3c6	-0.02304257
230	0xbc93af93	-0.018028056
231	0xbc742e0a	-0.014903555
232	0xbcabc5a2	-0.020968262
233	0xbb1efa35	-0.0024258022
234	0x3cec542e	0.028848734
235	0x3d407f88	0.046996623
236	0xbcace8fb	-0.021107187
237	0xbbd3048b	-0.0064397505
238	0x3d1cb342	0.03825689
239	0x3d3061cc	0.043062016
240	0xbd859a55	-0.06523577
241	0xbbe3c2a7	-0.0069506946
242	0x3d7cc896	0.06171473
243	0xbc9ce352	-0.019151364
244	0xbd54dad2	-0.051966496
245	0xbce07218	-0.027398154
246	0xbd4af2b0	-0.04954785
247	0x3caddce8	0.0212235
248	0xb8c48a2b	-9.371744e-05
249	0x3c503ba6	0.012709534
250	0xbd977cc4	-0.07396844
251	0xbda20a92	-0.079121724
252	0x3c8d3466	0.0172369
253	0x3c2883be	0.010285316
254	0xbcb22b96	-0.021749299
255	0x3e09ac38	0.13444602

linear3.bias f4 [3]
0	0x3eeed59d	0.4664735
1	0x3f06dd42	0.5268136
2	0x3f096243	0.5366556
