checkpoint_game_300.pth (torch, 281408 bytes, 6 tensors)

linear1.weight f4 [256, 11]
-0.20707764 0.17917858 -0.12465361 0.1471451 0.087484494 0.11607977 -0.1928187 -0.16442885
-0.10900319 -0.14658207 -0.26476756 0.29269674 0.17967626 -0.14326078 -0.013865774 0.06193622
-0.0031739448 -0.22535415 -0.10246783 -0.12830229 0.05914483 -0.17937881 0.0026411545 -0.24069558
-0.007627655 -0.29044384 0.15293606 -0.1814911 0.39543563 -0.27343154 -0.2788916 -0.37733954
0.10351936 0.105651185 0.46025008 0.42014286 0.054005727 0.00664868 -0.14046052 -0.076093316
0.15353785 0.12982653 -0.19238561 -0.22214903 0.3926588 -0.014506078 -0.12932336 0.14550948
0.2716578 -0.3305277 0.343967 0.1334508 -0.22457974 0.16807887 -0.097432524 0.083745874
0.3014581 -0.24142627 -0.32031468 0.0026347423 -0.32793078 -0.043424312 -0.037046947 -0.3040141
0.0012019434 -0.41806 0.42414382 -0.2793185 -0.08207778 0.14853616 -0.04966949 -0.2873782
-0.20728771 -0.07835732 0.18195128 0.26255023 0.31049272 -0.30032697 0.111827664 0.24937499
0.06981341 -0.078203924 0.24016152 0.32346144 -0.106897086 -0.30442703 0.24858725 0.10180833
0.33976743 -0.03359284 -0.010086586 0.23053925 0.28446403 -0.33000597 -0.18929172 -0.41498438
-0.26063892 0.25532338 0.20666032 -0.20849314 0.50313854 0.47717866 0.009818472 -0.25654733
-0.15328771 -0.15106589 0.05206263 -0.12413956 -0.15306193 -0.07151947 -0.27039444 -0.090389274
-0.33051813 -0.0019866733 0.28522885 0.12243676 -0.09694225 -0.017751424 -0.20644572 0.27163187
-0.11360785 -0.19742537 0.52812403 -0.1118753 0.09240382 0.11894264 -0.10158956 -0.33087602
0.23538287 0.17542444 -0.23964511 -0.23802036 -0.1260084 0.30666834 0.10110068 -0.13431065
-0.42479557 -0.062016774 -0.18022066 -0.017454948 0.043966964 -0.19693856 -0.19565195 0.08359584
0.25515 -0.037908062 0.021779843 0.128567 -0.16748643 0.022899743 0.060291197 -0.0635363
0.08821581 -0.20499367 0.26408288 0.18275233 -0.23424503 0.18226816 -0.20889066 0.43072635
-0.16509673 0.009181903 -0.17785166 -0.32123053 0.101246335 -0.35795563 -0.085267805 -0.046739716
-0.33187854 0.3620305 0.33801964 0.2283452 -0.33053428 -0.16562308 -0.27656546 0.10126511
-0.018089117 0.11059828 -0.031177936 0.11604403 0.13956456 0.051615376 -0.2294215 -0.3318727
-0.43217957 0.17811692 -0.30793902 -0.052557804 -0.34701422 -0.30608237 0.017164176 0.15519765
-0.17775677 0.1371193 0.053918302 -0.15093805 0.22761716 0.16144876 0.3282324 0.0022566433
0.39188743 -0.09702541 0.37450272 -0.43063945 -0.16482446 0.30899033 -0.0686822 -0.2457226
-0.052171975 -0.3940619 -0.34245104 -0.04253527 0.01772564 0.013476477 0.2572785 -0.010017832
0.0712499 -0.06446462 0.1601665 0.20119624 -0.04961155 0.34709856 0.07266203 0.10857133
-0.29473695 -0.16664588 -0.065721385 -0.22610895 -0.22772664 0.012843839 0.19791368 0.0019063455
0.54148644 -0.24020863 0.2763485 -0.23063526 -0.12358498 0.2025521 -0.072372966 0.13701105
-0.16544138 0.1002506 0.3987958 -0.21493763 0.32954565 -0.31508195 -0.10671441 -0.26304412
0.19666898 0.21582755 -0.007234557 -0.113316424 -0.20311388 0.30999774 0.43803066 0.5274955
00000000: 290c 54be 977a 373e 644a ffbd 35ad 163e
00000010: 122b b33d 3bbb ed3d 4472 45be 0960 28be
00000020: 113d dfbd 9c19 16be 9d8f 87be 59dc 953e
00000030: 0efd 373e f4b2 12be 452d 63bc d5b0 7d3d
00000040: f501 50bb 3dc3 66be a7da d1bd ad61 03be
00000050: d941 723d 14af 37be 3817 2d3b e778 76be
00000060: 68f1 f9bb 0eb5 94be 459b 1c3e ced8 39be
00000070: 8a76 ca3e 38ff 8bbe e1ca 8ebe a632 c1be
00000080: f501 d43d a65f d83d e6a5 eb3e f71c d73e
00000090: 1c35 5d3d 2cdd d93b e2d4 0fbe d0d6 9bbd
000000a0: 0739 1d3e 3ff1 043e bc00 45be 097b 63be
000000b0: 930a c93e e7aa 6dbc 586d 04be 7000 153e
000000c0: bb16 8b3e ed3a a9be 711c b03e 54a7 083e
000000d0: 3bf8 65be de1c 2c3e b48a c7bd f582 ab3d
000000e0: b758 9a3e 7338 77be 4900 a4be a4ab 2c3b
000000f0: 8be6 a7be b1dd 31bd 8abe 17bd bca7 9bbe
00000100: 878a 9d3a f60b d6be 6129 d93e d602 8fbe
00000110: 6518 a8bd dd19 183e 3c72 4bbd 3c23 93be
00000120: 3b43 54be cd79 a0bd 7051 3a3e fc6c 863e
00000130: e7f8 9e3e 75c4 99be e705 e53d 285c 7f3e
00000140: 55fa 8e3d 6129 a0bd e7ec 753e bd9c a53e
00000150: dcec dabd dcdd 9bbe a88d 7e3e e380 d03d
00000160: fff5 ad3e a598 09bd 3542 25bc 7b12 6c3e
00000170: 45a5 913e 8bf6 a8be b0d5 41be d578 d4be
00000180: 7772 85be bfb9 823e c39e 533e 3a7f 55be
00000190: b0cd 003f c350 f43e a8dd 203c 2c5a 83be
000001a0: 74f7 1cbe 04b1 1abe a03f 553d e23c febd
000001b0: 44bc 1cbe cd78 92bd 2471 8abe 031e b9bd
000001c0: ac39 a9be d932 02bb 8409 923e 20c0 fa3d
000001d0: a989 c6bd 6f6b 91bc 8266 53be 5513 8b3e
000001e0: 3cab e8bd e029 4abe 2333 073f e11e e5bd
000001f0: 373e bd3d 3398 f33d 300e d0bd 9568 a9be
00000200: 3508 713e 77a2 333e 8765 75be 9cbb 73be
00000210: 5908 01be a203 9d3e e00d cf3d bb88 09be
00000220: ce7e d9be 4d05 7ebd c48b 38be aefd 8ebc
00000230: b416 343d 43aa 49be fc58 48be 4c34 ab3d
00000240: 05a3 823e 7c45 1bbd a46b b23c 11a7 033e
00000250: 9081 2bbe 3e98 bb3c e7f3 763d 521f 82bd
00000260: 7eaa b43d dce9 51be df35 873e 6d23 3b3e
00000270: eedd 6fbe 81a4 3a3e 6fe7 55be 2a88 dc3e
00000280: 1e0f 29be b16f 163c bf1e 36be 5478 a4be
00000290: 3d5a cf3d f645 b7be e3a0 aebd 2572 3fbd
000002a0: fceb a9be 105c b93e e910 ad3e 53d3 693e
000002b0: ca3b a9be 1999 29be fd99 8dbe 1564 cf3d
000002c0: a12f 94bc 5a81 e23d df68 ffbc 7ea8 ed3d
000002d0: 03ea 0e3e a56a 533d 78ed 6abe 38eb a9be
000002e0: a446 ddbe 4864 363e 2faa 9dbe da46 57bd
000002f0: d9ab b1be d4b6 9cbe e39b 8c3c 22ec 1e3e
00000300: df05 36be 0069 0c3e 70d9 5c3d 818f 1abe
00000310: 7914 693e d352 253e 140e a83e 31e4 133b
00000320: 78a5 c83e 42b5 c6bd d2be bf3e c67c dcbe
00000330: bec7 28be fb33 9e3e 41a9 8cbd b59e 7bbe
00000340: 48b2 55bd 7bc2 c9be be55 afbe 7739 2ebd
00000350: 5d35 913c 71cc 5c3c 02ba 833e d521 24bc
00000360: 78eb 913d 0706 84bd b002 243e 6306 4e3e
00000370: 7b35 4bbd e7b6 b13e d5cf 943d a55a de3d
00000380: c3e7 96be 38a5 2abe ef98 86bd 1b89 67be
00000390: 2c31 69be f76e 523c e2a9 4a3e 57de f93a
000003a0: db9e 0a3f 40f9 75be 8d7d 8d3e a62b 6cbe
000003b0: 1f1a fdbd d169 4f3e 4738 94bd a04c 0c3e
000003c0: 7769 29be 3050 cd3d f72e cc3e 9c18 5cbe
000003d0: 35ba a83e 6c52 a1be 168d dabd b8ad 86be
000003e0: 9863 493e e601 5d3e dd0f edbb 7112 e8bd
000003f0: 16fd 4fbe 06b8 9e3e 8e45 e03e f209 073f

linear1.bias f4 [256]
-0.30690023 -0.23491918 -0.061253626 0.0009519305 -0.29685473 -0.04352743 -0.07326104 -0.2540206
-0.03967818 0.11146782 -0.26030508 0.011576228 -0.046059452 -0.45666948 0.12464639 0.19584104
-0.02764292 -0.035608765 -0.2895577 0.011297364 0.15138409 -0.027514426 0.017918924 -0.027008697
0.07245846 0.1386965 0.05758303 -0.025144007 -0.2053549 0.15787748 -0.0064493204 0.054850876
0.05194724 0.36109743 -0.08523539 -0.09100028 0.016846403 0.19207858 -0.30800498 -0.13769913
-0.173541 0.04217835 0.19713508 -0.17997533 -0.1847577 -0.06254522 -0.02263739 -0.14518559
0.020189779 -0.06832468 -0.040081706 -0.15853463 0.005308755 0.12578277 0.32172844 0.45819682
-0.0735312 -0.069956794 0.42078573 0.09225373 -0.0045225993 -0.004548352 -0.17780472 0.022411779
-0.13020952 -0.26533812 -0.29019436 0.07771277 -0.11688464 -0.14548798 0.23999092 0.30545688
0.4323056 -0.2177789 -0.08592912 0.03689886 -0.2531087 0.0050565023 -0.22722568 -0.21471189
0.2418976 0.24612564 -0.09360356 0.05047017 0.25799522 -0.17454012 0.31155524 -0.26390067
0.40908644 -0.22101535 0.07156529 0.14949752 0.14554156 0.032838646 -0.096134126 -0.32204276
-0.29863372 -0.118346386 -0.13123414 -0.29540923 -0.22563553 0.11359082 0.26166904 -0.21917222
0.24780706 0.36537263 0.01211276 -0.12878095 0.07932941 -0.27689776 -0.125342 -0.066784486
-0.052394684 -0.071553595 -0.015257568 0.11419158 -0.067042075 0.5060079 0.029058436 -0.06765485
0.32558453 0.110254094 -0.14573026 -0.1257552 -0.010545077 -0.28644925 -0.10055916 -0.09880545
0.46288252 -0.049978707 -0.024327265 -0.06632475 -0.16234906 0.1356477 -0.27394283 0.018098397
-0.096434735 0.15930396 0.18971659 0.45014977 0.0894747 0.11954999 0.18298048 -0.28552446
0.11331578 -0.026739042 0.73435503 -0.103309356 -0.09155118 0.20063308 0.021290476 0.13066371
0.0016943959 -0.06746094 0.02810239 -0.07994479 -0.16902475 -0.14196421 0.044321034 0.13652886
0.04782464 0.31766427 -0.17477088 -0.30552447 0.12864666 0.46258712 -0.2911668 -0.053606067
-0.17937371 -0.06926849 -0.06748236 0.3214895 0.19934975 0.04021458 -0.05555797 0.3783274
0.1106985 -0.24379364 -0.10819601 -0.22458395 0.13821115 0.5196373 0.17240596 -0.022812773
-0.22589074 0.20480883 -0.05963168 0.0636177 0.2027246 -0.17439052 0.0054802406 0.076724395
-0.20323946 -0.028396899 0.14911914 0.1931878 -0.22919078 -0.39899886 0.27180213 0.11914382
-0.1998943 -0.18868245 -0.2612302 -0.081368916 0.057962295 -0.30230966 -0.008752808 -0.049009956
-0.15917018 0.22883645 0.65503365 0.2973641 -0.28168076 0.29790187 0.053512983 -0.298407
-0.050867803 -0.18680374 -0.46103057 -0.081133604 0.030319633 0.2380492 -0.2786917 0.20621158
-0.12682681 0.41989288 -0.27479336 -0.11989366 0.03266169 -0.15173662 -0.0041925013 -0.2671534
0.2579803 -0.21646743 -0.0027797765 -0.22538716 -0.00641984 0.09417452 0.20857997 0.35231575
-0.039294746 -0.17251164 0.087647274 -0.19293863 -0.16305184 0.29763317 -0.11854427 -0.25918928
0.006690982 0.37690917 0.6453166 0.43686333 -0.16157955 -0.32035953 -0.0007847387 -0.15373255
00000000: 0722 9dbe a78e 70be 15e5 7abd f98a 793a
00000010: 58fd 97be d249 32bd e209 96bd fd0e 82be
00000020: 9685 22bd 3e49 e43d b546 85be 38aa 3d3c
00000030: d6a8 3cbd 95d0 e9be 9b46 ff3d 8e8a 483e
00000040: 6873 e2bc 7fda 11bd e840 94be 9418 393c
00000050: 6e04 1b3e ef65 e1bc b5ca 923c 5841 ddbc
00000060: 1a65 943d 7506 0e3e 2fdc 6b3d cefa cdbc
00000070: 8e48 52be a2aa 213e d254 d3bb 50ab 603d
00000080: a1c6 543d c3e1 b83e e48f aebd 5b5e babd
00000090: 7801 8a3c 3fb0 443e d4b2 9dbe 0001 0dbe
000000a0: bbb4 31be 35c3 2c3d c7dd 493e 744b 38be
000000b0: 1f31 3dbe b517 80bd 0c72 b9bc 88ab 14be
000000c0: 0965 a53c cfed 8bbd b72c 24bd e756 22be
000000d0: 11f5 ad3b 33cd 003e 97b9 a43e c698 ea3e
000000e0: 8797 96bd 8245 8fbd 3a71 d73e 86ef bc3d
000000f0: 5032 94bb 580a 95bb 7112 36be e898 b73c
00000100: a555 05be 66da 87be 5b94 94be df27 9f3d
00000110: 3761 efbd cdfa 14be 2ec0 753e d864 9c3e
00000120: 2957 dd3e 6f01 5fbe 9bfb afbd 4223 173d
00000130: 7797 81be 04b1 a53b d9ad 68be 6fdd 5bbe
00000140: 01b4 773e 5c08 7c3e 39b3 bfbd cfb9 4e3d
00000150: f317 843e a5ba 32be 2b84 9f3e fd1d 87be
00000160: c773 d13e d951 62be d390 923d e115 193e
00000170: d908 153e d181 063d f8e1 c4bd cae2 a4be
00000180: 85e6 98be 975f f2bd 3e62 06be e13f 97be
00000190: 000d 67be 4ea2 e83d 7cf9 853e af6e 60be
000001a0: 22c1 7d3e 1f12 bb3e 9974 463c 27df 03be
000001b0: 7577 a23d 8bc5 8dbe a759 00be 4ec6 88bd
000001c0: cf9b 56bd b18a 92bd e1fa 79bc 46dd e93d
000001d0: 5b4d 89bd bc89 013f f50b ee3c a08e 8abd
000001e0: 04b3 a63e e6cc e13d 503a 15be f9c5 00be
000001f0: 42c5 2cbc 7aa9 92be f6f1 cdbd 835a cabd
00000200: f0fe ec3e 79b6 4cbd f949 c7bc 45d5 87bd
00000210: d53e 26be 3be7 0a3e 3c42 8cbe 1743 943c
00000220: 937f c5bd 9420 233e 1145 423e 087a e63e
00000230: 833e b73d a0d6 f43d 3c5f 3b3e 4330 92be
00000240: 1b12 e83d d60b dbbc b1fe 3b3f db93 d3bd
00000250: 2f7f bbbd c272 4d3e 5d69 ae3c b5cc 053e
00000260: 7e16 de3a f628 8abd fc36 e63c 18ba a3bd
00000270: d314 2dbe 115f 11be f989 353d 39ce 0b3e
00000280: c5e3 433d e4a4 a23e 23f7 32be b46d 9cbe
00000290: f3bb 033e 38d8 ec3e d113 95be 0992 5bbd
000002a0: bead 37be a3dc 8dbd 3134 8abd 469a a43e
000002b0: 5722 4c3e 0bb8 243d c190 63bd 21b4 c13e
000002c0: e5b5 e23d 0aa5 79be df95 ddbd 56f9 65be
000002d0: 3987 0d3e f306 053f 308b 303e dae1 babc
000002e0: e74f 67be 68b9 513e 5940 74bd ff49 823d
000002f0: 0a97 4f3e 6e93 32be 9793 b33b ae21 9d3d
00000300: 011e 50be 9da0 e8bc b0b2 183e 06d3 453e
00000310: fdb0 6abe 9449 ccbe a629 8b3e ad01 f43d
00000320: 17b1 4cbe f935 41be f7bf 85be bfa4 a6bd
00000330: df69 6d3d 55c8 9abe f067 0fbc aabe 48bd
00000340: 82fd 22be 1a54 6a3e 49b0 273f 1b40 983e
00000350: 7638 90be 9886 983e 6e30 5b3d cdc8 98be
00000360: c25a 50bd 7b49 3fbe 330c ecbe 6029 a6bd
00000370: e160 f83c 2bc3 733e aeb0 8ebe 2129 533e
00000380: e3de 01be 33fc d63e b7b1 8cbe cf8a f5bd
00000390: 44c8 053d d860 1bbe 4061 89bb 55c8 88be
000003a0: fe15 843e a3a9 5dbe e92c 36bb e4cb 66be
000003b0: 855d d2bb 92de c03d fd95 553e bb62 b43e
000003c0: 87f3 20bd e4a6 30be 6a80 b33d b491 45be
000003d0: 10f7 26be 6063 983e 57c7 f2bd 75b4 84be
000003e0: 0640 db3b 3dfa c03e 7833 253f 8dac df3e
000003f0: 1c75 25be 2a06 a4be ecb6 4dba 116c 1dbe

linear2.weight f4 [256, 256]
0.00036640465 -0.003813222 0.061006963 0.033769872 0.0011708826 -0.017843222 0.02968952 0.031644095
-0.007242861 0.029611006 -0.02901742 0.04170298 0.020728512 -0.009715637 -0.021571726 -0.004032292
-0.030982526 0.017575476 0.021890378 0.017472692 -0.040101483 -0.029973682 0.041392013 -0.013274764
-0.033248037 -0.024631275 -0.018089302 0.044585057 -0.013420165 -0.06293292 0.027132882 0.00092209777
-0.037786726 -0.064299636 -0.009474943 -0.067256115 -0.04620754 -0.00078333163 0.054590136 0.005259102
0.02668639 -0.012347051 0.017385721 0.007325314 -0.012870506 -0.035877354 -0.020747444 0.06009949
-0.06741026 -0.010814875 -0.047140665 0.016589874 -0.04998947 0.030372938 -0.0183208 -0.019216046
-0.04966662 -0.023748327 -0.062420316 0.0045110947 0.030071445 -0.010763707 -0.011446133 -0.031185767
-0.036967956 0.045162186 0.016587555 0.033300318 -0.03554819 0.017744172 0.009711307 -0.025801627
-0.028964406 0.005186558 -0.039988503 -0.039776314 0.014617514 0.052421015 0.051337063 0.016448952
-0.070175484 0.014077865 0.0064909053 -0.044319175 0.0033477847 -0.026964078 -0.028605927 -0.059936594
0.017503493 0.037541185 0.015326076 0.013768697 0.0021204387 -0.008309109 0.027489673 -0.0390496
0.030229343 0.006195188 -0.0033190812 -0.056776237 0.03851291 -0.057679158 -0.060111344 -0.00045672804
-0.032383494 -0.02348963 0.029701611 -0.0072882324 -0.040421054 -0.0563345 -0.016930733 -0.035118118
-0.0025577263 0.014185754 -0.071683325 0.024659779 0.046805866 -0.08416763 0.04108101 -0.027818782
-0.03698859 0.019267235 -0.02895943 0.008348447 0.005870042 -0.035754696 -0.011498743 -0.040447727
-0.061591215 -0.052725557 -0.0018426701 -0.06067621 0.03951275 0.036670543 -0.030340508 -4.762709e-05
0.023814 0.049700644 0.024210487 0.020507233 -0.036268357 -0.014404656 0.023168594 -0.01168412
0.00866972 -0.05960616 0.029050836 -0.062489424 -0.050143953 0.0020616371 0.025622725 0.035160273
0.04482244 0.036265664 -0.024745699 -0.03141952 -0.038457148 -0.010137916 0.019512063 -0.03725268
-0.05970306 -0.006107379 -0.019573573 -0.015646033 0.035989486 -0.013822364 -0.0161435 -0.010651677
-0.011683182 -0.03971373 -0.0015787466 -0.020151626 0.005103473 0.047189645 0.04295913 0.05121179
0.037829544 0.002429397 0.016887402 0.0050259605 -0.006782622 0.014129295 -0.0511811 0.041082826
-0.011116545 0.0115945935 0.054436915 -0.013601284 -0.004678052 0.0017932281 -0.024194993 -0.05922141
-0.03756278 -0.051617414 -0.023104066 0.032609418 -0.050489865 0.05166451 -0.06728276 0.026286023
0.040254414 -0.08409687 0.04287351 0.058628835 0.0018472202 -0.03700859 0.021969503 -0.04671733
-0.040030606 0.013239468 -0.052535545 0.008132628 -0.041623004 -0.018420158 -0.045244195 0.009737223
0.03263557 0.02696658 -0.025082389 -0.019023398 -0.038422998 0.008383212 0.033451468 -0.050181504
-0.019527288 0.009150036 -0.04523655 -0.06257304 -0.04986807 0.022469684 -0.033235285 -0.03758376
-0.0015107949 0.011135516 -0.014915802 -0.024800561 0.052205574 -0.00023458898 -0.0025122154 0.009881239
-0.00045132486 -0.027439324 -0.005606904 -0.04482594 0.0013957918 0.046432383 -0.011523841 0.044394273
0.00215122 -0.06169355 -0.029275415 0.029908432 -0.02986756 -0.050339334 0.03754928 -0.010865353
00000000: 001a c039 40e7 79bb 70e2 793d 4752 0a3d
00000010: 4d78 993a f32b 92bc 7037 f33c 3d9d 013d
00000020: 8655 edbb c892 f23c f1b5 edbc bed0 2a3d
00000030: d7ce a93c 562e 1fbc 30b7 b0bc 5121 84bb
00000040: 11cf fdbc 72fa 8f3c 7353 b33c e422 8f3c
00000050: 7441 24bd 5e8b f5bc ac8a 293d 657e 59bc
00000060: 182f 08bd 87c7 c9bc 0430 94bc d29e 363d
00000070: 40e0 5bbc fae2 80bd c745 de3c efb8 713a
00000080: 41c6 1abd 87af 83bd cb3c 1bbc 93bd 89bd
00000090: 1e44 3dbd 7f58 4dba e899 5f3d 8c54 ac3b
000000a0: 6b9d da3c 494b 4abc 806c 8e3c 3009 f03b
000000b0: d1de 52bc 22f4 12bd 8bf6 a9bc e22a 763d
000000c0: 640e 8abd e030 31bc 9216 41bd 7de7 873c
000000d0: c2c1 4cbd abd0 f83c 8115 96bc f86a 9dbc
000000e0: 3a6f 4bbd da8b c2bc 72ac 7fbd ced1 933b
000000f0: 6458 f63c 425a 30bc 9088 3bbc 4b79 ffbc
00000100: b66b 17bd fcfb 383d a0e2 873c ea65 083d
00000110: fb9a 11bd 3a5c 913c 2c1c 1f3c ef5d d3bc
00000120: c346 edbc 00f4 a93b fcca 23bd 7dec 22bd
00000130: 4c7e 6f3c 6bb7 563d d046 523d f4bf 863c
00000140: 2ab8 8fbd d8a6 663c a9b1 d43b 0688 35bd
00000150: 8266 5b3b c5e3 dcbc fa56 eabc 1380 75bd
00000160: 7c63 8f3c c9c4 193d 391a 7b3c 1a96 613c
00000170: 0ff7 0a3b ee22 08bc 0632 e13c 79f2 1fbd
00000180: 87a3 f73c 0101 cb3b f184 59bb 338e 68bd
00000190: b7bf 1d3d fb40 6cbd 5037 76bd 0075 efb9
000001a0: 8ea4 04bd 536d c0bc cb50 f33c 20d2 eebb
000001b0: 8c90 25bd 01bf 66bd 52b2 8abc 04d8 0fbd
000001c0: 879f 27bb 5d6b 683c b5ce 92bd 4e03 ca3c
000001d0: 82b7 3f3d 1460 acbd 9044 283d 37e4 e3bc
000001e0: 5981 17bd 52d6 9d3c 543c edbc edc7 083c
000001f0: 7b59 c03b 8473 12bd 3965 3cbc 84ac 25bd
00000200: 1247 7cbd c1f6 57bd c085 f1ba 9e87 78bd
00000210: 1fd8 213d da33 163d a88c f8bc 33c3 47b8
00000220: 9415 c33c e792 4b3d 1255 c63c c9fe a73c
00000230: 218e 14bd 8201 6cbc 10cc bd3c c06e 3fbc
00000240: 710b 0e3c 9725 74bd 05fc ed3c e9f4 7fbd
00000250: bf63 4dbd 881c 073b c0e6 d13c 3804 103d
00000260: bc97 373d 4e8b 143d 7eb7 cabc c1b1 00bd
00000270: 3e85 1dbd 8019 26bc c3d7 9f3c 4496 18bd
00000280: 328b 74bd 6920 c8bb c258 a0bc 1c2c 80bc
00000290: b669 133d 3277 62bc 603f 84bc 5f84 2ebc
000002a0: d16a 3fbc ddaa 22bd f2ed ceba 0615 a5bc
000002b0: 093b a73b ee49 413d eaf5 2f3d 74c3 513d
000002c0: 27f3 1a3d 8536 1f3b 7357 8a3c d0b0 a43b
000002d0: c240 debb 8f7e 673c 46a3 51bd 7746 283d
000002e0: 2b22 36bc 40f7 3d3c 3ef9 5e3d ebd7 5ebc
000002f0: 584a 99bb c00a eb3a 9434 c6bc 2692 72bd
00000300: 6edb 19bd c86c 53bd bd44 bdbc 7491 053d
00000310: 76ce 4ebd 2a9e 533d 8bcb 89bd c955 d73c
00000320: d0e1 243d fb3a acbd 229c 2f3d ca24 703d
00000330: 6d1e f23a 5296 17bd 63f9 b33c ac5a 3fbd
00000340: 22f7 23bd 5bea 583c 832f 57bd b73e 053c
00000350: e27c 2abd dfe5 96bc fa51 39bd e088 1f3c
00000360: e0ac 053d 04e9 dc3c 9579 cdbc f5d6 9bbc
00000370: 6f61 1dbd bd59 093c 6804 093d 1f8b 4dbd
00000380: b1f7 9fbc 08ea 153c f649 39bd 4b26 80bd
00000390: 7642 4cbd 5812 b83c b921 08bd 6ef1 19bd
000003a0: dd05 c6ba bd71 363c 6861 74bc 8c2a cbbc
000003b0: 83d5 553d 00fc 75b9 fba3 24bb ece4 213c
000003c0: cc9f ecb9 6fc8 e0bc 1fba b7bb 689b 37bd
000003d0: 00f3 b63a e22f 3e3d 7ece 3cbc c5d6 353d
000003e0: 7cfb 0c3b 60b2 7cbd ffd2 efbc 8702 f53c
000003f0: d0ac f4bc 9e30 4ebd 46cd 193d 9804 32bc

linear2.bias f4 [256]
0.043438394 -0.0079975 -0.062071085 -0.06132444 -0.034161035 0.019315813 0.02230228 -0.04971541
-0.014212856 -0.036269426 0.1290622 -0.016858354 -0.044686515 0.00017536168 -0.032255035 -0.015747756
-0.10572056 -0.061546195 0.0024060905 0.003810597 -0.11881594 -0.059285898 0.11602524 -0.11526429
-0.009359689 -0.03176123 0.07702823 -0.042725228 -0.025740463 -0.09868324 -0.099483766 0.37386906
-0.055069916 -0.03483355 -0.0102840355 -0.005748714 -0.0961724 0.07356388 0.037265856 0.09645873
-0.07233889 -0.0008708832 -0.087146014 -0.044655897 0.0042845868 0.011145608 -0.019057149 0.01655126
0.008048209 -0.073557 0.031249225 -0.06078143 -0.009949774 -0.077127084 -0.09458937 -0.012386379
-0.05924982 -0.044966567 -0.043725684 0.0027135375 0.8412386 0.11256428 -0.03439889 0.012317144
-0.09467359 0.23438272 0.017526055 0.02146332 -0.025841344 -0.14636897 -0.032932427 -0.05029512
-0.1521242 0.019795509 0.04051558 -0.05153042 -0.008120349 -0.0019261371 -0.017425401 -0.07279681
0.79691267 0.09054423 0.019140944 -0.009548723 -0.06305554 -0.034626365 -0.02752524 -0.011988172
-0.041845754 0.016013527 -0.04740348 0.123795554 -0.13618323 -0.048754986 -0.05546247 -0.053718355
-0.03590059 0.10130986 -0.06184121 -0.004428475 -0.038482234 -0.007724121 -0.03479768 -0.06338918
0.60685915 4.6542256e-05 -0.020265382 -0.066901736 0.015548783 -0.1107551 -0.05587189 -0.030523848
0.044317815 -0.004029964 -0.14047764 -0.05818531 -0.0056858575 -0.077723436 0.0004250564 -0.12796593
-0.039560065 -0.009089752 -0.088732764 -0.14738314 0.05103315 -0.09612646 0.16779573 0.010156108
-0.061413772 0.009678599 -0.04867311 -0.09836194 -0.07757619 -0.040890753 0.081089415 0.7762239
-0.096025586 -0.035059497 -0.00452221 0.11766063 -0.080688894 -0.064410634 -0.05138534 -0.0276844
-0.08975049 0.030271616 -0.0800589 0.018910158 0.03829019 -0.058698423 0.009849339 0.0016438821
-0.0689699 -0.07783003 -0.085891135 -0.037300576 -0.074438915 -0.049238663 0.47537616 0.0057982486
-0.01617581 -0.05017434 -0.044043135 -0.052747846 0.06863294 0.025751103 -0.053901 0.07347895
-0.11245584 0.06848505 -0.012434027 0.15094931 0.47039357 -0.0116561735 -0.033607002 0.06407265
-0.08548218 0.13197349 -0.07585726 -0.0027792538 -0.04844742 -0.027110713 -0.04684133 -0.12801996
-0.07259089 -0.051005922 0.80978054 -0.0590981 -0.086090714 -0.017629683 0.28405008 0.013956028
-0.023252772 0.082774684 0.03152418 0.032845665 -0.050193895 -0.050985813 -0.06712525 -0.061309963
-0.066212885 -0.102256924 0.038092542 0.034387656 0.0296364 -0.0807056 0.004989043 -0.011316127
-0.020978276 0.020126102 -0.058440298 0.9145307 -0.063171886 0.03732766 0.021441069 -0.07126126
0.5106958 -0.04873471 -0.04069054 -0.02486596 0.0035117955 0.010494495 0.6685615 -0.047991097
0.024724474 -0.048955884 -0.06466378 0.039198328 -0.030681916 -0.07558432 -0.049722258 0.108348586
-0.03632319 0.0883037 -0.023480527 -0.0012374786 0.0033773524 -0.009102458 -0.021095147 0.12311328
-0.028136527 -0.074316956 0.03177492 -0.03972854 -0.08219331 0.021722877 0.02828754 -0.05292986
-0.048287213 -0.06946593 0.038108554 -0.10325464 -0.13914612 -0.05615151 -0.05874063 0.042356644
00000000: 75ec 313d f207 03bc 403e 7ebd 562f 7bbd
00000010: 71ec 0bbd 323c 9e3c 45b3 b63c 63a2 4bbd
00000020: 0add 68bc 408f 14bd e228 043e 881a 8abc
00000030: 3509 37bd 4be1 3739 db1d 04bd 7001 81bc
00000040: 0584 d8bd dd17 7cbd 80af 1d3b 35bb 793b
00000050: c655 f3bd c5d5 72bd a49e ed3d af0f ecbd
00000060: 6259 19bc 1018 02bd fac0 9d3d a600 2fbd
00000070: aadd d2bc 701a cabd 25be cbbd c46b bf3e
00000080: fe90 61bd a0ad 0ebd 5f7e 28bc b55f bcbb
00000090: 09f6 c4bd a9a8 963d 15a4 183d 288c c53d
000000a0: 6926 94bd fb4b 64ba 9c79 b2bd 1ae9 36bd
000000b0: b865 8c3b 119c 363c bd1d 9cbc 8296 873c
000000c0: a3dc 033c 0da5 96bd 60fe ff3c f3f5 78bd
000000d0: 6004 23bc cef4 9dbd 12b8 c1bd 3df0 4abc
000000e0: f0af 72bd dd2e 38bd b419 33bd 9bd5 313b
000000f0: 6a5b 573f 1a88 e63d dae5 0cbd d9cd 493c
00000100: 3ae4 c1bd 0602 703e cd92 8f3c d8d3 af3c
00000110: 3ab1 d3bc bfe1 15be 27e4 06bd 4102 4ebd
00000120: 72c6 1bbe 312a a23c aaf3 253d 9011 53bd
00000130: 360b 05bc 7076 fcba b7bf 8ebc 7e16 95bd
00000140: 7802 4c3f 416f b93d 78cd 9c3c 3f72 1cbc
00000150: 4323 81bd 60d4 0dbd 9d7c e1bc 0a6a 44bc
00000160: 7466 2bbd cd2e 833c 272a 42bd 8688 fd3d
00000170: 9e73 0bbe 4fb3 47bd 9d2c 63bd c707 5cbd
00000180: 7f0c 13bd 8b7b cf3d 354d 7dbd be1c 91bb
00000190: 8c9f 1dbd a01a fdbb 0388 0ebd 30d2 81bd
000001a0: 1f5b 1b3f 5e36 4338 9603 a6bc c703 89bd
000001b0: 53c0 7e3c 92d3 e2bd ecd9 64bd 260d fabc
000001c0: 9986 353d ca0d 84bb 5fd9 0fbe b853 6ebd
000001d0: 6e50 babb 772d 9fbd 1bda de39 8009 03be
000001e0: bc09 22bd 2fed 14bc 86b9 b5bd 9beb 16be
000001f0: 2308 513d f3dd c4bd a5d2 2b3e ce65 263c
00000200: 028d 7bbd fd92 1e3c 745d 47bd fc71 c9bd
00000210: 44e0 9ebd 107d 27bd 3512 a63d 9cb6 463f
00000220: 10a9 c4bd 8c9a 0fbd 0c2f 94bb 0ef8 f03d
00000230: 3840 a5bd b9e9 83bd 6f79 52bd 65ca e2bc
00000240: 1bcf b7bd 2efc f73c ecf5 a3bd 7ae9 9a3c
00000250: 2dd6 1c3d c26d 70bd 1f5f 213c 8877 d73a
00000260: 1740 8dbd 5a65 9fbd b1e7 afbd 7dc8 18bd
00000270: 6e73 98bd 7bae 49bd 8164 f33e 3cff bd3b
00000280: 2283 84bc 9c83 4dbd 9366 34bd 200e 58bd
00000290: 6d8f 8c3d faf3 d23c 4cc7 5cbd 227c 963d
000002a0: 3f4f e6bd e441 8c3d 17b8 4bbc 7592 1a3e
000002b0: 6dd7 f03e 89f9 3ebc 7fa7 09bd 8638 833d
000002c0: 4811 afbd 0f24 073e 0d5b 9bbd 2424 36bb
000002d0: cd70 46bd 4917 debc b2dc 3fbd aa17 03be
000002e0: 88aa 94bd 96eb 50bd c74d 4f3f d910 72bd
000002f0: 5450 b0bd 206c 90bc 036f 913e d3a7 643c
00000300: 997c bebc c685 a93d 801f 013d 2d89 063d
00000310: 1d98 4dbd 80d6 50bd f778 89bd 2820 7bbd
00000320: 9f9a 87bd 146c d1bd ed06 1c3d 12da 0c3d
00000330: 09c8 f23c fa48 a5bd 207b a33b 4767 39bc
00000340: a2da abbc 7fdf a43c 185f 6fbd af1e 6a3f
00000350: 4360 81bd e3e4 183d 2ea5 af3c 6cf1 91bd
00000360: f6bc 023f 0c9e 47bd 20ab 26bd b3b3 cbbc
00000370: 2726 663b 1af1 2b3c d926 2b3f 5092 44bd
00000380: fb8a ca3c f785 48bd 726e 84bd 6d8e 203d
00000390: a458 fbbc f4cb 9abd 91a9 4bbd dde5 dd3d
000003a0: a0c7 14bd 92d8 b43d 3c5a c0bc e432 a2ba
000003b0: 9256 5d3b 7a22 15bc bbcf acbc d122 fc3d
000003c0: 937e e6bc 7d33 98bd 6b26 023d 65ba 22bd
000003d0: f754 a8bd 2df4 b13c 45bb e73c fbcc 58bd
000003e0: d0c8 45bd 2744 8ebd b717 1c3d 2b77 d3bd
000003f0: 527c 0ebe 20ff 65bd 049a 70bd 297e 2d3d

linear3.weight f4 [3, 256]
0.018961161 0.018132256 0.0060875798 0.05734285 -0.0020802289 -0.2724186 0.045112077 -0.03234655
-0.1488117 0.021761483 -0.41064098 0.026213681 -0.007927857 -0.019048613 0.01377254 -0.25486046
0.03428689 -0.008262758 -0.03944536 0.052788086 -0.037923723 0.04031796 0.1620531 -0.103807606
0.046044186 -0.0042439476 0.038872864 -0.015346982 0.018197052 0.021117914 0.02375113 0.16077228
0.018956283 -0.25083715 -0.07955 0.03538066 -0.025484836 0.09308503 -0.038875278 -0.29362074
0.0030936226 0.025919938 -0.049757056 0.015742347 -0.136109 -0.21710317 0.0067712 0.10048742
0.047640562 -0.016222367 0.050740473 0.013062527 0.0033070715 0.06169577 -0.029712854 0.021718608
-0.026499547 -0.02785031 0.024239127 -0.29720753 0.2191024 -0.2900982 -0.010854825 -0.11291724
0.02609485 0.0714741 0.020028103 0.025103929 -0.30384052 -0.0729016 0.055633496 0.04467779
-0.0068820417 -0.0070283515 -0.06930977 -0.30660784 -0.21624644 0.02437291 0.0003752047 0.031345494
0.21863732 0.038207404 -0.015103222 -0.3145063 0.022222202 0.015148929 -0.024401478 0.011163779
0.047267564 -0.011620676 0.0018085528 0.08589698 -0.10856278 -0.10550322 -0.006823082 0.0103115225
0.032076485 -0.076053895 0.0007522317 -0.002299405 -0.016517702 0.021236952 0.008773984 -0.0042608376
0.19051929 0.045593895 0.015102609 -0.04060331 -0.060394727 0.009348703 0.024369942 -0.02017258
0.033039354 0.015724113 -0.066891074 0.05772037 -0.043738786 0.021722822 -0.15728338 -0.05506268
0.046107102 0.08424834 0.0018785463 0.024591481 0.10307628 0.03641635 0.04430362 -0.007881687
-0.002205746 -0.03516736 0.052940544 -0.013594117 -0.19894522 -0.0066109593 0.07896974 0.21391533
0.026262846 -0.1604351 0.00271543 -0.39258984 -0.02223217 0.011501546 0.040270574 0.030767292
-0.022291092 -0.24430123 -0.006627588 -0.008906443 0.011524117 -0.011995296 -0.011810828 -0.13448355
-0.03092616 0.027653133 -0.11215159 -0.0190624 -0.047011673 0.03545797 0.12005106 -0.008269992
-0.21511018 -0.026579544 -0.027850641 -0.013270073 0.049654555 0.023019774 0.046134297 -0.005745596
0.028043427 -0.043660548 0.032055695 0.05506376 0.20844923 -0.28772876 0.041416444 -0.27487794
0.009315764 0.13949305 -0.026854277 -0.3115866 -0.0007533729 -0.012766725 0.037573393 0.035264276
0.054842837 0.03979028 0.21340214 0.028323319 0.011343206 0.040676396 0.11623487 0.002536155
0.021688908 0.08269883 0.1072746 -0.023253886 0.037742313 0.029689949 0.050168112 0.015601542
-0.021810124 -0.025107112 -0.2600301 0.070841275 -0.13749433 0.0029006146 0.0003211636 -0.26814663
0.03918649 0.13204388 0.036006056 0.21669024 -0.03923736 0.017307907 0.058872618 0.030985458
0.15399249 -0.029784048 -0.01973665 -0.025046062 0.0050464636 0.02999114 0.20586196 0.03495288
0.028371366 -0.06281016 -0.011005548 0.029770007 0.027464904 -0.05415119 -0.018028056 -0.022513548
0.11764133 -0.041717034 0.028848734 0.009851299 -0.027049366 -0.0064397505 -0.058304597 0.06568031
-0.11668908 -0.0069506946 0.034459017 0.033111095 -0.051966496 -0.058811747 -0.04954785 0.006544669
-9.371744e-05 0.012709534 -0.132907 -0.079121724 0.00016005026 -0.0439168 -0.021749299 0.13110675
00000000: 7054 9b3c 198a 943c 527a c73b 56e0 6a3d
00000010: 7354 08bb 737a 8bbe 71c7 383d d17d 04bd
00000020: 1862 18be 2345 b23c 893f d2be 13be d63c
00000030: d8e3 01bc d60b 9cbc 38a6 613c 127d 82be
00000040: 6970 0c3d 8560 07bc 7591 21bd 5238 583d
00000050: e855 1bbd 7224 253d 3ff1 253e 1599 d4bd
00000060: d498 3c3d d010 8bbb 2739 1f3d e871 7bbc
00000070: fc11 953c 7aff ac3c bb91 c23c 7da1 243e
00000080: 354a 9b3c ba6d 80be 1ceb a2bd 50eb 103d
00000090: 93c5 d0bc 5da3 be3d af3b 1fbd 7555 96be
000000a0: 60be 4a3b 0d56 d43c 0ece 4bbd 18f6 803c
000000b0: 2860 0bbe 4b50 5ebe f1e0 dd3b 59cc cd3d
000000c0: c022 433d c5e4 84bc 3ed5 4f3d 3604 563c
000000d0: 74bb 583b b4b4 7c3d 5f68 f3bc 39eb b13c
000000e0: 9415 d9bc 5526 e4bc 2291 c63c 962b 98be
000000f0: 615c 603e c087 94be 70d8 31bc 2741 e7bd
00000100: dec4 d53c 0361 923d fa11 a43c c1a6 cd3c
00000110: fc90 9bbe 6f4d 95bd f3df 633d 0f00 373d
00000120: c082 e1bb 164e e6bb 48f2 8dbd b4fb 9cbe
00000130: b56f 5dbe b2a9 c73c 1fb7 c439 2264 003d
00000140: 76e2 5f3e 5e7f 1c3d 8173 77bc f806 a1be
00000150: 560b b63c 3733 783c 9ce5 c7bc 48e8 363c
00000160: a29b 413d a664 3ebc f60c ed3a c1ea af3d
00000170: 2a56 debd 1212 d8bd 2994 dfbb a9f1 283c
00000180: a262 033d 25c2 9bbd 6a31 453a 9db1 16bb
00000190: 2250 87bc 1ef9 ad3c c2c0 0f3c 7f9e 8bbb
000001a0: 7d17 433e aac0 3a3d ef70 773c a84f 26bd
000001b0: 7660 77bd 4d2b 193c 79a3 c73c f740 a5bc
000001c0: 4654 073d dbcf 803c 30fe 88bd 326c 6c3d
000001d0: 7127 33bd 0ff4 b13c e50e 21be 6889 61bd
000001e0: cdda 3c3d 658a ac3d 8e39 f63a 1374 c93c
000001f0: a819 d33d 5029 153d b677 353d 3122 01bc
00000200: 478e 10bb a60b 10bd 2fd8 583d dcb9 5ebc
00000210: 4cb8 4bbe bfa0 d8bb e3ba a13d 9f0c 5b3e
00000220: 2e25 d73c 1949 24be 5bf5 313b 8901 c9be
00000230: 3d20 b6bc fb70 3c3c c2f2 243d b00b fc3c
00000240: cf9b b6bc 1a2a 7abe 3d2c d9bb 54ec 11bc
00000250: a6cf 3c3c eb87 44bc 3482 41bc 0eb6 09be
00000260: dc58 fdbc d388 e23c bcaf e5bd c028 9cbc
00000270: 508f 40bd 603c 113d 55dd f53d dc7e 07bc
00000280: d845 5cbe 58bd d9bc 0727 e4bc b86a 59bc
00000290: 9362 4b3d f793 bc3c 51f7 3c3d 8d45 bcbb
000002a0: 54bb e53c 67d5 32bd d54c 033d 8a8a 613d
000002b0: b773 553e 2f51 93be 4aa4 293d cdbc 8cbe
000002c0: 25a1 183c 44d7 0e3e 80fd dbbc 4788 9fbe
000002d0: 007e 45ba 872b 51bc 8fe6 193d 4671 103d
000002e0: e2a2 603d 22fb 223d 1786 5a3e 4e06 e83c
000002f0: dbd8 393c 4b9c 263d 8c0c ee3d 9f35 263b
00000300: f0ac b13c 015e a93d c9b2 db3d ef7e bebc
00000310: af97 1a3d 5638 f33c 147d 4d3d 9c9d 7f3c
00000320: 25ab b2bc 6ead cdbc aa22 85be 3b15 913d
00000330: 50cb 0cbe 3d18 3e3b d961 a839 844a 89be
00000340: 0382 203d 8336 073e 167b 133d 0ce4 5d3e
00000350: 5bb7 20bd 50c9 8d3c 6a24 713d 37d5 fd3c
00000360: 35b0 1d3e adfd f3bc c1ae a1bc 662d cdbc
00000370: ce5c a53b fbaf f53c 7acd 523e c02a 0f3d
00000380: 116b e83c 9da2 80bd 9d50 34bc 3be0 f33c
00000390: 14fe e03c a3cd 5dbd 93af 93bc 556e b8bc
000003a0: f0ed f03d 7bdf 2abd 2e54 ec3c 5867 213c
000003b0: a296 ddbc 8b04 d3bb cdd0 6ebd 6683 863d
000003c0: affa eebd a7c2 e3bb e624 0d3d 809f 073d
000003d0: d2da 54bd 96e4 70bd b0f2 4abd aa74 d63b
000003e0: 2b8a c4b8 a63b 503c c618 08be 920a a2bd
000003f0: 2ad3 2739 1ae2 33bd 962b b2bc d940 063e

linear3.bias f4 [3]
0.16931382 0.1590056 0.18556288
00000000: 9a60 2d3e 5dd2 223e 3204 3e3e
