checkpoint_game_1200.pth (torch, 281418 bytes, 6 tensors)

linear1.weight f4 [256, 11]
-0.20707764 0.17917858 -0.12465361 0.1471451 0.087484494 0.11607977 -0.1928187 -0.16442885
-0.10900319 -0.14658207 -0.26476756 0.1935382 0.13050137 -0.15423608 -0.12032864 -0.02298628
-0.061872963 -0.191212 -0.046200488 -0.2539666 -0.015143925 -0.17253505 0.17623183 0.120916456
0.10076861 -0.6128348 0.15524705 -0.43889806 0.63771915 -0.35554197 -0.634347 -0.8951063
0.24089058 -0.06614648 0.07368781 0.15898189 0.012110155 -0.040739987 -0.52208155 -0.35439807
-0.1825265 0.03502036 -0.41649652 -0.3147674 0.045987748 -0.23787743 -0.2950783 -0.013837608
-0.116277345 -0.3163472 0.64229375 -0.43974942 -0.6146814 0.39289021 -0.33104596 -0.076991394
0.18864651 -0.30172762 -0.4432347 -0.037350256 -0.52815926 -0.004684319 -0.28693464 -0.25818807
-0.08472091 -0.4715008 0.6134959 -0.56417674 -0.22308697 0.27808598 -0.047379307 -0.48199752
-0.53357416 -0.06577675 0.118514866 0.39679864 0.5560205 -0.47982118 0.16282341 0.49779028
-0.4632083 -0.48660612 0.25496212 0.16282104 -0.37125 -0.16134264 0.12583467 0.18722862
0.23089477 0.10230067 -0.0077835345 0.30835965 0.2598994 -0.7415118 -0.48968878 -0.8343808
-0.81133616 0.16637592 0.2810431 -0.2707334 0.3942985 0.59600633 -0.14739126 -0.22705904
-0.36695126 -0.19318934 -0.0024912483 -0.15084168 -0.20344518 -0.26874623 -0.2887948 -0.121796235
0.09525552 -0.29222462 0.14385448 0.26769072 -0.31948072 -0.48239604 -0.30671412 0.27479506
-0.23431006 -0.26794866 0.5606966 -0.08269702 0.23406163 0.107622094 -0.323985 -0.79203993
0.21191879 0.34654182 -0.31866637 -0.613323 -0.16528341 0.23540816 0.03299874 -0.20676324
-0.42479557 -0.17895147 -0.13927329 -0.08344346 -0.025841435 -0.23217356 -0.21111971 0.10814928
0.24708861 -0.059553433 0.050078124 0.012269887 -0.20386341 0.029083459 2.880857e-05 -0.12803882
0.07602709 -0.20631517 0.08767642 0.25080383 -0.47160393 0.08090443 -0.48199913 0.58606076
-0.42179263 -0.37210777 -0.5956211 -0.6734015 0.248176 -0.47744823 0.27823725 0.22894682
-0.4829267 0.20726073 0.26741722 -0.08877382 -0.66745436 -0.40192848 -0.77581924 -0.25007632
0.06798643 0.14281563 0.071220174 -0.012710361 -0.028571337 0.014376939 -0.3243176 -0.4851449
-0.23097618 -0.111691706 -0.50228614 0.09463698 -0.48938537 -0.030517494 -0.017772935 -0.10736714
-0.11626648 -0.025435071 0.034006856 -0.42709044 -0.0021937334 -0.0050304052 0.12989883 -0.32352597
-0.10687335 -0.28261817 0.46003157 -0.526917 -0.50004786 0.5602793 -0.33720443 -0.8790925
-0.81918913 -0.25626484 -0.17554313 -0.23195562 -0.17906912 -0.10749231 0.14651696 -0.16113473
-0.33106542 -0.22933383 -0.13406359 0.12604247 -0.11622119 0.039372377 0.0694703 0.014625644
-0.5176989 -0.30179542 -0.11691431 -0.50887454 -0.41815203 -0.09498132 -0.041400366 -0.011676926
0.8258026 -0.12824671 0.3514636 -0.18758874 -0.19927728 0.2401077 -0.110026725 0.14310962
-0.32941717 0.19844964 0.13003062 -0.20981929 0.12227534 -0.6551011 -0.2720292 -0.34776372
0.08649595 0.088967666 -0.2075397 -0.36980855 -0.40403256 0.3461191 0.5245754 0.48478287
00000000: 290c 54be 977a 373e 644a ffbd 35ad 163e
00000010: 122b b33d 3bbb ed3d 4472 45be 0960 28be
00000020: 113d dfbd 9c19 16be 9d8f 87be e12e 463e
00000030: 27a2 053e 10f0 1dbe dd6e f6bd b94d bcbc
00000040: 816e 7dbd 14cd 43be b93c 3dbd e907 82be
00000050: 3a1e 78bc 07ad 30be 1e76 343e 0ca3 f73d
00000060: c65f ce3d bee2 1cbf 15f9 1e3e 3fb7 e0be
00000070: 9041 233f 9909 b6be 9164 22bf b025 65bf
00000080: 05ac 763e ce77 87bd a2e9 963d 26cc 223e
00000090: ac69 463c f9de 26bd 23a7 05bf aa73 b5be
000000a0: 3ae8 3abe 8271 0f3d 083f d5be 3129 a1be
000000b0: a65d 3c3d 2496 73be 8114 97be 22b7 62bc
000000c0: d122 eebd 43f8 a1be 5d6d 243f d626 e1be
000000d0: c35b 1dbf e828 c93e db7e a9be aaad 9dbd
000000e0: 8d2c 413e 0b7c 9abe a9ef e2be 95fc 18bd
000000f0: 7235 07bf ea7e 99bb 19e9 92be 3a31 84be
00000100: 2882 adbd 8e68 f1be 110e 1d3f e36d 10bf
00000110: e970 64be 4961 8e3e ce10 42bd 61c8 f6be
00000120: 5198 08bf f6b5 86bd ecb7 f23d 3129 cb3e
00000130: 5c57 0e3f 1fab f5be 2ebb 263e 5ede fe3e
00000140: a329 edbe 7024 f9be 658a 823e 8fba 263e
00000150: 7b14 bebe 0137 25be ceda 003e dcb8 3f3e
00000160: ae6f 6c3e 0483 d13d 050d ffbb 51e1 9d3e
00000170: 8911 853e b8d3 3dbf 7db8 fabe fb99 55bf
00000180: bab3 4fbf 735e 2a3e e2e4 8f3e 919d 8abe
00000190: 7ee1 c93e df93 183f bced 16be 2a82 68be
000001a0: 09e1 bbbe 6dd3 45be 3644 23bb 3e76 1abe
000001b0: ef53 50be 1b99 89be e9dc 93be 4e70 f9bd
000001c0: 5315 c33d 779e 95be 974e 133e c20e 893e
000001d0: fa92 a3be 9dfc f6be a209 9dbe f0b1 8c3e
000001e0: faee 6fbe 9130 89be d089 0f3f 0e5d a9bd
000001f0: daad 6f3e f968 dc3d 5de1 a5be 21c3 4abf
00000200: 3d01 593e ee6d b13e 3d28 a3be bc02 1dbf
00000210: 0e40 29be d60e 713e b029 073d beb9 53be
00000220: ce7e d9be 0e3f 37be a89d 0ebe 68e4 aabd
00000230: 6bb1 d3bc e8be 6dbe c42f 58be 5f7d dd3d
00000240: cc04 7d3e 4dee 73bd b81e 4d3d a307 493c
00000250: 92c1 50be 6f40 ee3c efa9 f137 9c1c 03be
00000260: 17b4 9b3d 4944 53be b28f b33d 5c69 803e
00000270: 1276 f1be 39b1 a53d 97c8 f6be 1408 163f
00000280: 34f5 d7be e984 bebe a07a 18bf 0a64 2cbf
00000290: d921 7e3e 1874 f4be 1d75 8e3e 0971 6a3e
000002a0: 2b42 f7be 283c 543e e9ea 883e 0ccf b5bd
000002b0: 4ade 2abf 92c9 cdbe 179c 46bf 010a 80be
000002c0: 783c 8b3d 433e 123e e2db 913d 1e3f 50bc
000002d0: 700e eabc 418d 6b3c f50c a6be ea64 f8be
000002e0: 0585 6cbe 9fbe e4bd d395 00bf 08d1 c13d
000002f0: b890 fabe d3ff f9bc 8c98 91bc 4ee3 dbbd
00000300: 1f1d eebd 365d d0bc c64a 0b3d 99ab dabe
00000310: bdc4 0fbb 19d6 a4bb 3304 053e 32a5 a5be
00000320: 6ae0 dabd 54b3 90be 4289 eb3e 08e4 06bf
00000330: 2303 00bf 776e 0f3f 0fa6 acbe 350c 61bf
00000340: 61b6 51bf 2535 83be 94c1 33be c685 6dbe
00000350: e55d 37be ee24 dcbd 8b08 163e 8100 25be
00000360: 6881 a9be 7dd6 6abe f747 09be 4711 013e
00000370: 6005 eebd ee44 213d 7246 8e3d 66a0 6f3c
00000380: ea87 04bf ee84 9abe c570 efbd 9a45 02bf
00000390: 0618 d6be 9185 c2bd 6e93 29bd 9450 3fbc
000003a0: cd67 533f 1b53 03be 09f3 b33e 4317 40be
000003b0: 580f 4cbe cbde 753e b155 e1bd 548b 123e
000003c0: 5ea9 a8be 6236 4b3e bf26 053e deda 56be
000003d0: 7e6b fa3d b5b4 27bf 6947 8bbe 160e b2be
000003e0: ca24 b13d ae34 b63d 4a85 54be 8c57 bdbe
000003f0: 5bdd cebe 8636 b13e 934a 063f 7635 f83e

linear1.bias f4 [256]
-0.30690023 -0.34456125 0.044087358 -0.29872835 -0.28991923 -0.1269103 -0.12772396 -0.41410124
-0.10357818 -0.09611422 -0.44152 -0.07662268 -0.14442791 -0.4837232 0.040812176 -0.12511212
-0.2700587 -0.24846885 -0.36680847 -0.29825026 -0.111378595 -0.07297189 -0.2575968 -0.22138768
-0.11998576 -0.27745256 -0.21089622 -0.3914496 -0.4765909 0.2961537 -0.3187633 -0.0956839
-0.21265045 0.29998222 -0.07852671 -0.3630601 -0.18903393 -0.1928204 -0.30800498 -0.10409003
-0.23122452 0.04298294 -0.10955239 -0.17997533 -0.1469832 -0.060774148 -0.2602608 -0.30304638
0.21385752 -0.2769143 -0.059881415 -0.35549498 -0.3326403 0.112785615 0.25270623 0.9093385
0.00930319 -0.33540386 0.86973584 -0.06398662 -0.08704102 -0.19915892 -0.17780472 -0.018068656
-0.32263172 -0.45455822 -0.29019436 -0.08826253 -0.06712323 -0.5669684 -0.1316072 0.019193841
1.3071107 -0.3615184 -0.35133627 -0.052097473 -0.117430046 -0.20489933 -0.22722568 -0.4018958
0.23333476 0.4319791 -0.09360356 -0.14503185 -0.14219156 -0.3153086 -0.09204139 -0.40409333
0.06731247 -0.37081757 -0.32418776 0.1163081 0.15441327 -0.07017404 -0.41587448 -0.42810166
-0.3714242 -0.14379922 -0.123663135 -0.4395285 -0.2648103 0.069213755 0.031832572 -0.45528072
-0.10484626 -0.016833164 -0.057185385 -0.12301387 -0.10494398 -0.5040242 -0.24945663 -0.07481417
-0.27784064 -0.10246978 0.07810905 0.14760402 -0.06964998 0.7808098 -0.12286783 -0.33374932
0.35643974 0.08357467 -0.4629436 -0.19944377 0.058622174 -0.34564993 -0.3907837 0.005251555
0.6665199 -0.29590064 0.016063739 -0.036241423 -0.10522767 -0.03832798 -0.14389046 -0.25305134
-0.049814925 0.27640733 0.11971581 0.3483217 -0.06452509 -0.15478115 -0.20001753 -0.4183353
-0.09150921 -0.26538882 1.6922097 -0.08357735 -0.40444922 0.13919975 -0.15264396 0.25779352
-0.22427166 -0.1489845 0.013703712 -0.138286 -0.24965857 -0.24603015 0.06748501 0.057864048
-0.15567295 0.22575232 -0.45908725 -0.30552447 0.1865875 0.8430771 -0.42846763 -0.22829898
-0.33018523 -0.23441802 0.016116664 0.11852362 0.38372883 0.06118004 -0.16243543 0.41097924
0.29884487 -0.13505453 -0.14370058 -0.37256518 0.048338987 0.1352281 -0.19359869 0.018588146
-0.38089907 0.123717114 0.10498717 0.04682321 0.22138025 -0.3780662 -0.08171083 -0.034055624
-0.24556935 -0.3643898 -0.092993446 -0.10108374 -0.10388306 -0.58860034 0.10577783 0.06201291
-0.11528728 -0.5381368 -0.20828499 -0.28701553 0.056322552 -0.30230966 -0.18801272 -0.049009956
-0.3619396 -0.06381694 1.5165848 0.34109738 -0.28168076 -0.059982244 -0.2633452 -0.298407
-0.050867803 -0.28332824 -0.5088131 -0.08011509 0.028668609 0.18848152 -0.2786917 0.36198184
-0.17883745 0.15473573 -0.27479336 -0.18058336 -0.094873294 -0.31655857 -0.23729159 -0.58868986
0.08522835 -0.24781196 0.028218959 -0.36544326 -0.0886533 -0.11647341 -0.010674072 0.14232355
-0.15906154 -0.24084705 -0.08543338 -0.18264206 -0.16305184 0.021743458 -0.3234672 -0.1326137
-0.12826678 0.36153015 1.8009869 0.02482626 -0.23973003 -0.3532054 -0.10158702 -0.31568676
00000000: 0722 9dbe 556a b0be f294 343d ecf2 98be
00000010: 4b70 94be c6f4 01be 12ca 02be 1405 d4be
00000020: cc20 d4bd 88d7 c4bd e90e e2be 5aec 9cbd
00000030: e9e4 13be 91aa f7be ab2a 273d 641d 00be
00000040: 2245 8abe 9e6e 7ebe 52ce bbbe 42b4 98be
00000050: 761a e4bd 4972 95bd bae3 83be 74b3 62be
00000060: 18bb f5bd 430e 8ebe 2ef5 57be 156c c8be
00000070: b903 f4be 75a1 973e f134 a3be ecf5 c3bd
00000080: 0ac1 59be 4597 993e 9dd2 a0bd 03e3 b9be
00000090: 1c92 41be b672 45be d4b2 9dbe 272d d5bd
000000a0: 1fc6 6cbe e10e 303d 015d e0bd 744b 38be
000000b0: c482 16be 50ee 78bd e740 85be e528 9bbe
000000c0: 77fd 5a3e b6c7 8dbe 3746 75bd 7003 b6be
000000d0: d44f aabe 25fc e63d b662 813e 68ca 683f
000000e0: 686c 183c 0eba abbe 02a7 5e3f 6b0b 83bd
000000f0: 9042 b2bd 51f0 4bbe 7112 36be b804 94bc
00000100: fc2f a5be dbbb e8be 5b94 94be fcc2 b4bd
00000110: e777 89bd d724 11bf 0ac4 06be 673c 9d3c
00000120: 674f a73f f118 b9be 59e2 b3be 2964 55bd
00000130: 2a7f f0bd 21d1 51be d9ad 68be 49c5 cdbe
00000140: 4fef 6e3e 5d2c dd3e 39b3 bfbd 3b83 14be
00000150: aa9a 11be 2170 a1be 3280 bcbd 52e5 cebe
00000160: 1fdb 893d cddb bdbe f0fb a5be f132 ee3d
00000170: 831e 1e3e 68b7 8fbd 80ed d4be 2430 dbbe
00000180: 502b bebe 1a40 13be 1943 fdbd e109 e1be
00000190: 3795 87be f1bf 8d3d df62 023d 8e1a e9be
000001a0: a3b9 d6bd b4e5 89bc 393b 6abd b2ee fbbd
000001b0: dfec d6bd bb07 01bf 8f71 7fbe 2c38 99bd
000001c0: 2141 8ebe addb d1bd a3f7 9f3d 8225 173e
000001d0: a6a4 8ebd 27e3 473f 21a2 fbbd 31e1 aabe
000001e0: 457f b63e 3229 ab3d f206 edbe fd3a 4cbe
000001f0: ce1d 703d 07f9 b0be cd14 c8be 3c15 ac3b
00000200: 0ca1 2a3f 4a80 97be 1a98 833c e371 14bd
00000210: 9b81 d7bd cdfd 1cbd 0558 13be f28f 81be
00000220: bc0a 4cbd 4385 8d3e 902d f53d 3957 b23e
00000230: bb25 84bd f37e 1ebe 65d1 4cbe 0b30 d6be
00000240: 2e69 bbbd 0be1 87be 549a d83f 9a2a abbd
00000250: f813 cfbe 618a 0e3e b34e 1cbe 83fd 833e
00000260: 78a7 65be 658f 18be 8985 603c d89a 0dbe
00000270: 7fa6 7fbe 54ef 7bbe 9535 8a3d da02 6d3d
00000280: bb68 1fbe 9e2b 673e 7c0d ebbe b46d 9cbe
00000290: cb10 3f3e e7d3 573f 1c60 dbbe 35c7 69be
000002a0: 0a0e a9be 470b 70be 1807 843c 83bc f23d
000002b0: 1b78 c43e ec97 7a3d 7955 26be df6b d23e
000002c0: 3202 993e bc4b 0abe 3f26 13be ddc0 bebe
000002d0: 1aff 453d 3c79 0a3e bc3e 46be 2b46 983c
000002e0: 3405 c3be 665f fd3d 8303 d73d b2c9 3f3d
000002f0: 81b1 623e e591 c1be 0258 a7bd e97d 0bbd
00000300: 8876 7bbe 4d91 babe 5973 bebd fe04 cfbd
00000310: a4c0 d4bd 83ae 16bf 0ca2 d83d 4001 7e3d
00000320: bd1b ecbd 55c3 09bf a948 55be b3f3 92be
00000330: 7ab2 663d 55c8 9abe 6886 40be aabe 48bd
00000340: 2650 b9be 75b2 82bd 731f c23f 51a4 ae3e
00000350: 7638 90be f1af 75bd 2fd5 86be cdc8 98be
00000360: c25a 50bd 6610 91be 9341 02bf 6113 a4bd
00000370: 6eda ea3c 4d01 413e aeb0 8ebe af55 b93e
00000380: 2a21 37be 0b73 1e3e b7b1 8cbe d8ea 38be
00000390: ee4c c2bd f713 a2be 91fc 72be 61b4 16bf
000003a0: 338c ae3d 6bc2 7dbe 722b e73c 611b bbbe
000003b0: dd8f b5bd 9c89 eebd 4ee2 2ebc 44bd 113e
000003c0: 07e1 22be 9ca0 76be b2f7 aebd 8506 3bbe
000003d0: 10f7 26be 561f b23c 7e9d a5be e3cb 07be
000003e0: 5e58 03be 7b1a b93e bd86 e63f 7160 cb3c
000003f0: ca7b 75be 57d7 b4be db0c d0bd b2a1 a1be

linear2.weight f4 [256, 256]
0.00036640465 -0.003813222 0.08785899 0.0033638643 -0.0056282054 -0.010835924 0.018550409 -0.033964433
-0.04910409 -0.033086937 -0.059450056 0.011407919 0.020728512 -0.009715637 -0.0002842416 -0.04841381
-0.061376423 -0.006313165 0.038994864 0.017472692 -0.065216094 -0.0039636455 -0.013547497 -0.006785607
-0.033248037 -0.04818404 -0.066619374 -0.020602046 -0.046473965 -0.048215933 -0.004630778 -0.0011301319
-0.11741775 -0.07856349 -0.05750409 -0.08905999 -0.076510444 -0.05173751 0.054590136 -0.028809719
0.020272022 0.021611033 0.016571019 0.007325314 -0.0052352725 -0.02876421 -0.05791838 0.07131921
-0.022313494 -0.010814875 -0.047140665 0.016589874 -0.05685229 -0.011520312 -0.063265234 -0.05821064
-0.0320676 0.008042855 -0.10568725 0.04202618 0.034634512 -0.0425272 -0.011446133 -0.072409235
-0.06442099 0.01414257 0.016587555 0.07457438 -0.061287757 0.028432095 -0.0006532564 -0.090357825
-0.06586513 -0.018098349 -0.052013006 -0.045201804 -0.0012382732 0.05731513 0.051337063 0.016448952
-0.105614305 -0.037952628 0.0064909053 -0.039977256 -0.103495106 -0.025270693 -0.052298453 -0.0753274
-0.008969174 -0.047852594 -0.016424136 -0.055996306 0.0013200304 0.009681873 0.031562105 -0.0390496
0.048725203 -0.007773561 0.021500757 -0.08852965 -0.004984465 -0.10094173 -0.066046536 -0.06246247
-0.03424928 -0.05172728 0.03879425 -0.053633675 -0.063598245 -0.07782553 -0.015522493 -0.062383488
-0.011728848 -0.04140389 -0.06836494 -0.011851251 0.0041202805 -0.10482074 0.04126118 -0.034502074
-0.09377541 -0.036364082 -0.056768913 -0.037802342 -0.009972717 -0.066452175 -0.05173131 -0.061121978
-0.11893865 -0.08986823 0.022918593 -0.037377335 0.071975246 0.05115977 -0.07373115 -0.013635387
-0.014660091 0.06563149 0.009070352 -0.046789106 -0.026996339 -0.04249798 -0.020905754 -0.01168412
0.014585824 -0.09137061 -0.01676168 -0.048612505 -0.015842974 -0.042174906 0.021945791 -0.025798595
-0.009228142 0.07870475 -0.045686696 -0.048493683 -0.028199822 -0.03841476 0.019807471 -0.04550828
-0.08644241 -0.053835697 -0.05137116 -0.015646033 0.035989486 -0.08315162 -0.053937286 -0.007528481
-0.0116716325 -0.07791484 -0.0015787466 -0.06366916 0.009211477 0.046814177 0.045678414 0.0058156615
0.012381552 0.033048756 -0.030412735 0.017306585 -0.05184374 -0.019208288 -0.121895954 0.058660775
-0.011116545 -0.03576956 0.017554717 -0.029060505 0.00038559746 0.0017932281 -0.061720505 -0.055060346
-0.03756278 -0.057321627 -0.054199938 0.029936232 -0.0805817 0.045320187 -0.108888246 0.042087264
0.019122535 -0.11281145 0.062137052 0.059747115 0.0011236225 -0.03700859 -0.009678645 -0.04671733
-0.04793719 -0.037081648 -0.092911005 -0.04162759 -0.041623004 0.01566368 -0.077007465 0.009737223
0.03263557 0.0507227 -0.025082389 0.0009143952 -0.093562976 0.009010145 0.033451468 -0.04239176
-0.019527288 -0.049672462 -0.04523655 -0.03531459 -0.038038034 -0.0057069384 -0.033235285 -0.081310526
-0.0357703 0.024796223 -0.04571261 -0.03312997 0.041136224 -0.03511946 -0.042686194 -0.0679411
-0.00045132486 -0.07414849 -0.011708138 -0.06970491 0.0013957918 -0.012846582 -0.04753985 0.06757463
0.018678598 -0.067669 -0.07383484 0.016982423 -0.02986756 -0.070338085 0.037615288 -0.011496348
00000000: 001a c039 40e7 79bb 6aef b33d 4774 5c3b
00000010: cf6c b8bb 2989 31bc 07f7 973c 4a1e 0bbd
00000020: 5f21 49bd 2b86 07bd e781 73bd 48e8 3a3c
00000030: d7ce a93c 562e 1fbc 4306 95b9 8f4d 46bd
00000040: d865 7bbd abde cebb 14b9 1f3d e422 8f3c
00000050: 0490 85bd 78e1 81bb 52f6 5dbc cc59 debb
00000060: 182f 08bd a15c 45bd bd6f 88bd 9fc5 a8bc
00000070: 7c5b 3ebd 127e 45bd c8bd 97bb ef20 94ba
00000080: b878 f0bd e5e5 a0bd 6989 6bbd 1665 b6bd
00000090: 82b1 9cbd b6ea 53bd e899 5f3d 5c02 ecbc
000000a0: 8311 a63c 9f09 b13c f2bf 873c 3009 f03b
000000b0: a68c abbb eca2 ebbc d33b 6dbd ce0f 923d
000000c0: caca b6bc e030 31bc 9216 41bd 7de7 873c
000000d0: f2dd 68bd b1bf 3cbc 3491 81bd 486e 6ebd
000000e0: 5159 03bd 2ec6 033c 8f72 d8bd a523 2c3d
000000f0: ebdc 0d3d 0031 2ebd 9088 3bbc 4b4b 94bd
00000100: 27ef 83bd 3db6 673c a0e2 873c 74ba 983d
00000110: df08 7bbd 6dea e83c 4b3f 2bba 860d b9bd
00000120: 4ce4 86bd fd42 94bc 970b 55bd 8725 39bd
00000130: 8e4d a2ba 45c3 6a3d d046 523d f4bf 863c
00000140: 504c d8bd 3774 1bbd a9b1 d43b 31bf 23bd
00000150: 3ef5 d3bd 7c04 cfbc e736 56bd 4045 9abd
00000160: 71f3 12bc 1501 44bd e98b 86bc 625c 65bd
00000170: df04 ad3a b8a0 1e3c 4447 013d 79f2 1fbd
00000180: 1494 473d 5bb9 febb 5b22 b03c 084f b5bd
00000190: b954 a3bb 8aba cebd 6843 87bd a6d8 7fbd
000001a0: f948 0cbd fcdf 53bd b8e6 1e3d fcae 5bbd
000001b0: cc3f 82bd fe62 9fbd 0e52 7ebc d485 7fbd
000001c0: 5b2a 40bc 2097 29bd eb02 8cbd c02b 42bc
000001d0: 6b03 873b 42ac d6bd 7c01 293d 0c52 0dbd
000001e0: 520d c0bd 81f2 14bd 8586 68bd a1d6 1abd
000001f0: 9b64 23bc 1418 88bd 36e4 53bd 0a5b 7abd
00000200: 1b96 f3bd d60c b8bd c6bf bb3c fa18 19bd
00000210: c267 933d e88c 513d 5b00 97bd f566 5fbc
00000220: e130 70bc cd69 863d d09b 143c efa5 3fbd
00000230: 6d27 ddbc 5d12 2ebd 8b42 abbc c06e 3fbc
00000240: 61f9 6e3c 8420 bbbd ca4f 89bc e81d 47bd
00000250: 20c9 81bc 98bf 2cbd a9c7 b33c 9357 d3bc
00000260: a231 17bc f52f a13d f921 3bbd 50a1 46bd
00000270: 5003 e7bc cc58 1dbd 4743 a23c e466 3abd
00000280: b808 b1bd d282 5cbd 916a 52bd 1c2c 80bc
00000290: b669 133d 664b aabd 58ed 5cbd 7ab1 f6bb
000002a0: 603a 3fbc d191 9fbd f2ed ceba fa64 82bd
000002b0: bceb 163c 39c0 3f3d 4a19 3b3d 4e91 be3b
000002c0: fedb 4a3c 225e 073d 2124 f9bc 8ac6 8d3c
000002d0: 1a5a 54bd b35a 9dbc 96a4 f9bd 4846 703d
000002e0: 2b22 36bc 1a83 12bd e9ce 8f3c 4c10 eebc
000002f0: 042a ca39 c00a eb3a a4ce 7cbd f586 61bd
00000300: 6edb 19bd 15ca 6abd c100 5ebd d43c f53c
00000310: 0508 a5bd a9a1 393d cd00 dfbd b263 2c3d
00000320: dda6 9c3c b109 e7bd 6c83 7e3d 64b9 743d
00000330: 8446 933a 5296 17bd 2e93 1ebc ac5a 3fbd
00000340: c959 44bd ede2 17bd 2048 bebd b181 2abd
00000350: e27c 2abd 1e51 803c 17b6 9dbd e088 1f3c
00000360: e0ac 053d 9bc2 4f3d 9579 cdbc 06b4 6f3a
00000370: f29d bfbd 4a9f 133c 6804 093d fba2 2dbd
00000380: b1f7 9fbc 5a75 4bbd f649 39bd 08a6 10bd
00000390: c5cd 1bbd 4501 bbbb b921 08bd 2286 a6bd
000003a0: e183 12bd 7321 cb3c 253d 3bbd 4bb3 07bd
000003b0: 757e 283d 6cd9 0fbd b8d7 2ebd b424 8bbd
000003c0: cc9f ecb9 2adb 97bd 7dd3 3fbc 73c1 8ebd
000003d0: 00f3 b63a 787a 52bc 25b9 42bd 9164 8a3d
000003e0: dc03 993c 0b96 8abd b836 97bd b91e 8b3c
000003f0: d0ac f4bc 6a0d 90bd 7d12 1a3d 2e5b 3cbc

linear2.bias f4 [256]
-0.00015093996 -0.02070619 -0.07845683 -0.06132444 -0.034161035 -0.066506535 0.02230228 -0.04971541
-0.22527368 -0.036269426 0.14567266 -0.04477993 -0.0460626 -0.025740914 -0.05074548 -0.13506131
-0.10572056 -0.06942126 -0.029017456 0.003810597 -0.13528705 -0.09104955 0.27826104 -0.14257032
-0.122876815 -0.03176123 -0.026621467 -0.042725228 -0.0574219 -0.09868324 -0.099483766 0.42512172
-0.17863917 -0.10669721 -0.04203017 -0.005748714 -0.123539396 0.061810173 0.006628544 -0.100472435
-0.07233889 -0.032484 -0.087146014 -0.07642164 -0.15824603 -0.266496 -0.104850926 0.18894336
0.03624989 -0.10812225 0.012230783 -0.091938555 -0.041537076 -0.10059779 -0.09458937 -0.04230866
-0.05924982 -0.044966567 -0.043725684 -0.119930655 2.6956735 0.0039380686 -0.0661431 -0.05541741
-0.09467359 0.054514892 -0.0700565 -0.0060661207 -0.01717033 -0.18990618 -0.095172614 -0.05029512
-0.1521242 -0.029292794 -0.12419547 -0.019530477 -0.080259986 -0.10152754 -0.037692543 -0.10456247
2.4201534 0.34972867 0.019140944 -0.22151132 -0.07914882 -0.034626365 -0.05013783 -0.043735486
-0.07289048 0.016013527 -0.04740348 0.24227022 -0.15128927 -0.110158645 -0.13951688 -0.0853105
-0.03590059 -0.118674405 -0.08080673 -0.026619716 -0.038482234 -0.021752676 -0.07262441 -0.06338918
1.7660311 -0.013779782 -0.052031133 -0.066901736 0.015548783 -0.1630309 -0.05587189 -0.061691042
-0.0437919 -0.0279722 -0.14047764 -0.05818531 -0.045293268 -0.101019606 -0.06019332 -0.17692502
-0.039560065 -0.009089752 -0.088732764 -0.18282054 0.0324242 -0.09612646 0.24106613 0.010156108
-0.061413772 0.009678599 -0.04867311 -0.14490727 -0.35521096 -0.040890753 -0.060700566 2.3058054
-0.096025586 -0.111010574 -0.00452221 0.12304051 -0.10248918 -0.064410634 -0.06340577 -0.05944899
-0.08975049 -0.13037242 -0.0800589 -0.012787657 -0.047408752 -0.09022305 -0.047988813 -0.2178803
-0.0689699 -0.07783003 -0.0854806 -0.037300576 -0.074438915 -0.08057562 0.63634497 -0.025818113
-0.20370272 -0.05017434 -0.07580515 -0.107278526 -0.16861248 0.025751103 -0.06817024 -0.05074441
-0.11245584 -0.25506032 -0.10832114 0.029935198 0.5749872 -0.2957803 -0.033607002 0.011482906
-0.08548218 0.24377592 -0.07585726 -0.117214255 -0.07730969 -0.027110713 -0.1239217 -0.18899786
-0.07259089 -0.068760484 2.67972 -0.0590981 -0.1175946 -0.017629683 0.19471139 -0.01260032
-0.051140033 -0.1575471 -0.18901674 -0.014077071 -0.08480081 -0.050985813 -0.06712525 -0.11641464
-0.09797862 -0.102256924 -0.336196 -0.20782714 -0.24183547 -0.0807056 -0.026728066 -0.22415885
-0.0024036085 0.06497223 -0.089937545 2.9511328 -0.1016831 0.03732766 0.021441069 -0.07126126
0.52440065 -0.08036413 -0.04069054 -0.02486596 0.0035117955 -0.07389562 2.1073003 -0.047991097
-0.017039383 -0.10174381 -0.06466378 0.039198328 -0.1297501 -0.11918009 -0.08148709 -0.027420804
-0.20052138 -0.057811383 -0.023480527 -0.057890598 -0.19189614 -0.009102458 -0.14598131 0.33940086
-0.22810723 -0.074316956 -0.059810817 -0.11995126 -0.11328881 -0.010041203 -0.00347738 -0.07251059
-0.048287213 -0.10110343 -0.25166634 -0.10325464 -0.21340843 -0.11390814 -0.05874063 0.063842125
00000000: a345 1eb9 07a0 a9bc f9ad a0bd 562f 7bbd
00000010: 71ec 0bbd 9434 88bd 45b3 b63c 63a2 4bbd
00000020: 25ae 66be 408f 14bd 372b 153e 296b 37bd
00000030: 23ac 3cbd 9cde d2bc 7eda 4fbd 834d 0abe
00000040: 0584 d8bd bc2c 8ebd 04b6 edbc 35bb 793b
00000050: b088 0abe 3078 babd 3b78 8e3e f4fd 11be
00000060: d7a6 fbbd 1018 02bd 4315 dabc a600 2fbd
00000070: 3a33 6bbd 701a cabd 25be cbbd 8ea9 d93e
00000080: 30ed 36be 1184 dabd d427 2cbd b55f bcbb
00000090: 3902 fdbd aa2c 7d3d 4234 d93b 7ec4 cdbd
000000a0: 6926 94bd f10d 05bd 9c79 b2bd f382 9cbd
000000b0: 3f0b 22be 2a72 88be 15bc d6bd 5e7a 413e
000000c0: c47a 143d 336f ddbd 9f63 483c 484a bcbd
000000d0: c822 2abd 3706 cebd 12b8 c1bd d84b 2dbd
000000e0: f0af 72bd dd2e 38bd b419 33bd 349e f5bd
000000f0: ea85 2c40 ea0a 813b 0976 87bd 5efd 62bd
00000100: 3ae4 c1bd 024b 5f3d c879 8fbd 4fc6 c6bb
00000110: cba8 8cbc c476 42be dce9 c2bd 4102 4ebd
00000120: 72c6 1bbe 71f7 efbc 325a febd 61fe 9fbc
00000130: 595f a4bd aced cfbd 7f63 1abd d924 d6bd
00000140: cbe3 1a40 a30f b33e 78cd 9c3c ddd3 62be
00000150: c718 a2bd 60d4 0dbd 535d 4dbd fb23 33bd
00000160: 9b47 95bd cd2e 833c 272a 42bd af15 783e
00000170: 93eb 1abe db9a e1bd 83dd 0ebe 45b7 aebd
00000180: 7f0c 13bd 910b f3bd 007e a5bd 9711 dabc
00000190: 8c9f 1dbd ab32 b2bc 1bbc 94bd 30d2 81bd
000001a0: 4f0d e23f 98c4 61bc 991e 55bd c703 89bd
000001b0: 53c0 7e3c 92f1 26be ecd9 64bd bfaf 7cbd
000001c0: 235f 33bd f525 e5bc 5fd9 0fbe b853 6ebd
000001d0: 6f85 39bd 5ee3 cebd 458d 76bd d52b 35be
000001e0: bc09 22bd 2fed 14bc 86b9 b5bd 4f35 3bbe
000001f0: 3dcf 043d f3dd c4bd 0ada 763e ce65 263c
00000200: 028d 7bbd fd92 1e3c 745d 47bd 9262 14be
00000210: 36de b5be 107d 27bd 28a1 78bd 5192 1340
00000220: 10a9 c4bd 8359 e3bd 0c2f 94bb aafc fb3d
00000230: d9e5 d1bd b9e9 83bd e2da 81bd c980 73bd
00000240: 1bcf b7bd 5980 05be ecf5 a3bd 5283 51bc
00000250: ae2f 42bd ddc6 b8bd eb8f 44bd 031c 5fbe
00000260: 1740 8dbd 5a65 9fbd 7410 afbd 7dc8 18bd
00000270: 6e73 98bd d504 a5bd 81e7 223f 8280 d3bc
00000280: 7297 50be 9c83 4dbd bb3f 9bbd d8b4 dbbd
00000290: c0a8 2cbe faf3 d23c d79c 8bbd 5fd9 4fbd
000002a0: 3f4f e6bd 4497 82be 79d7 ddbd a93a f53c
000002b0: 5c32 133f 8470 97be 7fa7 09bd cc22 3c3c
000002c0: 4811 afbd 65a0 793e 0d5b 9bbd 070e f0bd
000002d0: 8b54 9ebd 4917 debc a9ca fdbd a888 41be
000002e0: 88aa 94bd 4cd2 8cbd 8880 2b40 d910 72bd
000002f0: 70d5 f0bd 206c 90bc 6c62 473e 9371 4ebc
00000300: 3678 51bd 0754 21be 9b8d 41be 84a3 66bc
00000310: 0cac adbd 80d6 50bd f778 89bd cc6a eebd
00000320: 04a9 c8bd 146c d1bd e221 acbe a3d0 54be
00000330: b8a3 77be fa48 a5bd d1f4 dabc e689 65be
00000340: dc85 1dbb 2910 853d 2d31 b8bd 5cdf 3c40
00000350: 3b3f d0bd e3e4 183d 2ea5 af3c 6cf1 91bd
00000360: 1f3f 063f f395 a4bd 20ab 26bd b3b3 cbbc
00000370: 2726 663b 9656 97bd 02de 0640 5092 44bd
00000380: 2d96 8bbc 0f5f d0bd 726e 84bd 6d8e 203d
00000390: 36dd 04be b114 f4bd b4e2 a6bd 98a1 e0bc
000003a0: 7a55 4dbe a1cb 6cbd 3c5a c0bc b11e 6dbd
000003b0: 6c80 44be 7a22 15bc 207c 15be f3c5 ad3e
000003c0: f194 69be 7d33 98bd 30fc 74bd 02a9 f5bd
000003d0: f703 e8bd dc83 24bc c1e4 63bb 6f80 94bd
000003e0: d0c8 45bd 510f cfbd 69da 80be 2b77 d3bd
000003f0: bd87 5abe ac48 e9bd 049a 70bd a9bf 823d

linear3.weight f4 [3, 256]
0.008210618 -0.012096445 -0.0066791745 0.05734285 -0.0020802289 -0.59251624 0.045112077 -0.03234655
0.022279661 0.021761483 -1.2778413 0.026213681 -0.008499874 -0.005495646 0.00240725 -0.359531
0.03428689 -0.008283719 -0.03944536 0.052788086 -0.039602194 0.04031796 0.12738468 -0.103807606
-0.0027994646 -0.0042439476 0.07547961 -0.015346982 -0.013424024 0.021117914 0.02375113 -0.02654022
-0.014890813 -0.6105281 -0.047907975 0.03538066 -0.019608084 0.1092079 -0.03856898 -0.3324431
0.0030936226 0.025919938 -0.049757056 0.015742347 -0.1782352 -0.104183346 0.015340429 0.05200339
0.040631257 -0.007670891 0.01753592 0.013062527 0.004218144 0.029930845 -0.029712854 0.0077168834
-0.026499547 -0.02785031 0.024239127 -0.64293003 0.2828086 -0.48967698 0.015751882 -0.11418985
0.02609485 0.026195679 -0.09238255 0.020445412 -0.8475711 -0.073368356 0.008176526 0.04467779
-0.0068820417 -0.0070283515 0.008528335 -0.9237516 -0.2924556 -0.00054148794 -0.031390008 0.031345494
0.26943722 0.03840019 -0.015103222 -0.3989742 -0.017827412 0.015148929 -0.024401478 -0.009335468
0.047267564 -0.011620676 0.0018085528 0.02714918 -0.07766892 -0.104892105 0.029436309 0.12410497
0.032076485 0.02449614 -0.00050998013 -0.002299405 -0.016517702 0.0063940478 -0.022991713 -0.0042608376
0.14829655 0.01688957 0.015102609 -0.04060331 -0.060394727 0.016701216 0.024369942 -0.0058828155
0.07293139 -0.030407613 -0.066891074 0.05772037 -0.043738786 -0.037251063 -0.15778275 -0.062219348
0.046107102 0.08424834 0.0018785463 0.0038212794 0.07420256 0.03641635 -0.011987385 -0.007881687
-0.002205746 -0.03516736 0.052940544 0.10178242 -0.5621123 -0.0066109593 0.084692 0.23945402
0.026262846 -0.18987708 0.00271543 -0.8898162 -0.02223217 0.011501546 0.0664626 0.030767292
-0.022291092 -0.3133883 -0.006627588 0.022707753 0.0663515 -0.011995296 -0.007123928 -0.018933197
-0.03092616 0.027653133 -0.11215159 -0.0190624 -0.047011673 0.03545797 0.09022621 -0.008269992
-0.26189926 -0.026579544 -0.027850641 -0.03574278 0.019478071 0.023019774 0.030773016 0.029961016
0.028043427 -0.06177308 0.0015607199 0.12978442 0.016175626 -0.35001954 0.041416444 -0.45014802
0.009315764 0.103742436 -0.026854277 -0.04995026 -0.0007533729 -0.012766725 0.020285256 0.14793168
0.054842837 0.008025475 0.28309822 0.028323319 0.011343206 0.040676396 0.02630393 0.002536155
0.021688908 0.039327327 0.056818504 -0.0037547185 0.005976684 0.029689949 0.050168112 -0.019018466
0.009955683 -0.025107112 -0.25660148 -0.019451872 -0.061837442 0.0029006146 -0.031429917 -0.60653406
-0.27356657 0.13795595 0.036006056 0.298301 -0.0074715484 0.017307907 0.058872618 0.030985458
-0.04948233 -0.029784048 -0.01973665 -0.025046062 0.0050464636 -0.022244068 0.22337808 0.03495288
-0.010583331 -0.063110195 -0.011005548 0.029770007 0.025434233 -0.02304257 -0.018028056 -0.014903555
-0.020968262 -0.0024258022 0.028848734 0.091889486 -0.021107187 -0.0064397505 0.03825689 0.039257057
-0.06523577 -0.0069506946 0.06171473 -0.019151364 -0.051966496 -0.027398154 -0.04954785 0.0212235
-9.371744e-05 0.012709534 -0.07396844 -0.079121724 0.0172369 0.010285316 -0.021749299 0.09957473
00000000: d485 063c 2b30 46bc fadc dabb 56e0 6a3d
00000010: 7354 08bb 25af 17bf 71c7 383d d17d 04bd
00000020: d683 b63c 2345 b23c 4e90 a3bf 13be d63c
00000030: 0e43 0bbc d214 b4bb f4c2 1d3b 7214 b8be
00000040: 6970 0c3d 70b8 07bc 7591 21bd 5238 583d
00000050: e935 22bd 7224 253d 2171 023e 1599 d4bd
00000060: 3977 37bb d010 8bbb 0e95 9a3d e871 7bbc
00000070: 70f0 5bbc 7aff ac3c bb91 c23c e06a d9bc
00000080: 99f8 73bc 924b 1cbf 273b 44bd 50eb 103d
00000090: 22a1 a0bc 64a8 df3d 82fa 1dbd fb35 aabe
000000a0: 60be 4a3b 0d56 d43c 0ece 4bbd 18f6 803c
000000b0: 4a83 36be 145e d5bd 6c56 7b3c 8201 553d
000000c0: f66c 263d 195c fbbb 7da7 8f3c 3604 563c
000000d0: 5b38 8a3b 8831 f53c 5f68 f3bc e9dd fc3b
000000e0: 9415 d9bc 5526 e4bc 2291 c63c 1097 24bf
000000f0: 4acc 903e f1b6 fabe 170a 813c 5edc e9bd
00000100: dec4 d53c 5298 d63c 1033 bdbd 237d a73c
00000110: 6bfa 58bf 2642 96bd d6f6 053c 0f00 373d
00000120: c082 e1bb 164e e6bb 6eba 0b3c fc7a 6cbf
00000130: bebc 95be a4f2 0dba cf92 00bd 2264 003d
00000140: adf3 893e 8549 1d3d 8173 77bc 5946 ccbe
00000150: cb0a 92bc 3733 783c 9ce5 c7bc caf3 18bc
00000160: a29b 413d a664 3ebc f60c ed3a f567 de3c
00000170: e210 9fbd acd1 d6bd 6a24 f13c bf2a fe3d
00000180: a262 033d 21ac c83c 30b0 05ba 9db1 16bb
00000190: 2250 87bc 2985 d13b 1e59 bcbc 7f9e 8bbb
000001a0: 0ddb 173e ff5b 8a3c ef70 773c a84f 26bd
000001b0: 7660 77bd fdd0 883c 79a3 c73c a2c4 c0bb
000001c0: 0d5d 953d 6319 f9bc 30fe 88bd 326c 6c3d
000001d0: 7127 33bd 9294 18bd cd91 21be b7d9 7ebd
000001e0: cdda 3c3d 658a ac3d 8e39 f63a 6e6e 7a3b
000001f0: 83f7 973d 5029 153d bd66 44bc 3122 01bc
00000200: 478e 10bb a60b 10bd 2fd8 583d 4d73 d03d
00000210: 97e6 0fbf bfa0 d8bb 0073 ad3d 6f33 753e
00000220: 2e25 d73c 236f 42be 5bf5 313b ffca 63bf
00000230: 3d20 b6bc fb70 3c3c 8b1d 883d b00b fc3c
00000240: cf9b b6bc 6e74 a0be 3d2c d9bb 9c05 ba3c
00000250: 4ce3 873d eb87 44bc d76f e9bb cb19 9bbc
00000260: dc58 fdbc d388 e23c bcaf e5bd c028 9cbc
00000270: 508f 40bd 603c 113d 85c8 b83d dc7e 07bc
00000280: a917 86be 58bd d9bc 0727 e4bc 0567 12bd
00000290: 7a90 9f3c f793 bc3c b117 fc3c ce70 f53c
000002a0: 54bb e53c c505 7dbd 1291 cc3a 35e6 043e
000002b0: bf82 843c c335 b3be 4aa4 293d cd79 e6be
000002c0: 25a1 183c ea76 d43d 80fd dbbc a598 4cbd
000002d0: 007e 45ba 872b 51bc 442d a63c 677b 173e
000002e0: e2a2 603d 487d 033c 40f2 903e 4e06 e83c
000002f0: dbd8 393c 4b9c 263d 577b d73c 9f35 263b
00000300: f0ac b13c b115 213d 85ba 683d b911 76bb
00000310: 0fd8 c33b 5638 f33c 147d 4d3d 9dcc 9bbc
00000320: 291d 233c 6ead cdbc 4561 83be 8859 9fbc
00000330: 4249 7dbd 3d18 3e3b a8bc 00bd d145 1bbf
00000340: eb10 8cbe 5344 0d3e 167b 133d e9ba 983e
00000350: e4d3 f4bb 50c9 8d3c 6a24 713d 37d5 fd3c
00000360: fcad 4abd adfd f3bc c1ae a1bc 662d cdbc
00000370: ce5c a53b 3139 b6bc 39bd 643e c02a 0f3d
00000380: b565 2dbc eb3f 81bd 9d50 34bc 3be0 f33c
00000390: 745b d03c c6c3 bcbc 93af 93bc 0a2e 74bc
000003a0: a2c5 abbc 35fa 1ebb 2e54 ec3c 8e30 bc3d
000003b0: fbe8 acbc 8b04 d3bb 42b3 1c3d 02cc 203d
000003c0: 559a 85bd a7c2 e3bb 96c8 7c3d 52e3 9cbc
000003d0: d2da 54bd 1872 e0bc b0f2 4abd e8dc ad3c
000003e0: 2b8a c4b8 a63b 503c c47c 97bd 920a a2bd
000003f0: 6634 8d3c be83 283c 962b b2bc d6ed cb3d

linear3.bias f4 [3]
0.4860429 0.55547065 0.5667716
00000000: 9dda f83e 5333 0e3f f217 113f
