checkpoint_game_800.pth (torch, 281408 bytes, 6 tensors)

linear1.weight f4 [256, 11]
000000 29 0c 54 be 97 7a 37 3e 64 4a ff bd 35 ad 16 3e
       -0.20707764 0.17917858 -0.12465361 0.1471451
000010 12 2b b3 3d 3b bb ed 3d 44 72 45 be 09 60 28 be
       0.087484494 0.11607977 -0.1928187 -0.16442885
000020 11 3d df bd 9c 19 16 be 9d 8f 87 be e1 2e 46 3e
       -0.10900319 -0.14658207 -0.26476756 0.1935382
000030 27 a2 05 3e 10 f0 1d be dd 6e f6 bd b9 4d bc bc
       0.13050137 -0.15423608 -0.12032864 -0.02298628
000040 81 6e 7d bd 14 cd 43 be b9 3c 3d bd e9 07 82 be
       -0.061872963 -0.191212 -0.046200488 -0.2539666
000050 3a 1e 78 bc 07 ad 30 be 7d df e3 3d 6c 6f c7 bb
       -0.015143925 -0.17253505 0.111266114 -0.0060862806
000060 f1 97 fc 3c dc 74 d5 be ba bd 31 3e 17 05 ec be
       0.03083417 -0.4169072 0.17357531 -0.46097633
000070 2d 33 0d 3f 8a 0a 86 be dd 03 13 bf 3a ad 09 bf
       0.55156213 -0.26179916 -0.5742777 -0.5377995
000080 6d d9 84 3e ce 77 87 bd a2 e9 96 3d 26 cc 22 3e
       0.25947133 -0.06614648 0.07368781 0.15898189
000090 ac 69 46 3c f9 de 26 bd 23 a7 05 bf aa 73 b5 be
       0.012110155 -0.040739987 -0.52208155 -0.35439807
0000a0 3a e8 3a be 82 71 0f 3d 08 3f d5 be 31 29 a1 be
       -0.1825265 0.03502036 -0.41649652 -0.3147674
0000b0 6f c3 b3 bb fe 45 b5 bd 9d 21 ba be 0c 69 8c bc
       -0.005485944 -0.088512406 -0.3635377 -0.017139934
0000c0 a9 e5 16 bd 43 f8 a1 be 9d d5 19 3f 51 53 99 be
       -0.036840115 -0.3163472 0.60091573 -0.29946378
0000d0 6a c4 03 bf b5 dd 4d 3e 13 e0 3e be aa ad 9d bd
       -0.5147158 0.20104106 -0.18640165 -0.076991394
0000e0 8d 2c 41 3e 0b 7c 9a be a9 ef e2 be 95 fc 18 bd
       0.18864651 -0.30172762 -0.4432347 -0.037350256
0000f0 72 35 07 bf ea 7e 99 bb 19 e9 92 be 3a 31 84 be
       -0.52815926 -0.004684319 -0.28693464 -0.25818807
000100 28 82 ad bd 8e 68 f1 be 87 f2 19 3f 2d 42 bc be
       -0.08472091 -0.4715008 0.6013569 -0.36769238
000110 bf 58 87 be 3d ee 3a 3e be e3 f1 bd fc 1c 80 be
       -0.26434895 0.18254943 -0.118110165 -0.25022113
000120 c0 28 8f be e1 2d 35 be 99 a4 63 3e a9 55 08 3f
       -0.27960777 -0.17693283 0.22230758 0.5325571
000130 83 b5 cd 3e 5d 77 62 be 5d 3d 26 3e e0 c5 a2 3e
       0.40177545 -0.22115846 0.16234346 0.31791592
000140 c7 c0 93 be 9d 31 81 be a1 d8 88 3e 4a 75 d3 3e
       -0.28858015 -0.25233164 0.26727775 0.41300422
000150 06 b9 45 be ac ed bf be 3a 11 a9 3e fa ee 1a 3e
       -0.19308862 -0.37486017 0.33020955 0.15130225
000160 87 96 9b 3e b7 d6 8e 3d d0 b9 5d 3b 88 12 ca 3e
       0.3038828 0.06974547 0.0033832677 0.39467263
000170 d0 71 6c 3e d0 8b 16 bf 5e 63 ec be 0a eb 34 bf
       0.23090291 -0.58807087 -0.4616956 -0.7067114
000180 96 58 1b bf 4c b3 43 3e a3 43 b7 3e ed a3 40 be
       -0.60682046 0.19111365 0.3579379 -0.18812533
000190 3b 9f cd 3e d4 6a 21 3f a8 7d 1b 3d 13 27 77 be
       0.40160546 0.6305363 0.037961632 -0.24136
0001a0 e6 6b cc be 8a 3f 4e be a1 3c fe bc 57 ac 57 be
       -0.3992607 -0.20141426 -0.03103477 -0.21061836
0001b0 1e 25 b0 bd cf 2b 94 be 8f 48 05 be 6d 0f ba 3c
       -0.086008295 -0.28939673 -0.1301596 0.022712434
0001c0 ee 19 8b bd b2 e9 98 be 61 71 6f 3e 93 b2 92 3e
       -0.06792055 -0.29865795 0.23383094 0.28651866
0001d0 d2 eb 93 be 50 60 af be 9c 72 89 be b0 25 db 3e
       -0.28890854 -0.34253168 -0.26845253 0.4280219
0001e0 80 23 32 be 1d 4f 8a be 2a 40 00 3f 38 66 b9 bb
       -0.17396355 -0.27013484 0.50097907 -0.0056579374
0001f0 62 e8 1d 3e f4 eb 12 3e 8e 90 85 be 48 53 28 bf
       0.15420678 0.14347821 -0.2608685 -0.6575208
000200 93 c6 69 3e 30 9c 86 3e 94 ed 85 be 06 54 00 bf
       0.22829656 0.26291037 -0.2615782 -0.5012821
000210 0e 40 29 be d6 0e 71 3e b0 29 07 3d be b9 53 be
       -0.16528341 0.23540816 0.03299874 -0.20676324
000220 ce 7e d9 be 0e 3f 37 be a8 9d 0e be 68 e4 aa bd
       -0.42479557 -0.17895147 -0.13927329 -0.08344346
000230 6b b1 d3 bc e8 be 6d be c4 2f 58 be 5f 7d dd 3d
       -0.025841435 -0.23217356 -0.21111971 0.10814928
000240 cc 04 7d 3e 4d ee 73 bd b8 1e 4d 3d a3 07 49 3c
       0.24708861 -0.059553433 0.050078124 0.012269887
000250 92 c1 50 be 6f 40 ee 3c ef a9 f1 37 9c 1c 03 be
       -0.20386341 0.029083459 2.880857e-05 -0.12803882
000260 17 b4 9b 3d 49 44 53 be a8 f7 52 3e 3e 13 0e 3e
       0.07602709 -0.20631517 0.20602286 0.13874528
000270 49 7a ed be 01 3b 17 3e 7d 0f 94 be 0c 6b b1 3e
       -0.4638236 0.14768602 -0.28918067 0.34651983
000280 18 77 9c be 6e ec 76 be 1e a9 3a bf b0 89 25 bf
       -0.3055961 -0.24113628 -0.729143 -0.6466322
000290 5b 1f a5 3d 92 db d5 be 0f 5c 15 3e 38 d6 82 3e
       0.08062621 -0.4176908 0.14585899 0.2555406
0002a0 2b 42 f7 be 3d c7 47 3e b9 72 88 3e 7c 91 3d 3e
       -0.4829267 0.19509597 0.26650026 0.18512529
0002b0 1b f2 1f bf 16 20 fb be a4 c9 1f bf a0 28 58 3c
       -0.624788 -0.49047917 -0.62417054 0.0131932795
0002c0 93 be 0f 3e 7c 33 8a 3e 89 4e e0 3d c9 89 e6 3c
       0.14037542 0.26992404 0.109524794 0.028141873
0002d0 22 bf 95 3d 17 05 dc 3d f5 0c a6 be 17 37 f8 be
       0.07311846 0.10743158 -0.3243176 -0.4847953
0002e0 0c 9f 51 be cb 7b 98 3d d3 95 00 bf 08 d1 c1 3d
       -0.20470828 0.07445487 -0.50228614 0.09463698
0002f0 b8 90 fa be d3 ff f9 bc 8c 98 91 bc 4e e3 db bd
       -0.48938537 -0.030517494 -0.017772935 -0.10736714
000300 1f 1d ee bd 36 5d d0 bc c6 4a 0b 3d 99 ab da be
       -0.11626648 -0.025435071 0.034006856 -0.42709044
000310 bd c4 0f bb 19 d6 a4 bb c9 5f 7c 3e 56 14 71 be
       -0.0021937334 -0.0050304052 0.24645914 -0.23542914
000320 d7 68 14 be 41 53 7b be 4d 03 db 3e 9b b4 c7 be
       -0.14493118 -0.24543478 0.42775956 -0.3900498
000330 9a 4d f7 be 05 2c 04 3f d3 a6 5f be a9 51 31 bf
       -0.48301393 0.5162967 -0.21840982 -0.6926523
000340 4d 02 ed be 25 35 83 be 94 c1 33 be c6 85 6d be
       -0.46290818 -0.25626484 -0.17554313 -0.23195562
000350 e5 5d 37 be ee 24 dc bd 51 b5 69 3e 81 00 25 be
       -0.17906912 -0.10749231 0.22823073 -0.16113473
000360 68 81 a9 be 7d d6 6a be f7 47 09 be 0f be 54 3e
       -0.33106542 -0.22933383 -0.13406359 0.20775627
000370 8c 11 1c be 5f 63 8c 3d 27 b4 29 3e ce 65 9d 3d
       -0.15241069 0.06854891 0.16572629 0.07685433
000380 ea 87 04 bf ee 84 9a be cb c4 bd bd 9a 45 02 bf
       -0.5176989 -0.30179542 -0.09266051 -0.50887454
000390 06 18 d6 be df 49 dd bd 97 1d 6f 3b 00 1f cb bd
       -0.41815203 -0.108051054 0.0036486143 -0.09918022
0003a0 bf 3d 21 3f 85 83 05 be fc d1 ac 3e d5 1f 63 be
       0.6298484 -0.13038452 0.33753955 -0.22180112
0003b0 30 69 e5 bd 17 ca 77 3e e6 22 1a be 2c 17 0e 3e
       -0.112017035 0.24198185 -0.15052375 0.13876027
0003c0 e2 d8 54 be e6 2c e4 3d 95 c7 a6 3e 42 22 4a be
       -0.20785859 0.11141376 0.32574144 -0.19739631
0003d0 b4 91 7a 3e b5 b4 27 bf 75 19 47 be 67 15 68 be
       0.24469644 -0.6551011 -0.19443305 -0.22664414
0003e0 7d 7d 17 3e 73 32 54 3e f8 be 0f be ba fe c2 be
       0.14793964 0.2072237 -0.14037693 -0.38084966
0003f0 f6 f5 da be 47 f8 bf 3e 77 36 00 3f f7 87 0b 3f
       -0.42765778 0.37494108 0.50083107 0.5450434

linear1.bias f4 [256]
000000 07 22 9d be 55 6a b0 be 9a 02 e4 3c ec f2 98 be
       -0.30690023 -0.34456125 0.027833272 -0.29872835
000010 7f 4a 8f be c6 f4 01 be 0a af 73 bd af e6 86 be
       -0.27986524 -0.1269103 -0.059493102 -0.26347873
000020 81 e9 49 bd f8 18 4b bd 10 bf 9d be 3c 7d 92 bd
       -0.049294952 -0.04958436 -0.30809832 -0.07152793
000030 e9 e4 13 be 91 aa f7 be 57 53 3f ba 2e 60 a1 3d
       -0.14442791 -0.4837232 -0.00072984904 0.07879673
000040 74 c0 b2 bd 9e 6e 7e be 5b c3 c5 be 5e bb 5d be
       -0.08728114 -0.24846885 -0.38625607 -0.21653506
000050 ee e5 b7 bc 79 bd 96 bd dd 6b 16 be 96 42 27 be
       -0.022448506 -0.07360358 -0.14689584 -0.16333994
000060 6e e1 f5 bd 0f b8 ba bc 57 5f 44 bb b0 90 3d be
       -0.12005888 -0.022792844 -0.0029964054 -0.18512225
000070 43 45 d8 be 1d bc a4 3e f1 34 a3 be 0b e9 d6 bd
       -0.42240342 0.3217477 -0.3187633 -0.10493668
000080 1c e5 f0 3b 61 60 ac 3e 36 0f 31 3b 9d 56 8c be
       0.0073515307 0.3366728 0.0027017123 -0.2740983
000090 1c 92 41 be 00 14 f0 3c d4 b2 9d be a7 2e f4 bd
       -0.18903393 0.029306412 -0.30800498 -0.11922961
0000a0 1f c6 6c be 91 f1 01 3c 16 db af bd 74 4b 38 be
       -0.23122452 0.007931129 -0.08586709 -0.17997533
0000b0 95 08 80 be 7b 8d 8f bd e7 40 85 be cf c5 3b be
       -0.25006548 -0.07009407 -0.2602608 -0.18337177
0000c0 a0 b9 41 3d b6 c7 8d be 37 46 75 bd 70 03 b6 be
       0.047296166 -0.2769143 -0.059881415 -0.35549498
0000d0 8a 9c 25 be c1 9f bd 3d 08 7e 08 3f 7c d4 4c 3f
       -0.16172996 0.09258986 0.5331731 0.80011725
0000e0 99 7d 3d bd 2d c4 49 be 89 02 50 3f 38 cd 90 bc
       -0.046262357 -0.19703741 0.8125387 -0.01767598
0000f0 c5 12 b3 bd cb 12 03 be 71 12 36 be 53 08 51 3c
       -0.087438144 -0.12800138 -0.17780472 0.012758332
000100 5a b7 5e be a6 81 90 be 5b 94 94 be 1d 59 bf bc
       -0.2174963 -0.28223914 -0.29019436 -0.023357922
000110 01 fb b6 bd 4e 95 67 be 4e d7 51 3e 46 0f 38 3e
       -0.08934594 -0.22615549 0.20492288 0.17974576
000120 ea f3 7f 3f 1b 4a 88 be 22 f7 7f be 29 64 55 bd
       0.9998156 -0.26619038 -0.24996617 -0.052097473
000130 88 a9 37 be 21 d1 51 be d9 ad 68 be 49 c5 cd be
       -0.17935765 -0.20489933 -0.22722568 -0.4018958
000140 75 8c 95 3e 56 2b c1 3e 39 b3 bf bd 1c 9c ba bc
       0.29208723 0.37728375 -0.09360356 -0.022779517
000150 02 bb 03 3e af a7 ab be 6e d5 45 bd e8 2e d5 be
       0.12864307 -0.3352637 -0.048299246 -0.4163735
000160 48 28 72 3e 33 58 4d be f5 8d 79 be e0 43 16 3e
       0.23648179 -0.20053177 -0.24370559 0.1467433
000170 a8 09 1b 3e 92 9c 03 bd 15 ae 98 be 24 30 db be
       0.15140402 -0.03213174 -0.29820314 -0.42810166
000180 50 2b be be d2 aa 82 bd eb 50 01 be e1 09 e1 be
       -0.3714242 -0.06380238 -0.12628524 -0.4395285
000190 c1 6c 49 be 4f c1 45 3c df 62 02 3d c4 73 9c be
       -0.19670393 0.012070014 0.031832572 -0.30557072
0001a0 f7 54 7e bc 29 f7 8e 3e 06 df 82 bd 52 a6 fa bd
       -0.015523187 0.27922943 -0.063901946 -0.12238754
0001b0 33 95 b1 3a 70 26 ec be 8f 71 7f be e4 a0 0d be
       0.0013548493 -0.46123075 -0.24945663 -0.13830906
0001c0 21 41 8e be 39 5e 05 be 42 50 e5 3c 2a f3 21 3e
       -0.27784064 -0.13024224 0.027992371 0.15815416
0001d0 79 cc 1b bd 9f 19 4e 3f 21 a2 fb bd 31 e1 aa be
       -0.038036797 0.80507845 -0.12286783 -0.33374932
0001e0 6c e5 88 3e 41 a2 13 3e ab 15 3e be a9 30 1c be
       0.26737535 0.14417364 -0.18562953 -0.15252937
0001f0 f0 2c 9e bd f5 28 8c be fe 8b aa be d0 3b 2e bd
       -0.07723415 -0.27374998 -0.3330993 -0.04253751
000200 f2 36 37 3f 4a 80 97 be 5a 43 83 3d f3 27 6a bc
       0.71568215 -0.29590064 0.06409331 -0.014291751
000210 b1 a4 81 bd dc 24 2f bd 52 33 26 be f2 8f 81 be
       -0.063302405 -0.04275976 -0.16230515 -0.25305134
000220 b2 36 0f bd 96 e4 8d 3e 69 60 9c 3d c9 90 38 3f
       -0.03496427 0.2771346 0.07635576 0.72095925
000230 fb 76 c8 3d f3 7e 1e be 29 19 50 3c 0b 30 d6 be
       0.09788319 -0.15478115 0.012701311 -0.4183353
000240 4c 87 f8 bd 0b e1 87 be 36 6a b0 3f a9 84 c2 bd
       -0.12135181 -0.26538882 1.3782413 -0.09497959
000250 ef f5 31 be 09 87 0c 3e ec 0c 90 bd 6c 59 a1 3e
       -0.17378972 0.13723387 -0.07033715 0.31513536
000260 60 ae 2b ba cc 9a 0b be 12 fd 2a 3d 4a 7e 74 bd
       -0.0006549116 -0.13633269 0.041745253 -0.05969075
000270 f9 ca 44 be 52 f3 1a be 15 2f b6 3d e1 9f 5f 3c
       -0.19218053 -0.15131882 0.08895699 0.013648958
000280 cd 6b 34 bd ff 56 4f 3e a7 8f a7 be b4 6d 9c be
       -0.04404812 0.2024803 -0.32726786 -0.30552447
000290 1f dd 2b 3e 7b bb 41 3f 0b c9 ad be 20 6b 26 be
       0.1678357 0.756767 -0.33942446 -0.16251802
0002a0 0a 0e a9 be 47 0b 70 be c3 40 b1 bd e5 50 9f 3e
       -0.33018523 -0.23441802 -0.086549304 0.31116405
0002b0 20 97 9a 3e c1 bc 2c 3c f1 74 a2 3d ca fc 1d 3f
       0.30193424 0.010543049 0.07932461 0.6171385
0002c0 8a d5 90 3e af 9c 50 be 34 6f 3f be dd c0 be be
       0.28287917 -0.2037227 -0.18694764 -0.37256518
0002d0 04 03 0b 3e 18 28 0d 3f bc 3e 46 be 40 cf 6c 3d
       0.13575369 0.55139303 -0.19359869 0.057814837
0002e0 34 05 c3 be ac 06 35 3e cf 6d 7a 3c 01 3e 13 3d
       -0.38089907 0.17678326 0.0152849695 0.035947803
0002f0 9a 88 7e 3e e5 91 c1 be 37 89 45 bd 82 de 55 bd
       0.24856797 -0.3780662 -0.04822656 -0.052214153
000300 88 76 7b be 37 77 3c be ae 3e 17 bc 1a 54 32 3e
       -0.24556935 -0.18404852 -0.009231253 0.17414895
000310 21 ba 0f be e2 97 0c bf c0 af fb 3c de 3e 38 ba
       -0.14035846 -0.54919255 0.030723453 -0.0007028411
000320 94 47 3d be 29 07 c1 be 2a ff 13 be f4 c4 cc bc
       -0.18484336 -0.37700775 -0.14452806 -0.024996258
000330 27 31 dc 3d 55 c8 9a be 68 86 40 be aa be 48 bd
       0.107515626 -0.30230966 -0.18801272 -0.049009956
000340 6f f3 ba be 2f 29 12 3e 67 83 9d 3f d7 32 92 3e
       -0.3651385 0.14273523 1.2305726 0.28554413
000350 76 38 90 be f1 3e fd 3d e1 4a 1d be cd c8 98 be
       -0.28168076 0.12365521 -0.15360595 -0.298407
000360 c2 5a 50 bd 86 9e 8b be 93 41 02 bf b9 e2 98 bd
       -0.050867803 -0.2726938 -0.5088131 -0.07465119
000370 69 18 d5 3d f1 fb 42 3e ae b0 8e be 0a 30 9e 3e
       0.104050465 0.1904142 -0.2786917 0.30896026
000380 7a 64 72 be 0b 73 1e 3e b7 b1 8c be 63 33 29 be
       -0.23671141 0.15473573 -0.27479336 -0.16523509
000390 8b 35 82 bd 0e 5b 59 be 91 fc 72 be a2 c2 f8 be
       -0.06357869 -0.21226141 -0.23729159 -0.48585993
0003a0 11 bd 5d 3e 68 96 3c be 9d a0 aa bc 61 1b bb be
       0.21654154 -0.1841675 -0.02082854 -0.36544326
0003b0 fd e1 d5 bb 48 22 ae bb b7 d4 1c bc fb aa dd 3e
       -0.006527184 -0.0053141452 -0.0095722 0.4329451
0003c0 07 e1 22 be cd 13 3e be b2 f7 ae bd 7e 79 2d be
       -0.15906154 -0.18562241 -0.08543338 -0.16940877
0003d0 10 f7 26 be 6b e1 4e 3e 7e 9d a5 be 7d 33 77 be
       -0.16305184 0.20203178 -0.3234672 -0.24140735
0003e0 1f 53 31 bd 12 4c 15 3f 67 61 b8 3f 61 28 ca 3e
       -0.04329216 0.583192 1.4404725 0.39483932
0003f0 ca 7b 75 be 57 d7 b4 be db 0c d0 bd b2 a1 a1 be
       -0.23973003 -0.3532054 -0.10158702 -0.31568676

linear2.weight f4 [256, 256]
000000 00 1a c0 39 40 e7 79 bb 6a ef b3 3d 47 74 5c 3b
       0.00036640465 -0.003813222 0.08785899 0.0033638643
000010 cf 6c b8 bb 29 89 31 bc 07 f7 97 3c 4a 1e 0b bd
       -0.0056282054 -0.010835924 0.018550409 -0.033964433
000020 5f 21 49 bd 2b 86 07 bd e7 81 73 bd 48 e8 3a 3c
       -0.04910409 -0.033086937 -0.059450056 0.011407919
000030 d7 ce a9 3c 56 2e 1f bc 43 06 95 b9 8f 4d 46 bd
       0.020728512 -0.009715637 -0.0002842416 -0.04841381
000040 d8 65 7b bd ab de ce bb 14 b9 1f 3d e4 22 8f 3c
       -0.061376423 -0.006313165 0.038994864 0.017472692
000050 04 90 85 bd 78 e1 81 bb 52 f6 5d bc cc 59 de bb
       -0.065216094 -0.0039636455 -0.013547497 -0.006785607
000060 18 2f 08 bd a1 5c 45 bd bd 6f 88 bd 9f c5 a8 bc
       -0.033248037 -0.04818404 -0.066619374 -0.020602046
000070 7c 5b 3e bd 12 7e 45 bd c8 bd 97 bb ef 20 94 ba
       -0.046473965 -0.048215933 -0.004630778 -0.0011301319
000080 b8 78 f0 bd e5 e5 a0 bd 69 89 6b bd 16 65 b6 bd
       -0.11741775 -0.07856349 -0.05750409 -0.08905999
000090 82 b1 9c bd b6 ea 53 bd e8 99 5f 3d 5c 02 ec bc
       -0.076510444 -0.05173751 0.054590136 -0.028809719
0000a0 83 11 a6 3c 9f 09 b1 3c f2 bf 87 3c 30 09 f0 3b
       0.020272022 0.021611033 0.016571019 0.007325314
0000b0 a6 8c ab bb ec a2 eb bc d3 3b 6d bd ce 0f 92 3d
       -0.0052352725 -0.02876421 -0.05791838 0.07131921
0000c0 ca ca b6 bc e0 30 31 bc 92 16 41 bd 7d e7 87 3c
       -0.022313494 -0.010814875 -0.047140665 0.016589874
0000d0 f2 dd 68 bd b1 bf 3c bc 34 91 81 bd 48 6e 6e bd
       -0.05685229 -0.011520312 -0.063265234 -0.05821064
0000e0 51 59 03 bd 2e c6 03 3c 8f 72 d8 bd a5 23 2c 3d
       -0.0320676 0.008042855 -0.10568725 0.04202618
0000f0 eb dc 0d 3d 00 31 2e bd 90 88 3b bc 4b 4b 94 bd
       0.034634512 -0.0425272 -0.011446133 -0.072409235
000100 27 ef 83 bd 3d b6 67 3c a0 e2 87 3c 74 ba 98 3d
       -0.06442099 0.01414257 0.016587555 0.07457438
000110 df 08 7b bd 6d ea e8 3c 4b 3f 2b ba 86 0d b9 bd
       -0.061287757 0.028432095 -0.0006532564 -0.090357825
000120 4c e4 86 bd fd 42 94 bc 97 0b 55 bd 87 25 39 bd
       -0.06586513 -0.018098349 -0.052013006 -0.045201804
000130 8e 4d a2 ba 45 c3 6a 3d d0 46 52 3d f4 bf 86 3c
       -0.0012382732 0.05731513 0.051337063 0.016448952
000140 50 4c d8 bd 37 74 1b bd a9 b1 d4 3b 31 bf 23 bd
       -0.105614305 -0.037952628 0.0064909053 -0.039977256
000150 3e f5 d3 bd 7c 04 cf bc e7 36 56 bd 40 45 9a bd
       -0.103495106 -0.025270693 -0.052298453 -0.0753274
000160 71 f3 12 bc 15 01 44 bd e9 8b 86 bc 62 5c 65 bd
       -0.008969174 -0.047852594 -0.016424136 -0.055996306
000170 df 04 ad 3a b8 a0 1e 3c 44 47 01 3d 79 f2 1f bd
       0.0013200304 0.009681873 0.031562105 -0.0390496
000180 14 94 47 3d 5b b9 fe bb 5b 22 b0 3c 08 4f b5 bd
       0.048725203 -0.007773561 0.021500757 -0.08852965
000190 b9 54 a3 bb 8a ba ce bd 68 43 87 bd a6 d8 7f bd
       -0.004984465 -0.10094173 -0.066046536 -0.06246247
0001a0 f9 48 0c bd fc df 53 bd b8 e6 1e 3d fc ae 5b bd
       -0.03424928 -0.05172728 0.03879425 -0.053633675
0001b0 cc 3f 82 bd fe 62 9f bd 0e 52 7e bc d4 85 7f bd
       -0.063598245 -0.07782553 -0.015522493 -0.062383488
0001c0 5b 2a 40 bc 20 97 29 bd eb 02 8c bd c0 2b 42 bc
       -0.011728848 -0.04140389 -0.06836494 -0.011851251
0001d0 6b 03 87 3b 42 ac d6 bd 7c 01 29 3d 0c 52 0d bd
       0.0041202805 -0.10482074 0.04126118 -0.034502074
0001e0 52 0d c0 bd 81 f2 14 bd 85 86 68 bd a1 d6 1a bd
       -0.09377541 -0.036364082 -0.056768913 -0.037802342
0001f0 9b 64 23 bc 14 18 88 bd 36 e4 53 bd 0a 5b 7a bd
       -0.009972717 -0.066452175 -0.05173131 -0.061121978
000200 1b 96 f3 bd d6 0c b8 bd c6 bf bb 3c fa 18 19 bd
       -0.11893865 -0.08986823 0.022918593 -0.037377335
000210 c2 67 93 3d e8 8c 51 3d 5b 00 97 bd f5 66 5f bc
       0.071975246 0.05115977 -0.07373115 -0.013635387
000220 e1 30 70 bc cd 69 86 3d d0 9b 14 3c ef a5 3f bd
       -0.014660091 0.06563149 0.009070352 -0.046789106
000230 6d 27 dd bc 5d 12 2e bd 8b 42 ab bc c0 6e 3f bc
       -0.026996339 -0.04249798 -0.020905754 -0.01168412
000240 61 f9 6e 3c 84 20 bb bd ca 4f 89 bc e8 1d 47 bd
       0.014585824 -0.09137061 -0.01676168 -0.048612505
000250 20 c9 81 bc 98 bf 2c bd a9 c7 b3 3c 93 57 d3 bc
       -0.015842974 -0.042174906 0.021945791 -0.025798595
000260 a2 31 17 bc f5 2f a1 3d f9 21 3b bd 50 a1 46 bd
       -0.009228142 0.07870475 -0.045686696 -0.048493683
000270 50 03 e7 bc cc 58 1d bd 47 43 a2 3c e4 66 3a bd
       -0.028199822 -0.03841476 0.019807471 -0.04550828
000280 b8 08 b1 bd d2 82 5c bd 91 6a 52 bd 1c 2c 80 bc
       -0.08644241 -0.053835697 -0.05137116 -0.015646033
000290 b6 69 13 3d 66 4b aa bd 58 ed 5c bd 7a b1 f6 bb
       0.035989486 -0.08315162 -0.053937286 -0.007528481
0002a0 60 3a 3f bc d1 91 9f bd f2 ed ce ba fa 64 82 bd
       -0.0116716325 -0.07791484 -0.0015787466 -0.06366916
0002b0 bc eb 16 3c 39 c0 3f 3d 4a 19 3b 3d 4e 91 be 3b
       0.009211477 0.046814177 0.045678414 0.0058156615
0002c0 fe db 4a 3c 22 5e 07 3d 21 24 f9 bc 8a c6 8d 3c
       0.012381552 0.033048756 -0.030412735 0.017306585
0002d0 1a 5a 54 bd b3 5a 9d bc 96 a4 f9 bd 48 46 70 3d
       -0.05184374 -0.019208288 -0.121895954 0.058660775
0002e0 2b 22 36 bc 1a 83 12 bd e9 ce 8f 3c 4c 10 ee bc
       -0.011116545 -0.03576956 0.017554717 -0.029060505
0002f0 04 2a ca 39 c0 0a eb 3a a4 ce 7c bd f5 86 61 bd
       0.00038559746 0.0017932281 -0.061720505 -0.055060346
000300 6e db 19 bd 15 ca 6a bd c1 00 5e bd d4 3c f5 3c
       -0.03756278 -0.057321627 -0.054199938 0.029936232
000310 05 08 a5 bd a9 a1 39 3d cd 00 df bd b2 63 2c 3d
       -0.0805817 0.045320187 -0.108888246 0.042087264
000320 dd a6 9c 3c b1 09 e7 bd 6c 83 7e 3d 64 b9 74 3d
       0.019122535 -0.11281145 0.062137052 0.059747115
000330 84 46 93 3a 52 96 17 bd 2e 93 1e bc ac 5a 3f bd
       0.0011236225 -0.03700859 -0.009678645 -0.04671733
000340 c9 59 44 bd ed e2 17 bd 20 48 be bd b1 81 2a bd
       -0.04793719 -0.037081648 -0.092911005 -0.04162759
000350 e2 7c 2a bd 1e 51 80 3c 17 b6 9d bd e0 88 1f 3c
       -0.041623004 0.01566368 -0.077007465 0.009737223
000360 e0 ac 05 3d 9b c2 4f 3d 95 79 cd bc 06 b4 6f 3a
       0.03263557 0.0507227 -0.025082389 0.0009143952
000370 f2 9d bf bd 4a 9f 13 3c 68 04 09 3d fb a2 2d bd
       -0.093562976 0.009010145 0.033451468 -0.04239176
000380 b1 f7 9f bc 5a 75 4b bd f6 49 39 bd 08 a6 10 bd
       -0.019527288 -0.049672462 -0.04523655 -0.03531459
000390 c5 cd 1b bd 45 01 bb bb b9 21 08 bd 22 86 a6 bd
       -0.038038034 -0.0057069384 -0.033235285 -0.081310526
0003a0 e1 83 12 bd 73 21 cb 3c 25 3d 3b bd 4b b3 07 bd
       -0.0357703 0.024796223 -0.04571261 -0.03312997
0003b0 75 7e 28 3d 6c d9 0f bd b8 d7 2e bd b4 24 8b bd
       0.041136224 -0.03511946 -0.042686194 -0.0679411
0003c0 cc 9f ec b9 2a db 97 bd 7d d3 3f bc 73 c1 8e bd
       -0.00045132486 -0.07414849 -0.011708138 -0.06970491
0003d0 00 f3 b6 3a 78 7a 52 bc 25 b9 42 bd 91 64 8a 3d
       0.0013957918 -0.012846582 -0.04753985 0.06757463
0003e0 dc 03 99 3c 0b 96 8a bd b8 36 97 bd b9 1e 8b 3c
       0.018678598 -0.067669 -0.07383484 0.016982423
0003f0 d0 ac f4 bc 6a 0d 90 bd 7d 12 1a 3d 2e 5b 3c bc
       -0.02986756 -0.070338085 0.037615288 -0.011496348

linear2.bias f4 [256]
000000 a3 45 1e b9 07 a0 a9 bc f9 ad a0 bd 56 2f 7b bd
       -0.00015093996 -0.02070619 -0.07845683 -0.06132444
000010 71 ec 0b bd e9 dc 1e 3e 45 b3 b6 3c 63 a2 4b bd
       -0.034161035 0.15513958 0.02230228 -0.04971541
000020 25 ae 66 be 40 8f 14 bd 02 02 10 3e 29 6b 37 bd
       -0.22527368 -0.036269426 0.14063266 -0.04477993
000030 35 09 37 bd 9c de d2 bc 7e da 4f bd 83 4d 0a be
       -0.044686515 -0.025740914 -0.05074548 -0.13506131
000040 05 84 d8 bd bc 2c 8e bd 80 af 1d 3b 35 bb 79 3b
       -0.10572056 -0.06942126 0.0024060905 0.003810597
000050 b0 88 0a be c5 d5 72 bd 26 7c 47 3e f4 fd 11 be
       -0.13528705 -0.059285898 0.19480953 -0.14257032
000060 d7 a6 fb bd 10 18 02 bd 72 a4 16 3e a6 00 2f bd
       -0.122876815 -0.03176123 0.14711168 -0.042725228
000070 aa dd d2 bc 70 1a ca bd 25 be cb bd 5e a2 ee 3e
       -0.025740463 -0.09868324 -0.099483766 0.4660825
000080 30 ed 36 be fd 0c b3 bb d4 27 2c bd b5 5f bc bb
       -0.17863917 -0.005464195 -0.04203017 -0.005748714
000090 39 02 fd bd 27 9d ec 3d 15 a4 18 3d 65 aa 8f bd
       -0.123539396 0.11553412 0.037265856 -0.07014922
0000a0 69 26 94 bd f1 0d 05 bd 9c 79 b2 bd f3 82 9c bd
       -0.07233889 -0.032484 -0.087146014 -0.07642164
0000b0 3f 0b 22 be 5e 10 aa bd 12 6a 93 bd d7 d5 01 3e
       -0.15824603 -0.08303903 -0.07197966 0.1267923
0000c0 c2 e4 ef 3c 0d a5 96 bd 9f 63 48 3c 48 4a bc bd
       0.029283885 -0.073557 0.012230783 -0.091938555
0000d0 c8 22 2a bd 37 06 ce bd 12 b8 c1 bd d8 4b 2d bd
       -0.041537076 -0.10059779 -0.09458937 -0.04230866
0000e0 f0 af 72 bd dd 2e 38 bd b4 19 33 bd ec 5f 3a 3d
       -0.05924982 -0.044966567 -0.043725684 0.045501634
0000f0 88 9a 09 40 38 2d 49 3d 09 76 87 bd 5e fd 62 bd
       2.1500568 0.04911539 -0.0661431 -0.05541741
000100 3a e4 c1 bd 02 4b 5f 3d 5b 36 b4 3b d8 d3 af 3c
       -0.09467359 0.054514892 0.0054996437 0.02146332
000110 ba 9c 70 bd c4 76 42 be 27 e4 06 bd 41 02 4e bd
       -0.058743216 -0.18990618 -0.032932427 -0.05029512
000120 72 c6 1b be 71 f7 ef bc 69 4c bd bd aa 4d 6e 3d
       -0.1521242 -0.029292794 -0.0924309 0.058179535
000130 59 5f a4 bd ac ed cf bd 7f 63 1a bd d9 24 d6 bd
       -0.080259986 -0.10152754 -0.037692543 -0.10456247
000140 92 d9 f7 3f ed 6e 8b 3e 78 cd 9c 3c f4 12 fa 3b
       1.9363272 0.27233067 0.019140944 0.007631654
000150 c7 18 a2 bd 60 d4 0d bd 53 5d 4d bd fb 23 33 bd
       -0.07914882 -0.034626365 -0.05013783 -0.043735486
000160 9b 47 95 bd cd 2e 83 3c 27 2a 42 bd 66 32 1a 3e
       -0.07289048 0.016013527 -0.04740348 0.15058288
000170 93 eb 1a be db 9a e1 bd 83 dd 0e be 45 b7 ae bd
       -0.15128927 -0.110158645 -0.13951688 -0.0853105
000180 7f 0c 13 bd ca 92 b3 bd 00 7e a5 bd 97 11 da bc
       -0.03590059 -0.08768232 -0.08080673 -0.026619716
000190 8c 9f 1d bd ab 32 b2 bc 1b bc 94 bd 30 d2 81 bd
       -0.038482234 -0.021752676 -0.07262441 -0.06338918
0001a0 bc e9 ce 3f 98 c4 61 bc 99 1e 55 bd c7 03 89 bd
       1.616508 -0.013779782 -0.052031133 -0.066901736
0001b0 53 c0 7e 3c 6f 38 16 be ec d9 64 bd bf af 7c bd
       0.015548783 -0.14669965 -0.05587189 -0.061691042
0001c0 02 3f b2 bb f5 25 e5 bc 5f d9 0f be b8 53 6e bd
       -0.00543964 -0.0279722 -0.14047764 -0.05818531
0001d0 6f 85 39 bd 77 2d 9f bd 45 8d 76 bd d5 2b 35 be
       -0.045293268 -0.077723436 -0.06019332 -0.17692502
0001e0 bc 09 22 bd 2f ed 14 bc 86 b9 b5 bd 4f 35 3b be
       -0.039560065 -0.009089752 -0.088732764 -0.18282054
0001f0 52 e4 be 3d f3 dd c4 bd b0 41 6f 3e ce 65 26 3c
       0.093208924 -0.09612646 0.23364902 0.010156108
000200 02 8d 7b bd fd 92 1e 3c 74 5d 47 bd eb a6 53 bd
       -0.061413772 0.009678599 -0.04867311 -0.051672857
000210 c0 48 3c be 10 7d 27 bd 91 fb a2 3d 8d f6 f0 3f
       -0.18387127 -0.040890753 0.07958139 1.8825241
000220 10 a9 c4 bd 83 59 e3 bd 0c 2f 94 bb 87 b1 4d 3e
       -0.096025586 -0.111010574 -0.00452221 0.20087253
000230 d9 e5 d1 bd b9 e9 83 bd e2 da 81 bd c9 80 73 bd
       -0.10248918 -0.064410634 -0.06340577 -0.05944899
000240 1b cf b7 bd f1 d5 90 bc ec f5 a3 bd 7a e9 9a 3c
       -0.08975049 -0.01768014 -0.0800589 0.018910158
000250 3b 49 b3 3c dd c6 b8 bd e2 43 9f bc 03 1c 5f be
       0.021885505 -0.09022305 -0.019441549 -0.2178803
000260 17 40 8d bd 5a 65 9f bd 74 10 af bd 7d c8 18 bd
       -0.0689699 -0.07783003 -0.0854806 -0.037300576
000270 6e 73 98 bd 7b ae 49 bd 81 e7 22 3f 82 80 d3 bc
       -0.074438915 -0.049238663 0.63634497 -0.025818113
000280 46 7a 50 be 9c 83 4d bd bb 3f 9b bd d8 b4 db bd
       -0.20359144 -0.05017434 -0.07580515 -0.107278526
000290 94 2a e2 bc fa f3 d2 3c d7 9c 8b bd 5f d9 4f bd
       -0.027608193 0.025751103 -0.06817024 -0.05074441
0002a0 3f 4f e6 bd 89 de 2a 3d 79 d7 dd bd 16 4a af 3d
       -0.11245584 0.041716132 -0.10832114 0.08559053
0002b0 4e 70 5c 3f 46 46 0b be 7f a7 09 bd fe e9 45 3c
       0.86108863 -0.13601026 -0.033607002 0.012079714
0002c0 48 11 af bd 52 ba 68 3e 0d 5b 9b bd 39 1d ad bd
       -0.08548218 0.22727326 -0.07585726 -0.084528394
0002d0 cd 70 46 bd 49 17 de bc fd 07 40 3b c0 1e 2d be
       -0.04844742 -0.027110713 0.0029301636 -0.16906261
0002e0 88 aa 94 bd 4c d2 8c bd e1 ce 07 40 d9 10 72 bd
       -0.07259089 -0.068760484 2.122002 -0.0590981
0002f0 70 d5 f0 bd 20 6c 90 bc 6c 62 47 3e 93 71 4e bc
       -0.1175946 -0.017629683 0.19471139 -0.01260032
000300 36 78 51 bd 39 65 21 3d b7 09 95 3d 84 a3 66 bc
       -0.051140033 0.039403174 0.072772436 -0.014077071
000310 1d 3c 59 bd 80 d6 50 bd f7 78 89 bd ce 26 ad bd
       -0.053035844 -0.050985813 -0.06712525 -0.08454667
000320 04 a9 c8 bd 14 6c d1 bd b5 1f 64 bd a3 d0 54 be
       -0.09797862 -0.102256924 -0.0556943 -0.20782714
000330 b8 a3 77 be fa 48 a5 bd d1 f4 da bc 3e 87 07 bc
       -0.24183547 -0.0807056 -0.026728066 -0.00827199
000340 09 30 95 bd 52 7d c0 3d 2d 31 b8 bd 10 8b 15 40
       -0.072845526 0.09398903 -0.089937545 2.3366127
000350 3b 3f d0 bd e3 e4 18 3d 2e a5 af 3c 6c f1 91 bd
       -0.1016831 0.03732766 0.021441069 -0.07126126
000360 ec 21 0f 3f f3 95 a4 bd 20 ab 26 bd b3 b3 cb bc
       0.55911136 -0.08036413 -0.04069054 -0.02486596
000370 27 26 66 3b 96 56 97 bd 14 29 e1 3f 50 92 44 bd
       0.0035117955 -0.07389562 1.7590661 -0.047991097
000380 fb 8a ca 3c 0f 5f d0 bd 72 6e 84 bd 6d 8e 20 3d
       0.024724474 -0.10174381 -0.06466378 0.039198328
000390 36 dd 04 be b1 14 f4 bd b4 e2 a6 bd 98 a1 e0 bc
       -0.1297501 -0.11918009 -0.08148709 -0.027420804
0003a0 7a 55 4d be a1 cb 6c bd 3c 5a c0 bc 27 27 1a bc
       -0.20052138 -0.057811383 -0.023480527 -0.009408749
0003b0 03 d1 42 bd 7a 22 15 bc 51 a0 e5 bd 1c fa 89 3e
       -0.04756261 -0.009102458 -0.112122186 0.2694863
0003c0 f1 94 69 be 7d 33 98 bd 30 fc 74 bd 02 a9 f5 bd
       -0.22810723 -0.074316956 -0.059810817 -0.11995126
0003d0 f7 54 a8 bd dc 83 24 bc c1 e4 63 bb 6f 80 94 bd
       -0.08219331 -0.010041203 -0.00347738 -0.07251059
0003e0 d0 c8 45 bd 51 0f cf bd 13 4c 7a bd 2b 77 d3 bd
       -0.048287213 -0.10110343 -0.061107706 -0.10325464
0003f0 bd 87 5a be ac 48 e9 bd 04 9a 70 bd c7 56 45 3d
       -0.21340843 -0.11390814 -0.05874063 0.04817846

linear3.weight f4 [3, 256]
000000 d4 85 06 3c 2b 30 46 bc fa dc da bb 56 e0 6a 3d
       0.008210618 -0.012096445 -0.0066791745 0.05734285
000010 73 54 08 bb fb d0 18 bf 71 c7 38 3d d1 7d 04 bd
       -0.0020802289 -0.5969388 0.045112077 -0.03234655
000020 d6 83 b6 3c 23 45 b2 3c ad 61 64 bf 13 be d6 3c
       0.022279661 0.021761483 -0.8921154 0.026213681
000030 d8 e3 01 bc d2 14 b4 bb f4 c2 1d 3b 72 14 b8 be
       -0.007927857 -0.005495646 0.00240725 -0.359531
000040 69 70 0c 3d 70 b8 07 bc 75 91 21 bd 52 38 58 3d
       0.03428689 -0.008283719 -0.03944536 0.052788086
000050 e9 35 22 bd 72 24 25 3d 8e b9 13 3e 15 99 d4 bd
       -0.039602194 0.04031796 0.14426252 -0.103807606
000060 39 77 37 bb d0 10 8b bb 7d 7b 4d 3e e8 71 7b bc
       -0.0027994646 -0.0042439476 0.20066638 -0.015346982
000070 fc 11 95 3c 7a ff ac 3c bb 91 c2 3c 3c 77 0e 3d
       0.018197052 0.021117914 0.02375113 0.03478168
000080 99 f8 73 bc 7b 4c 1c bf 27 3b 44 bd 50 eb 10 3d
       -0.014890813 -0.610542 -0.047907975 0.03538066
000090 22 a1 a0 bc e1 ac e0 3d af 3b 1f bd fb 35 aa be
       -0.019608084 0.10970474 -0.038875278 -0.3324431
0000a0 60 be 4a 3b 0d 56 d4 3c 0e ce 4b bd 18 f6 80 3c
       0.0030936226 0.025919938 -0.049757056 0.015742347
0000b0 4a 83 36 be bd 1e 0a be 4b a8 c4 3c 0a 7c 82 3d
       -0.1782352 -0.13488288 0.02400603 0.06371315
0000c0 a9 25 4f 3d c5 e4 84 bc 7d a7 8f 3c 36 04 56 3c
       0.050573025 -0.016222367 0.01753592 0.013062527
0000d0 5b 38 8a 3b 88 31 f5 3c 5f 68 f3 bc e9 dd fc 3b
       0.004218144 0.029930845 -0.029712854 0.0077168834
0000e0 94 15 d9 bc 55 26 e4 bc 22 91 c6 3c 89 68 0f bf
       -0.026499547 -0.02785031 0.024239127 -0.56018883
0000f0 71 a0 85 3e f8 25 03 bf 17 0a 81 3c 5e dc e9 bd
       0.2609897 -0.5122981 0.015751882 -0.11418985
000100 de c4 d5 3c 52 98 d6 3c 79 49 9e bb c1 a6 cd 3c
       0.02609485 0.026195679 -0.004830536 0.025103929
000110 70 7a 42 bf 26 42 96 bd f3 df 63 3d 0f 00 37 3d
       -0.75968075 -0.073368356 0.055633496 0.04467779
000120 c0 82 e1 bb 16 4e e6 bb 6e ba 0b 3c 4d 60 3a bf
       -0.0068820417 -0.0070283515 0.008528335 -0.72803193
000130 be bc 95 be a4 f2 0d ba cf 92 00 bd 22 64 00 3d
       -0.2924556 -0.00054148794 -0.031390008 0.031345494
000140 d6 7a 82 3e fb 1a 40 3d 81 73 77 bc dd 45 04 bf
       0.2548434 0.04690073 -0.015103222 -0.516691
000150 cb 0a 92 bc 37 33 78 3c 9c e5 c7 bc ca f3 18 bc
       -0.017827412 0.015148929 -0.024401478 -0.009335468
000160 a2 9b 41 3d a6 64 3e bc f6 0c ed 3a 2a 3a 7c 3d
       0.047267564 -0.011620676 0.0018085528 0.061578907
000170 e2 10 9f bd ac d1 d6 bd 6a 24 f1 3c bf 2a fe 3d
       -0.07766892 -0.104892105 0.029436309 0.12410497
000180 a2 62 03 3d 21 ac c8 3c 30 b0 05 ba 9d b1 16 bb
       0.032076485 0.02449614 -0.00050998013 -0.002299405
000190 22 50 87 bc 29 85 d1 3b 1e 59 bc bc 7f 9e 8b bb
       -0.016517702 0.0063940478 -0.022991713 -0.0042608376
0001a0 23 db 43 3e ff 5b 8a 3c ef 70 77 3c a8 4f 26 bd
       0.19126563 0.01688957 0.015102609 -0.04060331
0001b0 76 60 77 bd fd d0 88 3c 79 a3 c7 3c a2 c4 c0 bb
       -0.060394727 0.016701216 0.024369942 -0.0058828155
0001c0 2d 7b e7 3d 63 19 f9 bc 30 fe 88 bd 32 6c 6c 3d
       0.11302791 -0.030407613 -0.066891074 0.05772037
0001d0 71 27 33 bd 0f f4 b1 3c cd 91 21 be b7 d9 7e bd
       -0.043738786 0.021722822 -0.15778275 -0.062219348
0001e0 cd da 3c 3d 65 8a ac 3d 8e 39 f6 3a 6e 6e 7a 3b
       0.046107102 0.08424834 0.0018785463 0.0038212794
0001f0 fa 58 db 3d 50 29 15 3d 0c ca e7 3c 31 22 01 bc
       0.1071033 0.03641635 0.028294586 -0.007881687
000200 47 8e 10 bb a6 0b 10 bd 2f d8 58 3d 3a 61 db 3d
       -0.002205746 -0.03516736 0.052940544 0.10711904
000210 0e 2e d8 be bf a0 d8 bb b3 3b 30 3d 98 a1 70 3e
       -0.42222637 -0.0066109593 0.043025684 0.23499143
000220 2e 25 d7 3c 23 6f 42 be 5b f5 31 3b 27 ff 32 bf
       0.026262846 -0.18987708 0.00271543 -0.6992058
000230 3d 20 b6 bc fb 70 3c 3c 8b 1d 88 3d b0 0b fc 3c
       -0.02223217 0.011501546 0.0664626 0.030767292
000240 cf 9b b6 bc c1 5f c0 be 3d 2c d9 bb 54 ec 11 bc
       -0.022291092 -0.37573054 -0.006627588 -0.008906443
000250 6b 38 49 3d eb 87 44 bc d7 6f e9 bb cb 19 9b bc
       0.04912607 -0.011995296 -0.007123928 -0.018933197
000260 dc 58 fd bc d3 88 e2 3c bc af e5 bd c0 28 9c bc
       -0.03092616 0.027653133 -0.11215159 -0.0190624
000270 50 8f 40 bd 60 3c 11 3d 85 c8 b8 3d dc 7e 07 bc
       -0.047011673 0.03545797 0.09022621 -0.008269992
000280 4c c1 66 be 58 bd d9 bc 07 27 e4 bc 05 67 12 bd
       -0.22534674 -0.026579544 -0.027850641 -0.03574278
000290 0c 03 8d bd f7 93 bc 3c b1 17 fc 3c ce 70 f5 3c
       -0.06885347 0.023019774 0.030773016 0.029961016
0002a0 54 bb e5 3c 2a 09 0e bd 12 91 cc 3a 63 72 a6 3c
       0.028043427 -0.03467671 0.0015607199 0.020318216
0002b0 f7 9a 0f 3e 9c fe 0b bf 4a a4 29 3d cd 79 e6 be
       0.14023958 -0.5468538 0.041416444 -0.45014802
0002c0 25 a1 18 3c bc 61 91 3d 80 fd db bc b1 4c e4 bd
       0.009315764 0.070987195 -0.026854277 -0.1114744
0002d0 00 7e 45 ba 87 2b 51 bc 53 bb f6 3d 3a db e6 3c
       -0.0007533729 -0.012766725 0.12047448 0.028180707
0002e0 e2 a2 60 3d 48 7d 03 3c 4e 2e 85 3e 4e 06 e8 3c
       0.054842837 0.008025475 0.2601189 0.028323319
0002f0 db d8 39 3c 4b 9c 26 3d 57 7b d7 3c 9f 35 26 3b
       0.011343206 0.040676396 0.02630393 0.002536155
000300 f0 ac b1 3c f1 51 82 3d cf fe 54 3d b9 11 76 bb
       0.021688908 0.06363285 0.052000817 -0.0037547185
000310 0f d8 c3 3b 56 38 f3 3c 14 7d 4d 3d 9c 9d 7f 3c
       0.005976684 0.029689949 0.050168112 0.015601542
000320 29 1d 23 3c 6e ad cd bc bb 34 4e be 88 59 9f bc
       0.009955683 -0.025107112 -0.20137303 -0.019451872
000330 42 49 7d bd 3d 18 3e 3b a8 bc 00 bd 46 69 14 bf
       -0.061837442 0.0029006146 -0.031429917 -0.57973135
000340 22 f7 1f bd 3d 9e b4 3d 16 7b 13 3d b3 c3 89 3e
       -0.039054044 0.08819244 0.036006056 0.2690712
000350 e4 d3 f4 bb 50 c9 8d 3c 6a 24 71 3d 37 d5 fd 3c
       -0.0074715484 0.017307907 0.058872618 0.030985458
000360 6d 42 ca bc ad fd f3 bc c1 ae a1 bc 66 2d cd bc
       -0.024689877 -0.029784048 -0.01973665 -0.025046062
000370 ce 5c a5 3b 31 39 b6 bc 16 57 63 3e c0 2a 0f 3d
       0.0050464636 -0.022244068 0.2220119 0.03495288
000380 11 6b e8 3c eb 3f 81 bd 9d 50 34 bc 3b e0 f3 3c
       0.028371366 -0.063110195 -0.011005548 0.029770007
000390 74 5b d0 3c c6 c3 bc bc 93 af 93 bc 0a 2e 74 bc
       0.025434233 -0.02304257 -0.018028056 -0.014903555
0003a0 a2 c5 ab bc 35 fa 1e bb 2e 54 ec 3c 5e 6e 20 3d
       -0.020968262 -0.0024258022 0.028848734 0.039167754
0003b0 09 f9 cc bc 8b 04 d3 bb a7 9f b3 3b 29 c7 57 3d
       -0.025021093 -0.0064397505 0.0054816785 0.05268017
0003c0 55 9a 85 bd a7 c2 e3 bb 96 c8 7c 3d 52 e3 9c bc
       -0.06523577 -0.0069506946 0.06171473 -0.019151364
0003d0 d2 da 54 bd 18 72 e0 bc b0 f2 4a bd e8 dc ad 3c
       -0.051966496 -0.027398154 -0.04954785 0.0212235
0003e0 2b 8a c4 b8 a6 3b 50 3c 9f 57 0c 3d 92 0a a2 bd
       -9.371744e-05 0.012709534 0.03426325 -0.079121724
0003f0 66 34 8d 3c be 83 28 3c 96 2b b2 bc 36 f3 0f 3e
       0.0172369 0.010285316 -0.021749299 0.14057621

linear3.bias f4 [3]
000000 9c a5 cb 3e 30 b8 da 3e 06 a2 e5 3e
       0.39774787 0.4271865 0.44850177
