checkpoint_game_1000.pth (torch, 281418 bytes, 6 tensors)

linear1.weight f4 [256, 11]
-0.20707764 0.17917858 -0.12465361 0.1471451 0.087484494 0.11607977 -0.1928187 -0.16442885
-0.10900319 -0.14658207 -0.26476756 0.1935382 0.13050137 -0.15423608 -0.12032864 -0.02298628
-0.061872963 -0.191212 -0.046200488 -0.2539666 -0.015143925 -0.17253505 0.043637812 0.12674993
0.122100964 -0.49554992 0.1471251 -0.45007578 0.50985837 -0.3313525 -0.6773588 -0.75527936
0.18493381 -0.06614648 0.07368781 0.15898189 0.012110155 -0.040739987 -0.52208155 -0.35439807
-0.1825265 0.03502036 -0.41649652 -0.3147674 -0.05569149 -0.13796282 -0.17777233 -0.017139934
-0.036840115 -0.3163472 0.49495715 -0.43074486 -0.51946104 0.14367552 -0.2806647 -0.076991394
0.18864651 -0.30172762 -0.4432347 -0.037350256 -0.52815926 -0.004684319 -0.28693464 -0.25818807
-0.08472091 -0.4715008 0.6297089 -0.4307021 -0.29320765 0.20781957 -0.1423304 -0.3983817
-0.32208645 -0.1926186 0.134289 0.49884948 0.4577338 -0.37785795 0.2158159 0.32289165
-0.43675455 -0.46377298 0.27684274 0.40906554 -0.27685216 -0.2893085 0.23000574 0.18655105
0.28239825 0.10170525 -0.046469655 0.36660206 0.27382502 -0.7107951 -0.483516 -0.830541
-0.66887313 0.17780547 0.34602278 -0.19986722 0.3429347 0.63839096 -0.010496639 -0.3092384
-0.35480988 -0.16557226 0.07220882 -0.2655344 -0.16804531 -0.32796812 -0.21185268 0.06310616
0.018982278 -0.2896261 0.17188737 0.42458346 -0.3136232 -0.3829323 -0.24783954 0.45558804
-0.19347292 -0.17264433 0.5293024 -0.08292796 0.18577361 0.07292778 -0.27870166 -0.71624786
0.1541381 0.31333095 -0.39128432 -0.4642161 -0.16528341 0.23540816 0.03299874 -0.20676324
-0.42479557 -0.17895147 -0.13927329 -0.08344346 -0.025841435 -0.23217356 -0.21111971 0.10814928
0.24708861 -0.059553433 0.050078124 0.012269887 -0.20386341 0.029083459 2.880857e-05 -0.12803882
0.07602709 -0.20631517 0.21334067 0.17961136 -0.5000297 0.21771029 -0.35787264 0.3902318
-0.2511656 -0.36937597 -0.6844139 -0.6672836 0.19698192 -0.47744823 0.25677282 0.17238483
-0.4829267 0.08693874 0.2926248 -0.048549816 -0.5646113 -0.46891385 -0.7128985 -0.20790485
0.06798643 0.14281563 0.071220174 -0.012710361 -0.028571337 0.014376939 -0.3243176 -0.4851449
-0.23097618 -0.111691706 -0.50228614 0.09463698 -0.48938537 -0.030517494 -0.017772935 -0.10736714
-0.11626648 -0.025435071 0.034006856 -0.42709044 -0.0021937334 -0.0050304052 0.15376365 -0.2809141
-0.08975799 -0.24722289 0.42543864 -0.43220863 -0.46238726 0.53361094 -0.30330446 -0.86063695
-0.68505013 -0.25626484 -0.17554313 -0.23195562 -0.17906912 -0.10749231 0.14651696 -0.16113473
-0.33106542 -0.22933383 -0.13406359 0.12604247 -0.11622119 0.039372377 0.0694703 0.014625644
-0.5176989 -0.30179542 -0.11691431 -0.50887454 -0.41815203 -0.09498132 -0.041400366 -0.016199188
0.7443832 -0.13295707 0.3531271 -0.17820121 -0.16692677 0.22871621 -0.16289549 0.1312834
-0.24714571 0.14922844 0.18312955 -0.26607993 0.14733382 -0.6551011 -0.17770591 -0.3160838
0.077899426 0.09197233 -0.17599835 -0.36229536 -0.40403256 0.4156116 0.49172398 0.5227944
00000000: 290c 54be 977a 373e 644a ffbd 35ad 163e
00000010: 122b b33d 3bbb ed3d 4472 45be 0960 28be
00000020: 113d dfbd 9c19 16be 9d8f 87be e12e 463e
00000030: 27a2 053e 10f0 1dbe dd6e f6bd b94d bcbc
00000040: 816e 7dbd 14cd 43be b93c 3dbd e907 82be
00000050: 3a1e 78bc 07ad 30be 90bd 323d bcca 013e
00000060: 1210 fa3d b8b8 fdbe f6a7 163e 5570 e6be
00000070: 1486 023f 09a7 a9be 6367 2dbf fd59 41bf
00000080: 4a5f 3d3e ce77 87bd a2e9 963d 26cc 223e
00000090: ac69 463c f9de 26bd 23a7 05bf aa73 b5be
000000a0: 3ae8 3abe 8271 0f3d 083f d5be 3129 a1be
000000b0: c31c 64bd 2046 0dbe f309 36be 0c69 8cbc
000000c0: a9e5 16bd 43f8 a1be 066b fd3e 978a dcbe
000000d0: 66fb 04bf ad1f 133e 49b3 8fbe aaad 9dbd
000000e0: 8d2c 413e 0b7c 9abe a9ef e2be 95fc 18bd
000000f0: 7235 07bf ea7e 99bb 19e9 92be 3a31 84be
00000100: 2882 adbd 8e68 f1be 9a34 213f fc84 dcbe
00000110: 501f 96be a7ce 543e 0fbf 11be b0f8 cbbe
00000120: 84e8 a4be cf3d 45be 0e83 093e 3369 ff3e
00000130: 165c ea3e 9976 c1be d8fe 5c3e 0e52 a53e
00000140: 4b9e dfbe a773 edbe 55be 8d3e 0a71 d13e
00000150: 91bf 8dbe 3e20 94be a086 6b3e 3d07 3f3e
00000160: 8196 903e d84a d03d f756 3ebd 44b3 bb3e
00000170: cb32 8c3e abf6 35bf 698f f7be 569e 54bf
00000180: 453b 2bbf a312 363e e629 b13e fea9 4cbe
00000190: 2395 af3e 976d 233f 18fa 2bbc 7f54 9ebe
000001a0: a4a9 b5be c68b 29be 38e2 933d 20f4 87be
000001b0: 1214 2cbe 70eb a7be e9ef 58be cd3d 813d
000001c0: b980 9b3c df49 94be 3e03 303e 0163 d93e
000001d0: 3893 a0be b40f c4be a6c9 7dbe d642 e93e
000001e0: c41d 46be adc9 30be 5d80 073f 22d6 a9bd
000001f0: 703b 3e3e 295b 953d fcb1 8ebe 055c 37bf
00000200: 61d6 1d3e ea6c a03e 6b56 c8be bcad edbe
00000210: 0e40 29be d60e 713e b029 073d beb9 53be
00000220: ce7e d9be 0e3f 37be a89d 0ebe 68e4 aabd
00000230: 6bb1 d3bc e8be 6dbe c42f 58be 5f7d dd3d
00000240: cc04 7d3e 4dee 73bd b81e 4d3d a307 493c
00000250: 92c1 50be 6f40 ee3c efa9 f137 9c1c 03be
00000260: 17b4 9b3d 4944 53be fa75 5a3e 0aec 373e
00000270: f201 00bf 72ef 5e3e 153b b7be 76cc c73e
00000280: c798 80be d91e bdbe c035 2fbf 19d3 2abf
00000290: a1b5 493e 1874 f4be ba77 833e a685 303e
000002a0: 2b42 f7be f00c b23d ebd2 953e 2cdc 46bd
000002b0: 5e8a 10bf 7a15 f0be 8480 36bf 02e5 54be
000002c0: 783c 8b3d 433e 123e e2db 913d 1e3f 50bc
000002d0: 700e eabc 418d 6b3c f50c a6be ea64 f8be
000002e0: 0585 6cbe 9fbe e4bd d395 00bf 08d1 c13d
000002f0: b890 fabe d3ff f9bc 8c98 91bc 4ee3 dbbd
00000300: 1f1d eebd 365d d0bc c64a 0b3d 99ab dabe
00000310: bdc4 0fbb 19d6 a4bb 3874 1d3e f9d3 8fbe
00000320: 09d3 b7bd ff27 7dbe 18d3 d93e 734a ddbe
00000330: 06be ecbe ba9a 083f b94a 9bbe b452 5cbf
00000340: 725f 2fbf 2535 83be 94c1 33be c685 6dbe
00000350: e55d 37be ee24 dcbd 8b08 163e 8100 25be
00000360: 6881 a9be 7dd6 6abe f747 09be 4711 013e
00000370: 6005 eebd ee44 213d 7246 8e3d 66a0 6f3c
00000380: ea87 04bf ee84 9abe c570 efbd 9a45 02bf
00000390: 0618 d6be 9185 c2bd 6e93 29bd 29b4 84bc
000003a0: e68f 3e3f e625 08be 13cd b43e 617a 36be
000003b0: daee 2abe 9534 6a3e 13ce 26be 286f 063e
000003c0: c413 7dbe 57cf 183e 5086 3b3e a13b 88be
000003d0: adde 163e b5b4 27bf 8af8 35be bcd5 a1be
000003e0: bc89 9f3d fd5b bc3d e938 34be c77e b9be
000003f0: 5bdd cebe 0bcb d43e 3fc3 fb3e dbd5 053f

linear1.bias f4 [256]
-0.30690023 -0.34456125 -0.03502127 -0.29872835 -0.38583124 -0.1269103 -0.10635379 -0.2845881
-0.044185977 -0.07356681 -0.2761553 -0.09750528 -0.14442791 -0.4837232 0.023996606 -0.11275846
-0.2700587 -0.24846885 -0.38925052 -0.29825026 -0.111378595 -0.07210808 -0.25459135 -0.19249752
-0.13865884 -0.15539679 -0.049074337 -0.3914496 -0.4765909 0.32754633 -0.3187633 -0.131921
-0.031490706 0.33521894 -0.010768803 -0.3630601 -0.18903393 -0.062708445 -0.30800498 -0.03343464
-0.23122452 0.0554304 -0.10955239 -0.17997533 -0.19120201 -0.07717936 -0.2602608 -0.26905409
0.10255616 -0.2769143 -0.059881415 -0.35549498 -0.3326403 0.10313689 0.42968762 0.82071835
-0.0244174 -0.30364206 0.8779236 0.04091077 -0.081764 -0.2572573 -0.17780472 0.02011391
-0.32263172 -0.26071826 -0.29019436 -0.022030335 -0.084517285 -0.351564 0.1486838 0.019193841
1.1738137 -0.27614677 -0.28782663 -0.052097473 -0.17067431 -0.20489933 -0.22722568 -0.4018958
0.2201794 0.4194488 -0.09360356 -0.28891003 -0.10003831 -0.3838794 -0.09204139 -0.40198198
0.06731247 -0.27351442 -0.32418776 0.08413883 0.14710204 -0.015957145 -0.41587448 -0.42810166
-0.3714242 -0.16999725 -0.14553942 -0.4395285 -0.16934532 0.09181487 0.031832572 -0.38078144
-0.02284002 0.056544583 -0.08292022 -0.1576344 -0.04027904 -0.5040242 -0.24945663 -0.14747953
-0.27784064 -0.057508294 0.03985327 0.15443851 -0.08149286 0.7967823 -0.12286783 -0.33374932
0.30092606 0.117013074 -0.31611174 -0.16341929 -0.053281706 -0.30238682 -0.3907837 -0.0068764132
0.7828226 -0.29590064 0.02455878 -0.008391889 -0.14175658 0.018611087 -0.1506718 -0.25305134
-0.09536285 0.28646797 0.1458434 0.5540685 -0.070209414 -0.15478115 -0.1559343 -0.4183353
-0.112280995 -0.26538882 1.5416368 -0.09972941 -0.35827982 0.11645111 -0.25283918 0.2865834
-0.14566156 -0.1396627 0.015397959 -0.18618873 -0.2902946 -0.17614616 0.1248929 -0.009472266
-0.15567295 0.12145223 -0.35576618 -0.30552447 0.18687703 0.8054303 -0.29979149 -0.16954596
-0.33018523 -0.23441802 -0.10025201 0.23019475 0.31892774 0.041678026 -0.0117393285 0.57621694
0.36728156 -0.1156242 -0.19444825 -0.37256518 0.07608601 0.49125057 -0.19359869 0.00026149745
-0.38089907 0.10718361 0.0862293 0.074040815 0.20969823 -0.3780662 -0.06690476 -0.052713193
-0.24556935 -0.3643898 -0.08377736 -0.03218267 -0.1718555 -0.58860034 0.0544934 0.062247813
-0.104357794 -0.5381368 -0.20929778 -0.20687047 0.14451697 -0.30230966 -0.18801272 -0.049009956
-0.40585205 -0.06381694 1.3787533 0.3015623 -0.28168076 0.117810376 -0.2633452 -0.298407
-0.050867803 -0.27636847 -0.5088131 -0.067149535 0.009046714 0.15400171 -0.2786917 0.35114938
-0.16878478 0.15473573 -0.27479336 -0.1519016 -0.0741822 -0.2451562 -0.23729159 -0.4218975
0.1092182 -0.25009927 0.023318399 -0.36544326 0.024161741 -0.011439759 0.028390003 0.276041
-0.15906154 -0.20506741 -0.08543338 -0.12376197 -0.16305184 0.10440475 -0.3234672 -0.19387996
-0.060893096 0.36696872 1.6016876 0.23465027 -0.23973003 -0.3532054 -0.10158702 -0.31568676
00000000: 0722 9dbe 556a b0be 7772 0fbd ecf2 98be
00000010: ac8b c5be c6f4 01be 04d0 d9bd 88b5 91be
00000020: 5bfc 34bd 32aa 96bd 3a64 8dbe d9b0 c7bd
00000030: e9e4 13be 91aa f7be 8894 c43c e8ed e6bd
00000040: 2245 8abe 9e6e 7ebe d84b c7be 42b4 98be
00000050: 761a e4bd 67ad 93bd cc59 82be 121e 45be
00000060: 95fc 0dbe 5620 1fbe 2c02 49bd 156c c8be
00000070: b903 f4be 27b4 a73e f134 a3be 4c16 07be
00000080: 66fc 00bd d1a1 ab3e a26f 30bc 03e3 b9be
00000090: 1c92 41be 496d 80bd d4b2 9dbe c3f2 08bd
000000a0: 1fc6 6cbe fd0a 633d 015d e0bd 744b 38be
000000b0: 76ca 43be 3610 9ebd e740 85be 75c1 89be
000000c0: f708 d23d b6c7 8dbe 3746 75bd 7003 b6be
000000d0: d44f aabe 6f39 d33d 0400 dc3e 991a 523f
000000e0: 0007 c8bc f976 9bbe 9abf 603f 0d92 273d
000000f0: e273 a7bd 3bb7 83be 7112 36be edc5 a43c
00000100: fc2f a5be dd7c 85be 5b94 94be f678 b4bc
00000110: 6617 adbd 3200 b4be 9140 183e 673c 9d3c
00000120: 873f 963f 1c63 8dbe 035e 93be 2964 55bd
00000130: 3fc5 2ebe 21d1 51be d9ad 68be 49c5 cdbe
00000140: b576 613e fec1 d63e 39b3 bfbd 04ec 93be
00000150: e3e0 ccbd d78b c4be 3280 bcbd 95d0 cdbe
00000160: 1fdb 893d 150a 8cbe f0fb a5be fb50 ac3d
00000170: eba1 163e 8fb8 82bc 80ed d4be 2430 dbbe
00000180: 502b bebe c213 2ebe 4908 15be e109 e1be
00000190: dc68 2dbe 6f09 bc3d df62 023d c9f5 c2be
000001a0: fe1a bbbc 4b9b 673d 14d2 a9bd ea6a 21be
000001b0: a2fb 24bd bb07 01bf 8f71 7fbe e004 17be
000001c0: 2141 8ebe d18d 6bbd 2f3d 233d 2125 1e3e
000001d0: bbe5 a6bd edf9 4b3f 21a2 fbbd 31e1 aabe
000001e0: fb12 9a3e 8da4 ef3d 66d9 a1be 6357 27be
000001f0: eb3d 5abd 72d2 9abe cd14 c8be 8953 e1bb
00000200: 1067 483f 4a80 97be 7f2f c93c 227e 09bc
00000210: a328 11be 4776 983c b549 1abe f28f 81be
00000220: 994d c3bd eeab 923e f957 153e 6fd7 0d3f
00000230: f4c9 8fbd f37e 1ebe 3ead 1fbe 0b30 d6be
00000240: 94f3 e5bd 0be1 87be 5b54 c53f ef3e ccbd
00000250: 7470 b7be eb7d ee3d 2374 81be 0fbb 923e
00000260: 4e28 15be bd03 0fbe b947 7c3c 42a8 3ebe
00000270: 7ea1 94be a95f 34be d9c7 ff3d 9031 1bbc
00000280: bb68 1fbe f2bb f83d fc26 b6be b46d 9cbe
00000290: b15c 3f3e ae30 4e3f 457e 99be 759d 2dbe
000002a0: 0a0e a9be 470b 70be ed50 cdbd 2cb8 6b3e
000002b0: 7f4a a33e 94b6 2a3d 5056 40bc f482 133f
000002c0: 540c bc3e 61cc ecbd 711d 47be ddc0 bebe
000002d0: fbd2 9b3d 3285 fb3e bc3e 46be 9819 8939
000002e0: 3405 c3be 1583 db3d fd98 b03d b6a2 973d
000002f0: 22bb 563e e591 c1be 5d05 89bd cae9 57bd
00000300: 8876 7bbe 4d91 babe 7793 abbd fad1 03bd
00000310: e3fa 2fbe 83ae 16bf 7934 5f3d 90f7 7e3d
00000320: 8ab9 d5bd 55c3 09bf 2852 56be dad5 53be
00000330: 42fc 133e 55c8 9abe 6886 40be aabe 48bd
00000340: d7cb cfbe 75b2 82bd fd7a b03f 6066 9a3e
00000350: 7638 90be 9146 f13d 2fd5 86be cdc8 98be
00000360: c25a 50bd 2b80 8dbe 9341 02bf b285 89bd
00000370: ab38 143c a0b2 1d3e aeb0 8ebe dac9 b33e
00000380: ebd5 2cbe 0b73 1e3e b7b1 8cbe 188c 1bbe
00000390: d6ec 97bd 3a0a 7bbe 91fc 72be f302 d8be
000003a0: cbad df3d 030d 80be 3a06 bf3c 611b bbbe
000003b0: d8ee c53c d46d 3bbc 2792 e83c 3f55 8d3e
000003c0: 07e1 22be 31fd 51be b2f7 aebd ea76 fdbd
000003d0: 10f7 26be 28d2 d53d 7e9d a5be 7888 46be
000003e0: 0a6b 79bd 53e3 bb3e 1904 cd3f 2948 703e
000003f0: ca7b 75be 57d7 b4be db0c d0bd b2a1 a1be

linear2.weight f4 [256, 256]
0.00036640465 -0.003813222 0.08785899 0.0033638643 -0.0056282054 -0.010835924 0.018550409 -0.033964433
-0.04910409 -0.033086937 -0.059450056 0.011407919 0.020728512 -0.009715637 -0.0002842416 -0.04841381
-0.061376423 -0.006313165 0.038994864 0.017472692 -0.065216094 -0.0039636455 -0.013547497 -0.006785607
-0.033248037 -0.04818404 -0.066619374 -0.020602046 -0.046473965 -0.048215933 -0.004630778 -0.0011301319
-0.11741775 -0.07856349 -0.05750409 -0.08905999 -0.076510444 -0.05173751 0.054590136 -0.028809719
0.020272022 0.021611033 0.016571019 0.007325314 -0.0052352725 -0.02876421 -0.05791838 0.07131921
-0.022313494 -0.010814875 -0.047140665 0.016589874 -0.05685229 -0.011520312 -0.063265234 -0.05821064
-0.0320676 0.008042855 -0.10568725 0.04202618 0.034634512 -0.0425272 -0.011446133 -0.072409235
-0.06442099 0.01414257 0.016587555 0.07457438 -0.061287757 0.028432095 -0.0006532564 -0.090357825
-0.06586513 -0.018098349 -0.052013006 -0.045201804 -0.0012382732 0.05731513 0.051337063 0.016448952
-0.105614305 -0.037952628 0.0064909053 -0.039977256 -0.103495106 -0.025270693 -0.052298453 -0.0753274
-0.008969174 -0.047852594 -0.016424136 -0.055996306 0.0013200304 0.009681873 0.031562105 -0.0390496
0.048725203 -0.007773561 0.021500757 -0.08852965 -0.004984465 -0.10094173 -0.066046536 -0.06246247
-0.03424928 -0.05172728 0.03879425 -0.053633675 -0.063598245 -0.07782553 -0.015522493 -0.062383488
-0.011728848 -0.04140389 -0.06836494 -0.011851251 0.0041202805 -0.10482074 0.04126118 -0.034502074
-0.09377541 -0.036364082 -0.056768913 -0.037802342 -0.009972717 -0.066452175 -0.05173131 -0.061121978
-0.11893865 -0.08986823 0.022918593 -0.037377335 0.071975246 0.05115977 -0.07373115 -0.013635387
-0.014660091 0.06563149 0.009070352 -0.046789106 -0.026996339 -0.04249798 -0.020905754 -0.01168412
0.014585824 -0.09137061 -0.01676168 -0.048612505 -0.015842974 -0.042174906 0.021945791 -0.025798595
-0.009228142 0.07870475 -0.045686696 -0.048493683 -0.028199822 -0.03841476 0.019807471 -0.04550828
-0.08644241 -0.053835697 -0.05137116 -0.015646033 0.035989486 -0.08315162 -0.053937286 -0.007528481
-0.0116716325 -0.07791484 -0.0015787466 -0.06366916 0.009211477 0.046814177 0.045678414 0.0058156615
0.012381552 0.033048756 -0.030412735 0.017306585 -0.05184374 -0.019208288 -0.121895954 0.058660775
-0.011116545 -0.03576956 0.017554717 -0.029060505 0.00038559746 0.0017932281 -0.061720505 -0.055060346
-0.03756278 -0.057321627 -0.054199938 0.029936232 -0.0805817 0.045320187 -0.108888246 0.042087264
0.019122535 -0.11281145 0.062137052 0.059747115 0.0011236225 -0.03700859 -0.009678645 -0.04671733
-0.04793719 -0.037081648 -0.092911005 -0.04162759 -0.041623004 0.01566368 -0.077007465 0.009737223
0.03263557 0.0507227 -0.025082389 0.0009143952 -0.093562976 0.009010145 0.033451468 -0.04239176
-0.019527288 -0.049672462 -0.04523655 -0.03531459 -0.038038034 -0.0057069384 -0.033235285 -0.081310526
-0.0357703 0.024796223 -0.04571261 -0.03312997 0.041136224 -0.03511946 -0.042686194 -0.0679411
-0.00045132486 -0.07414849 -0.011708138 -0.06970491 0.0013957918 -0.012846582 -0.04753985 0.06757463
0.018678598 -0.067669 -0.07383484 0.016982423 -0.02986756 -0.070338085 0.037615288 -0.011496348
00000000: 001a c039 40e7 79bb 6aef b33d 4774 5c3b
00000010: cf6c b8bb 2989 31bc 07f7 973c 4a1e 0bbd
00000020: 5f21 49bd 2b86 07bd e781 73bd 48e8 3a3c
00000030: d7ce a93c 562e 1fbc 4306 95b9 8f4d 46bd
00000040: d865 7bbd abde cebb 14b9 1f3d e422 8f3c
00000050: 0490 85bd 78e1 81bb 52f6 5dbc cc59 debb
00000060: 182f 08bd a15c 45bd bd6f 88bd 9fc5 a8bc
00000070: 7c5b 3ebd 127e 45bd c8bd 97bb ef20 94ba
00000080: b878 f0bd e5e5 a0bd 6989 6bbd 1665 b6bd
00000090: 82b1 9cbd b6ea 53bd e899 5f3d 5c02 ecbc
000000a0: 8311 a63c 9f09 b13c f2bf 873c 3009 f03b
000000b0: a68c abbb eca2 ebbc d33b 6dbd ce0f 923d
000000c0: caca b6bc e030 31bc 9216 41bd 7de7 873c
000000d0: f2dd 68bd b1bf 3cbc 3491 81bd 486e 6ebd
000000e0: 5159 03bd 2ec6 033c 8f72 d8bd a523 2c3d
000000f0: ebdc 0d3d 0031 2ebd 9088 3bbc 4b4b 94bd
00000100: 27ef 83bd 3db6 673c a0e2 873c 74ba 983d
00000110: df08 7bbd 6dea e83c 4b3f 2bba 860d b9bd
00000120: 4ce4 86bd fd42 94bc 970b 55bd 8725 39bd
00000130: 8e4d a2ba 45c3 6a3d d046 523d f4bf 863c
00000140: 504c d8bd 3774 1bbd a9b1 d43b 31bf 23bd
00000150: 3ef5 d3bd 7c04 cfbc e736 56bd 4045 9abd
00000160: 71f3 12bc 1501 44bd e98b 86bc 625c 65bd
00000170: df04 ad3a b8a0 1e3c 4447 013d 79f2 1fbd
00000180: 1494 473d 5bb9 febb 5b22 b03c 084f b5bd
00000190: b954 a3bb 8aba cebd 6843 87bd a6d8 7fbd
000001a0: f948 0cbd fcdf 53bd b8e6 1e3d fcae 5bbd
000001b0: cc3f 82bd fe62 9fbd 0e52 7ebc d485 7fbd
000001c0: 5b2a 40bc 2097 29bd eb02 8cbd c02b 42bc
000001d0: 6b03 873b 42ac d6bd 7c01 293d 0c52 0dbd
000001e0: 520d c0bd 81f2 14bd 8586 68bd a1d6 1abd
000001f0: 9b64 23bc 1418 88bd 36e4 53bd 0a5b 7abd
00000200: 1b96 f3bd d60c b8bd c6bf bb3c fa18 19bd
00000210: c267 933d e88c 513d 5b00 97bd f566 5fbc
00000220: e130 70bc cd69 863d d09b 143c efa5 3fbd
00000230: 6d27 ddbc 5d12 2ebd 8b42 abbc c06e 3fbc
00000240: 61f9 6e3c 8420 bbbd ca4f 89bc e81d 47bd
00000250: 20c9 81bc 98bf 2cbd a9c7 b33c 9357 d3bc
00000260: a231 17bc f52f a13d f921 3bbd 50a1 46bd
00000270: 5003 e7bc cc58 1dbd 4743 a23c e466 3abd
00000280: b808 b1bd d282 5cbd 916a 52bd 1c2c 80bc
00000290: b669 133d 664b aabd 58ed 5cbd 7ab1 f6bb
000002a0: 603a 3fbc d191 9fbd f2ed ceba fa64 82bd
000002b0: bceb 163c 39c0 3f3d 4a19 3b3d 4e91 be3b
000002c0: fedb 4a3c 225e 073d 2124 f9bc 8ac6 8d3c
000002d0: 1a5a 54bd b35a 9dbc 96a4 f9bd 4846 703d
000002e0: 2b22 36bc 1a83 12bd e9ce 8f3c 4c10 eebc
000002f0: 042a ca39 c00a eb3a a4ce 7cbd f586 61bd
00000300: 6edb 19bd 15ca 6abd c100 5ebd d43c f53c
00000310: 0508 a5bd a9a1 393d cd00 dfbd b263 2c3d
00000320: dda6 9c3c b109 e7bd 6c83 7e3d 64b9 743d
00000330: 8446 933a 5296 17bd 2e93 1ebc ac5a 3fbd
00000340: c959 44bd ede2 17bd 2048 bebd b181 2abd
00000350: e27c 2abd 1e51 803c 17b6 9dbd e088 1f3c
00000360: e0ac 053d 9bc2 4f3d 9579 cdbc 06b4 6f3a
00000370: f29d bfbd 4a9f 133c 6804 093d fba2 2dbd
00000380: b1f7 9fbc 5a75 4bbd f649 39bd 08a6 10bd
00000390: c5cd 1bbd 4501 bbbb b921 08bd 2286 a6bd
000003a0: e183 12bd 7321 cb3c 253d 3bbd 4bb3 07bd
000003b0: 757e 283d 6cd9 0fbd b8d7 2ebd b424 8bbd
000003c0: cc9f ecb9 2adb 97bd 7dd3 3fbc 73c1 8ebd
000003d0: 00f3 b63a 787a 52bc 25b9 42bd 9164 8a3d
000003e0: dc03 993c 0b96 8abd b836 97bd b91e 8b3c
000003f0: d0ac f4bc 6a0d 90bd 7d12 1a3d 2e5b 3cbc

linear2.bias f4 [256]
-0.00015093996 -0.02070619 -0.07845683 -0.06132444 -0.034161035 0.1202726 0.02230228 -0.04971541
-0.22527368 -0.036269426 0.15026376 -0.04477993 -0.0460626 -0.025740914 -0.05074548 -0.13506131
-0.10572056 -0.06942126 -0.029017456 0.003810597 -0.13528705 -0.059285898 0.26099017 -0.14257032
-0.122876815 -0.03176123 0.027866893 -0.042725228 -0.0574219 -0.09868324 -0.099483766 0.49245298
-0.17863917 -0.073502235 -0.04203017 -0.005748714 -0.123539396 0.088516146 0.006628544 -0.100472435
-0.07233889 -0.032484 -0.087146014 -0.07642164 -0.15824603 -0.23476443 -0.104850926 0.14553162
0.026854834 -0.10812225 0.012230783 -0.091938555 -0.041537076 -0.10059779 -0.09458937 -0.04230866
-0.05924982 -0.044966567 -0.043725684 -0.021502849 2.4428082 0.046967704 -0.0661431 -0.05541741
-0.09467359 0.054514892 0.010138566 -0.0060661207 -0.08457998 -0.18990618 -0.095172614 -0.05029512
-0.1521242 -0.029292794 -0.12419547 0.06701937 -0.080259986 -0.10152754 -0.037692543 -0.10456247
2.201618 0.27871472 0.019140944 0.021455709 -0.07914882 -0.034626365 -0.05013783 -0.043735486
-0.07289048 0.016013527 -0.04740348 0.20879859 -0.15128927 -0.110158645 -0.13951688 -0.0853105
-0.03590059 -0.118674405 -0.08080673 -0.026619716 -0.038482234 -0.021752676 -0.07262441 -0.06338918
1.7350991 -0.013779782 -0.052031133 -0.066901736 0.015548783 -0.1630309 -0.05587189 -0.061691042
-0.0437919 -0.0279722 -0.14047764 -0.05818531 -0.045293268 -0.101019606 -0.06019332 -0.17692502
-0.039560065 -0.009089752 -0.088732764 -0.18282054 0.05872579 -0.09612646 0.24429485 0.010156108
-0.061413772 0.009678599 -0.04867311 -0.08548572 -0.20980465 -0.040890753 0.0011486051 2.1225762
-0.096025586 -0.111010574 -0.00452221 0.22229706 -0.10248918 -0.064410634 -0.06340577 -0.05944899
-0.08975049 -0.13037242 -0.0800589 -0.012787657 -0.047408752 -0.09022305 -0.019441549 -0.2178803
-0.0689699 -0.07783003 -0.0854806 -0.037300576 -0.074438915 -0.08057562 0.63634497 -0.025818113
-0.06957137 -0.05017434 -0.07580515 -0.107278526 -0.15696418 0.025751103 -0.06817024 -0.05074441
-0.11245584 -0.22497377 -0.10832114 0.12398408 0.6310998 -0.118182756 -0.033607002 0.015301671
-0.08548218 0.20915492 -0.07585726 -0.114136934 -0.04844742 -0.027110713 -0.1239217 -0.121510945
-0.07259089 -0.068760484 2.4204671 -0.0590981 -0.1175946 -0.017629683 0.19471139 -0.01260032
-0.051140033 -0.13182048 -0.071742386 -0.014077071 -0.08480081 -0.050985813 -0.06712525 -0.08454667
-0.09797862 -0.102256924 -0.17218386 -0.20782714 -0.24183547 -0.0807056 -0.026728066 -0.18939446
-0.03205512 0.04654202 -0.089937545 2.6615918 -0.1016831 0.03732766 0.021441069 -0.07126126
0.55911136 -0.08036413 -0.04069054 -0.02486596 0.0035117955 -0.07389562 1.9338764 -0.047991097
-0.017039383 -0.10174381 -0.06466378 0.039198328 -0.1297501 -0.11918009 -0.08148709 -0.027420804
-0.20052138 -0.057811383 -0.023480527 -0.063401766 -0.19189614 -0.009102458 -0.11494684 0.28142777
-0.22810723 -0.074316956 -0.059810817 -0.11995126 -0.11328881 -0.010041203 -0.00347738 -0.07251059
-0.048287213 -0.10110343 -0.2095951 -0.10325464 -0.21340843 -0.11390814 -0.05874063 0.031056803
00000000: a345 1eb9 07a0 a9bc f9ad a0bd 562f 7bbd
00000010: 71ec 0bbd 7b51 f63d 45b3 b63c 63a2 4bbd
00000020: 25ae 66be 408f 14bd bede 193e 296b 37bd
00000030: 23ac 3cbd 9cde d2bc 7eda 4fbd 834d 0abe
00000040: 0584 d8bd bc2c 8ebd 04b6 edbc 35bb 793b
00000050: b088 0abe c5d5 72bd 81a0 853e f4fd 11be
00000060: d7a6 fbbd 1018 02bd 1c49 e43c a600 2fbd
00000070: 3a33 6bbd 701a cabd 25be cbbd cc22 fc3e
00000080: 30ed 36be 5788 96bd d427 2cbd b55f bcbb
00000090: 3902 fdbd f447 b53d 4234 d93b 7ec4 cdbd
000000a0: 6926 94bd f10d 05bd 9c79 b2bd f382 9cbd
000000b0: 3f0b 22be 1666 70be 15bc d6bd 3e06 153e
000000c0: abfe db3c 336f ddbd 9f63 483c 484a bcbd
000000d0: c822 2abd 3706 cebd 12b8 c1bd d84b 2dbd
000000e0: f0af 72bd dd2e 38bd b419 33bd be26 b0bc
000000f0: f856 1c40 3561 403d 0976 87bd 5efd 62bd
00000100: 3ae4 c1bd 024b 5f3d 3a1c 263c 4fc6 c6bb
00000110: 4538 adbd c476 42be dce9 c2bd 4102 4ebd
00000120: 72c6 1bbe 71f7 efbc 325a febd 7441 893d
00000130: 595f a4bd aced cfbd 7f63 1abd d924 d6bd
00000140: 4fe7 0c40 b2b3 8e3e 78cd 9c3c e2c3 af3c
00000150: c718 a2bd 60d4 0dbd 535d 4dbd fb23 33bd
00000160: 9b47 95bd cd2e 833c 272a 42bd 4ccf 553e
00000170: 93eb 1abe db9a e1bd 83dd 0ebe 45b7 aebd
00000180: 7f0c 13bd 910b f3bd 007e a5bd 9711 dabc
00000190: 8c9f 1dbd ab32 b2bc 1bbc 94bd 30d2 81bd
000001a0: ba17 de3f 98c4 61bc 991e 55bd c703 89bd
000001b0: 53c0 7e3c 92f1 26be ecd9 64bd bfaf 7cbd
000001c0: 235f 33bd f525 e5bc 5fd9 0fbe b853 6ebd
000001d0: 6f85 39bd 5ee3 cebd 458d 76bd d52b 35be
000001e0: bc09 22bd 2fed 14bc 86b9 b5bd 4f35 3bbe
000001f0: 748a 703d f3dd c4bd 6e28 7a3e ce65 263c
00000200: 028d 7bbd fd92 1e3c 745d 47bd 2313 afbd
00000210: 08d7 56be 107d 27bd cb8c 963a 4ad8 0740
00000220: 10a9 c4bd 8359 e3bd 0c2f 94bb d7a1 633e
00000230: d9e5 d1bd b9e9 83bd e2da 81bd c980 73bd
00000240: 1bcf b7bd 5980 05be ecf5 a3bd 5283 51bc
00000250: ae2f 42bd ddc6 b8bd e243 9fbc 031c 5fbe
00000260: 1740 8dbd 5a65 9fbd 7410 afbd 7dc8 18bd
00000270: 6e73 98bd d504 a5bd 81e7 223f 8280 d3bc
00000280: 6f7b 8ebd 9c83 4dbd bb3f 9bbd d8b4 dbbd
00000290: 38bb 20be faf3 d23c d79c 8bbd 5fd9 4fbd
000002a0: 3f4f e6bd 865f 66be 79d7 ddbd 5eeb fd3d
000002b0: c28f 213f cd09 f2bd 7fa7 09bd dcb3 7a3c
000002c0: 4811 afbd b52c 563e 0d5b 9bbd a0c0 e9bd
000002d0: cd70 46bd 4917 debc a9ca fdbd bbda f8bd
000002e0: 88aa 94bd 4cd2 8cbd efe8 1a40 d910 72bd
000002f0: 70d5 f0bd 206c 90bc 6c62 473e 9371 4ebc
00000300: 3678 51bd f3fb 06be aced 92bd 84a3 66bc
00000310: 0cac adbd 80d6 50bd f778 89bd ce26 adbd
00000320: 04a9 c8bd 146c d1bd f750 30be a3d0 54be
00000330: b8a3 77be fa48 a5bd d1f4 dabc 9ff0 41be
00000340: 3b4c 03bd d8a2 3e3d 2d31 b8bd 8557 2a40
00000350: 3b3f d0bd e3e4 183d 2ea5 af3c 6cf1 91bd
00000360: ec21 0f3f f395 a4bd 20ab 26bd b3b3 cbbc
00000370: 2726 663b 9656 97bd 4389 f73f 5092 44bd
00000380: 2d96 8bbc 0f5f d0bd 726e 84bd 6d8e 203d
00000390: 36dd 04be b114 f4bd b4e2 a6bd 98a1 e0bc
000003a0: 7a55 4dbe a1cb 6cbd 3c5a c0bc c9d8 81bd
000003b0: 6c80 44be 7a22 15bc 4069 ebbd 4d17 903e
000003c0: f194 69be 7d33 98bd 30fc 74bd 02a9 f5bd
000003d0: f703 e8bd dc83 24bc c1e4 63bb 6f80 94bd
000003e0: d0c8 45bd 510f cfbd 19a0 56be 2b77 d3bd
000003f0: bd87 5abe ac48 e9bd 049a 70bd d66a fe3c

linear3.weight f4 [3, 256]
0.008210618 -0.012096445 -0.0066791745 0.05734285 -0.0020802289 -0.5741377 0.045112077 -0.03234655
0.022279661 0.021761483 -1.06584 0.026213681 -0.008499874 -0.005495646 0.00240725 -0.359531
0.03428689 -0.008283719 -0.03944536 0.052788086 -0.039602194 0.04031796 0.14835413 -0.103807606
-0.0027994646 -0.0042439476 0.09809806 -0.015346982 -0.013424024 0.021117914 0.02375113 0.016661273
-0.014890813 -0.6105281 -0.047907975 0.03538066 -0.019608084 0.10847046 -0.03856898 -0.3324431
0.0030936226 0.025919938 -0.049757056 0.015742347 -0.1782352 -0.1358793 0.015340429 0.037122
0.051165417 -0.007670891 0.01753592 0.013062527 0.004218144 0.029930845 -0.029712854 0.0077168834
-0.026499547 -0.02785031 0.024239127 -0.64578176 0.27751473 -0.4886445 0.015751882 -0.11418985
0.02609485 0.026195679 0.010354922 0.020445412 -0.71262133 -0.073368356 0.008176526 0.04467779
-0.0068820417 -0.0070283515 0.008528335 -0.83067685 -0.2924556 -0.00054148794 -0.031390008 0.031345494
0.26899102 0.032108936 -0.015103222 -0.6310136 -0.017827412 0.015148929 -0.024401478 -0.009335468
0.047267564 -0.011620676 0.0018085528 0.057230547 -0.07766892 -0.104892105 0.029436309 0.12410497
0.032076485 0.02449614 -0.00050998013 -0.002299405 -0.016517702 0.0063940478 -0.022991713 -0.0042608376
0.18985893 0.01688957 0.015102609 -0.04060331 -0.060394727 0.016701216 0.024369942 -0.0058828155
0.07293139 -0.030407613 -0.066891074 0.05772037 -0.043738786 -0.037251063 -0.15778275 -0.062219348
0.046107102 0.08424834 0.0018785463 0.0038212794 0.08692817 0.03641635 0.024762398 -0.007881687
-0.002205746 -0.03516736 0.052940544 0.111364074 -0.6614229 -0.0066109593 0.08346883 0.24403107
0.026262846 -0.18987708 0.00271543 -0.7984332 -0.02223217 0.011501546 0.0664626 0.030767292
-0.022291092 -0.3133883 -0.006627588 0.022707753 0.0663515 -0.011995296 -0.007123928 -0.018933197
-0.03092616 0.027653133 -0.11215159 -0.0190624 -0.047011673 0.03545797 0.09022621 -0.008269992
-0.3011735 -0.026579544 -0.027850641 -0.03574278 -0.009843394 0.023019774 0.030773016 0.029961016
0.028043427 -0.06177308 0.0015607199 0.08370561 0.006375409 -0.39156288 0.041416444 -0.45014802
0.009315764 0.060587637 -0.026854277 -0.11014741 -0.0007533729 -0.012766725 0.020285256 0.16792865
0.054842837 0.008025475 0.2785804 0.028323319 0.011343206 0.040676396 0.02630393 0.002536155
0.021688908 0.060102455 0.10106912 -0.0037547185 0.005976684 0.029689949 0.050168112 0.015601542
0.009955683 -0.025107112 -0.23691142 -0.019451872 -0.061837442 0.0029006146 -0.031429917 -0.60653406
-0.13487351 0.06602766 0.036006056 0.29095545 -0.0074715484 0.017307907 0.058872618 0.030985458
-0.024689877 -0.029784048 -0.01973665 -0.025046062 0.0050464636 -0.022244068 0.22934009 0.03495288
-0.010583331 -0.063110195 -0.011005548 0.029770007 0.025434233 -0.02304257 -0.018028056 -0.014903555
-0.020968262 -0.0024258022 0.028848734 -0.023932306 -0.021107187 -0.0064397505 0.03825689 0.04462137
-0.06523577 -0.0069506946 0.06171473 -0.019151364 -0.051966496 -0.027398154 -0.04954785 0.0212235
-9.371744e-05 0.012709534 -0.0860348 -0.079121724 0.0172369 0.010285316 -0.021749299 0.13400804
00000000: d485 063c 2b30 46bc fadc dabb 56e0 6a3d
00000010: 7354 08bb b0fa 12bf 71c7 383d d17d 04bd
00000020: d683 b63c 2345 b23c 726d 88bf 13be d63c
00000030: 0e43 0bbc d214 b4bb f4c2 1d3b 7214 b8be
00000040: 6970 0c3d 70b8 07bc 7591 21bd 5238 583d
00000050: e935 22bd 7224 253d 25ea 173e 1599 d4bd
00000060: 3977 37bb d010 8bbb a3e7 c83d e871 7bbc
00000070: 70f0 5bbc 7aff ac3c bb91 c23c 397d 883c
00000080: 99f8 73bc 924b 1cbf 273b 44bd 50eb 103d
00000090: 22a1 a0bc c325 de3d 82fa 1dbd fb35 aabe
000000a0: 60be 4a3b 0d56 d43c 0ece 4bbd 18f6 803c
000000b0: 4a83 36be f123 0bbe 6c56 7b3c 3d0d 183d
000000c0: d492 513d 195c fbbb 7da7 8f3c 3604 563c
000000d0: 5b38 8a3b 8831 f53c 5f68 f3bc e9dd fc3b
000000e0: 9415 d9bc 5526 e4bc 2291 c63c f451 25bf
000000f0: 6916 8e3e 9d2f fabe 170a 813c 5edc e9bd
00000100: dec4 d53c 5298 d63c b1a7 293c 237d a73c
00000110: 5a6e 36bf 2642 96bd d6f6 053c 0f00 373d
00000120: c082 e1bb 164e e6bb 6eba 0b3c 3da7 54bf
00000130: bebc 95be a4f2 0dba cf92 00bd 2264 003d
00000140: 31b9 893e a984 033d 8173 77bc 1b8a 21bf
00000150: cb0a 92bc 3733 783c 9ce5 c7bc caf3 18bc
00000160: a29b 413d a664 3ebc f60c ed3a 946a 6a3d
00000170: e210 9fbd acd1 d6bd 6a24 f13c bf2a fe3d
00000180: a262 033d 21ac c83c 30b0 05ba 9db1 16bb
00000190: 2250 87bc 2985 d13b 1e59 bcbc 7f9e 8bbb
000001a0: 616a 423e ff5b 8a3c ef70 773c a84f 26bd
000001b0: 7660 77bd fdd0 883c 79a3 c73c a2c4 c0bb
000001c0: 0d5d 953d 6319 f9bc 30fe 88bd 326c 6c3d
000001d0: 7127 33bd 9294 18bd cd91 21be b7d9 7ebd
000001e0: cdda 3c3d 658a ac3d 8e39 f63a 6e6e 7a3b
000001f0: 6507 b23d 5029 153d 83da ca3c 3122 01bc
00000200: 478e 10bb a60b 10bd 2fd8 583d d912 e43d
00000210: 0353 29bf bfa0 d8bb b5f1 aa3d 48e3 793e
00000220: 2e25 d73c 236f 42be 5bf5 313b 1e66 4cbf
00000230: 3d20 b6bc fb70 3c3c 8b1d 883d b00b fc3c
00000240: cf9b b6bc 6e74 a0be 3d2c d9bb 9c05 ba3c
00000250: 4ce3 873d eb87 44bc d76f e9bb cb19 9bbc
00000260: dc58 fdbc d388 e23c bcaf e5bd c028 9cbc
00000270: 508f 40bd 603c 113d 85c8 b83d dc7e 07bc
00000280: 6a33 9abe 58bd d9bc 0727 e4bc 0567 12bd
00000290: 3046 21bc f793 bc3c b117 fc3c ce70 f53c
000002a0: 54bb e53c c505 7dbd 1291 cc3a d96d ab3d
000002b0: cfe8 d03b ee7a c8be 4aa4 293d cd79 e6be
000002c0: 25a1 183c be2a 783d 80fd dbbc f794 e1bd
000002d0: 007e 45ba 872b 51bc 442d a63c 7df5 2b3e
000002e0: e2a2 603d 487d 033c 17a2 8e3e 4e06 e83c
000002f0: dbd8 393c 4b9c 263d 577b d73c 9f35 263b
00000300: f0ac b13c fe2d 763d 54fd ce3d b911 76bb
00000310: 0fd8 c33b 5638 f33c 147d 4d3d 9c9d 7f3c
00000320: 291d 233c 6ead cdbc e898 72be 8859 9fbc
00000330: 4249 7dbd 3d18 3e3b a8bc 00bd d145 1bbf
00000340: 481c 0abe 8339 873d 167b 133d 1df8 943e
00000350: e4d3 f4bb 50c9 8d3c 6a24 713d 37d5 fd3c
00000360: 6d42 cabc adfd f3bc c1ae a1bc 662d cdbc
00000370: ce5c a53b 3139 b6bc 21d8 6a3e c02a 0f3d
00000380: b565 2dbc eb3f 81bd 9d50 34bc 3be0 f33c
00000390: 745b d03c c6c3 bcbc 93af 93bc 0a2e 74bc
000003a0: a2c5 abbc 35fa 1ebb 2e54 ec3c af0d c4bc
000003b0: fbe8 acbc 8b04 d3bb 42b3 1c3d e6c4 363d
000003c0: 559a 85bd a7c2 e3bb 96c8 7c3d 52e3 9cbc
000003d0: d2da 54bd 1872 e0bc b0f2 4abd e8dc ad3c
000003e0: 2b8a c4b8 a63b 503c 0333 b0bd 920a a2bd
000003f0: 6634 8d3c be83 283c 962b b2bc 6739 093e

linear3.bias f4 [3]
0.44741136 0.5059219 0.49842942
00000000: 1a13 e53e 1984 013f 2432 ff3e
