checkpoint_game_2500.pth (torch, 281418 bytes, 6 tensors)

linear1.weight f4 [256, 11]
00000000: 290c 54be 977a 373e 644a ffbd 35ad 163e
00000010: 122b b33d 3bbb ed3d 4472 45be 0960 28be
00000020: 113d dfbd 9c19 16be 9d8f 87be e12e 463e
00000030: 27a2 053e 10f0 1dbe dd6e f6bd b94d bcbc
00000040: 816e 7dbd 14cd 43be b93c 3dbd e907 82be
00000050: 3a1e 78bc 07ad 30be 29cc a63d 85c9 303e
00000060: f1a3 7a3e c2ab 35bf 6e7f 0e3d 01f7 eebe
00000070: cf73 353f 6d48 bbbe eda1 5fbf c472 17bf
00000080: dfca 473e ce77 87bd a2e9 963d 26cc 223e
00000090: ac69 463c f9de 26bd 23a7 05bf aa73 b5be
000000a0: 3ae8 3abe 8271 0f3d 083f d5be 3129 a1be
000000b0: 4540 483c a5dc 29be 890b 8fbe 35b3 35bd
000000c0: 3e48 da3d 43f8 a1be a383 583f 3ec2 86bf
000000d0: 8d3f 83bf 8eb8 003f 6117 aebe aaad 9dbd
000000e0: 8d2c 413e 0b7c 9abe a9ef e2be 95fc 18bd
000000f0: 7235 07bf ea7e 99bb 19e9 92be 3a31 84be
00000100: 2882 adbd 8e68 f1be 0348 423f f1b6 38bf
00000110: 7ef8 83be 2311 a63e c090 fbbc 469d 77be
00000120: 954f 62bf d13f 9abe d264 673e 211d 083f
00000130: 1f4a 3b3f 943c 09bf dd03 123c 8b9a a73e
00000140: 2968 fdbe 7024 f9be 4e02 ebbd 08b0 e63d
00000150: d473 e4be db45 68be 58b5 debd aacb fe3d
00000160: 9f4d ff3e c7cd 2a3e 912b 413d da1d 8e3e
00000170: b7a4 803e d722 7dbf f95a 0dbf ac32 74bf
00000180: d216 87bf a18f d03d 59d6 663e 5e5e 77be
00000190: 9cd0 803e 4f16 d93e 61be 92be 5d00 87be
000001a0: 7ecc e3be fd38 86be 50af 40be a163 19be
000001b0: 4dd2 87be af65 8cbe c4d5 5cbe cb54 283e
000001c0: e726 7b3e 7a83 c6be dbd5 4cbe 160c 593d
000001d0: 5172 febd 92b8 b1bd fd41 c3be 5a42 203e
000001e0: f9ed cbbe 1844 13bf 9e6c 033f 20e8 a43e
000001f0: 19c8 4d3e 2643 c9be 400f 2fbf ffa8 63bf
00000200: ff5c 853e a37e b9bd bb96 84be 5c59 60be
00000210: 0e40 29be d60e 713e b029 073d beb9 53be
00000220: ce7e d9be 0e3f 37be a89d 0ebe 68e4 aabd
00000230: 6bb1 d3bc e8be 6dbe c42f 58be 5f7d dd3d
00000240: cc04 7d3e 4dee 73bd b81e 4d3d a307 493c
00000250: 92c1 50be 6f40 ee3c efa9 f137 9c1c 03be
00000260: 17b4 9b3d 4944 53be 521e e03c 05db 8fbe
00000270: 9eb9 ffbe ad08 ea3e 79d2 34bf ee56 023f
00000280: e3f9 00bf cc7c 2abf 11eb 65bf 3776 52bf
00000290: 3bda fb3e 8135 e4be 1056 703e fa42 753e
000002a0: 2b42 f7be 6565 033e cf00 573e 4b1c 26bd
000002b0: fcbe 20bf 2325 1abf 38f5 49bf 3e37 d6be
000002c0: 783c 8b3d 433e 123e e2db 913d 1e3f 50bc
000002d0: 700e eabc 418d 6b3c f50c a6be ea64 f8be
000002e0: 0585 6cbe 9fbe e4bd d395 00bf 08d1 c13d
000002f0: b890 fabe d3ff f9bc 8c98 91bc 4ee3 dbbd
00000300: 1f1d eebd 365d d0bc c64a 0b3d 99ab dabe
00000310: bdc4 0fbb 19d6 a4bb 06e6 133e 7673 98bc
00000320: 4537 ca3d b564 a3be 32b2 163f 7f58 28bf
00000330: 935b 18bf 9a90 143f 358f febe da5e aebf
00000340: 9cbc 8bbf 2535 83be 94c1 33be c685 6dbe
00000350: e55d 37be ee24 dcbd 8b08 163e 8100 25be
00000360: 6881 a9be 7dd6 6abe f747 09be 4711 013e
00000370: 6005 eebd ee44 213d 7246 8e3d 66a0 6f3c
00000380: ea87 04bf ee84 9abe c570 efbd 9a45 02bf
00000390: 0618 d6be 9185 c2bd 6e93 29bd bd50 5dbe
000003a0: e85f 5a3f 4f0f 93be 7deb d03e 1afe 85be
000003b0: 5f0d d5be 8b0b 8c3e 9666 22be b584 7a3e
000003c0: 4912 edbe a57e ef3c d2d7 cb3d deda 56be
000003d0: 633c ba3d b5b4 27bf 6947 8bbe 160e b2be
000003e0: 8030 673b 286b c63b 4a85 54be 8c57 bdbe
000003f0: 5bdd cebe 69bf 583e 7b74 c83e b914 b43e
-0.20707764 0.17917858 -0.12465361 0.1471451 0.087484494 0.11607977 -0.1928187 -0.16442885
-0.10900319 -0.14658207 -0.26476756 0.1935382 0.13050137 -0.15423608 -0.12032864 -0.02298628
-0.061872963 -0.191212 -0.046200488 -0.2539666 -0.015143925 -0.17253505 0.08144409 0.17264374
0.24476601 -0.70965207 0.034789495 -0.46672824 0.70879835 -0.36578694 -0.87356454 -0.59159493
0.19510983 -0.06614648 0.07368781 0.15898189 0.012110155 -0.040739987 -0.52208155 -0.35439807
-0.1825265 0.03502036 -0.41649652 -0.3147674 0.012222354 -0.16588075 -0.27938488 -0.04436036
0.1065831 -0.3163472 0.8457586 -1.0528028 -1.0253769 0.5028161 -0.34002212 -0.076991394
0.18864651 -0.30172762 -0.4432347 -0.037350256 -0.52815926 -0.004684319 -0.28693464 -0.25818807
-0.08472091 -0.4715008 0.7589113 -0.72154146 -0.25775522 0.3243495 -0.03070867 -0.24181089
-0.8840268 -0.30126813 0.22597054 0.5316945 0.73159975 -0.5360806 0.008912054 0.32735094
-0.4949353 -0.48660612 -0.11475049 0.11264044 -0.4461962 -0.22682898 -0.10874432 0.124411896
0.49863908 0.1668006 0.04716069 0.2775715 0.25125667 -0.98881286 -0.5521694 -0.9538982
-1.0553839 0.10183645 0.22542705 -0.24157092 0.25159156 0.42399833 -0.28660873 -0.26367465
-0.44491953 -0.26215354 -0.18816876 -0.14979412 -0.26527634 -0.27421328 -0.2156592 0.16438596
0.24526559 -0.38772184 -0.20003454 0.05299004 -0.12424148 -0.08677782 -0.38136283 0.15650311
-0.39829996 -0.5752578 0.5133761 0.32208347 0.20095862 -0.39309043 -0.68382645 -0.8892974
0.26047513 -0.09057357 -0.25896248 -0.21909088 -0.16528341 0.23540816 0.03299874 -0.20676324
-0.42479557 -0.17895147 -0.13927329 -0.08344346 -0.025841435 -0.23217356 -0.21111971 0.10814928
0.24708861 -0.059553433 0.050078124 0.012269887 -0.20386341 0.029083459 2.880857e-05 -0.12803882
0.07602709 -0.20631517 0.027358208 -0.28096786 -0.49946302 0.45709744 -0.70633656 0.50913894
-0.50381297 -0.66596675 -0.8981181 -0.8221163 0.49189934 -0.4457207 0.2347033 0.23951331
-0.4829267 0.12831648 0.20996402 -0.040554326 -0.6279142 -0.60212916 -0.788898 -0.4183902
0.06798643 0.14281563 0.071220174 -0.012710361 -0.028571337 0.014376939 -0.3243176 -0.4851449
-0.23097618 -0.111691706 -0.50228614 0.09463698 -0.48938537 -0.030517494 -0.017772935 -0.10736714
-0.11626648 -0.025435071 0.034006856 -0.42709044 -0.0021937334 -0.0050304052 0.14443216 -0.018609744
0.09873823 -0.3191277 0.58865654 -0.65760034 -0.5951473 0.58033144 -0.49718633 -1.3622696
-1.0916934 -0.25626484 -0.17554313 -0.23195562 -0.17906912 -0.10749231 0.14651696 -0.16113473
-0.33106542 -0.22933383 -0.13406359 0.12604247 -0.11622119 0.039372377 0.0694703 0.014625644
-0.5176989 -0.30179542 -0.11691431 -0.50887454 -0.41815203 -0.09498132 -0.041400366 -0.2161283
0.8530259 -0.28722617 0.40804663 -0.26170427 -0.41611764 0.27352557 -0.15859446 0.24464686
-0.46303013 0.029235194 0.09953274 -0.20981929 0.09093549 -0.6551011 -0.2720292 -0.34776372
0.003527671 0.0060552545 -0.2075397 -0.36980855 -0.40403256 0.21166767 0.39151368 0.3517206

linear1.bias f4 [256]
00000000: 0722 9dbe 556a b0be 860c 973b ecf2 98be
00000010: b048 e4be c6f4 01be 5535 e7bd 4d35 21bf
00000020: c30d 963d 76a3 96be eb7d 28bf f3d8 eebe
00000030: e9e4 13be 91aa f7be 2db0 8c3d 6df5 94be
00000040: 2245 8abe 9e6e 7ebe 3515 14bf 42b4 98be
00000050: 761a e4bd 0517 a3bd 1e57 aebe 2c7a b5be
00000060: 8c68 a3be 430e 8ebe 34dc aebd 156c c8be
00000070: b903 f4be dfdb be3e f134 a3be 43d7 21be
00000080: 4980 11bf 0727 e4bd bc6e 3fbe 03e3 b9be
00000090: 1c92 41be cc8b 88be d4b2 9dbe 7d69 b4bc
000000a0: 1fc6 6cbe b238 cbbe b8b5 10be 744b 38be
000000b0: d3c7 6bbe 3aca 33bd e740 85be ae7e babe
000000c0: 8d48 a13e b6c7 8dbe 3746 75bd 7003 b6be
000000d0: d44f aabe 8557 10be 3579 283d a48f ed3e
000000e0: e98e 9cbc 1e4a b5be e596 933e beed 7dbe
000000f0: 42d5 9cbd e8ec e1be 7112 36be 3bd3 9cbe
00000100: fc2f a5be c023 02bf 5b94 94be e3e0 17be
00000110: b95c 6cbe ab7c 26bf 9b52 83be 673c 9d3c
00000120: 6415 bf3f c4ee 1abf 91bf f2be 2964 55bd
00000130: 09e6 b4be 21d1 51be d9ad 68be 49c5 cdbe
00000140: 4baf a8bd 54a7 5fbe 39b3 bfbd 499b f0be
00000150: aa9a 11be 25ff 38bf 3280 bcbd 305c 3dbf
00000160: 1fdb 893d cade 08bf f0fb a5be 9f35 52bb
00000170: 2388 4e3e 3929 7abd 80ed d4be 2430 dbbe
00000180: 502b bebe d499 59bd 446d d1be e109 e1be
00000190: 1621 82be 2928 a1ba df62 023d 6d32 14bf
000001a0: 1b69 a9be a5aa 1cbd ac24 efbd cc23 e6be
000001b0: aac7 bfbe bb07 01bf 8f71 7fbe 7891 dcbe
000001c0: 2141 8ebe cfc4 c3be e2d0 c33e 9309 303e
000001d0: 2ca4 733c a9dc 823e 21a2 fbbd 31e1 aabe
000001e0: d801 7a3e e6e7 babc f206 edbe 09d9 aebe
000001f0: fb8e 70be 0e69 0abf cd14 c8be e1ca 063c
00000200: bd24 c33e 4a80 97be 80e0 6dbe 1aec 67bc
00000210: b947 f4bd 6d65 09be df4f a2bd f28f 81be
00000220: 9085 50be 1f24 c83e 246b 89ba 3957 b23e
00000230: a087 c4be f37e 1ebe 9cab 6bbe 0b30 d6be
00000240: 6616 89be 0be1 87be df63 1540 c690 d3bd
00000250: f813 cfbe 58b6 053e 1c7a c5be a25c 883e
00000260: 729e d4be 4d80 8cbe c7a9 033e 4f98 81be
00000270: cab2 6fbe defe 1ebf 854f a43d de7b aa3d
00000280: bb68 1fbe a0d9 983d 7c0d ebbe b46d 9cbe
00000290: 2f2b e73d 2b9e 633f ab3a 40bf dfd5 97be
000002a0: 0a0e a9be 470b 70be a8eb adbd 086f bebb
000002b0: fc99 5d3f dde1 afbd c137 7bbe e116 793d
000002c0: bf20 ae3e ec3b f5be 1c28 8fbe ddc0 bebe
000002d0: 52e6 923d f450 933d bc3e 46be 7b8b 65be
000002e0: 3405 c3be d255 42bd f086 953d 358a abbe
000002f0: 8c9d 11bd e591 c1be 8c2b 9cbd 4047 133d
00000300: 8876 7bbe 4d91 babe 1e72 afbe fe04 cfbd
00000310: 4582 16be 83ae 16bf 75bd 63be 0e63 e0be
00000320: 7048 91bd 55c3 09bf 658e 3abe 4b1b a0be
00000330: cac3 bfbe 55c8 9abe 6886 40be aabe 48bd
00000340: 3098 05bf 75b2 82bd 0085 0540 9b02 bd3e
00000350: 7638 90be d1f7 7fbe 2fd5 86be cdc8 98be
00000360: c25a 50bd 0bf2 c7be 9341 02bf 516b 31bd
00000370: 40a2 0cbe 5cd7 403e aeb0 8ebe 4527 033f
00000380: 9118 c9be 0b73 1e3e b7b1 8cbe 4c05 95be
00000390: 576a 9fbe 6dc6 f9be 91fc 72be 61b4 16bf
000003a0: 5a64 59bc 7b78 a3be fda7 e6bd 611b bbbe
000003b0: e304 5abe 54a9 8abe 6e40 c5bd 44bd 113e
000003c0: 07e1 22be e980 21bf b2f7 aebd 716f a9be
000003d0: 10f7 26be 561f b23c 7e9d a5be d77d 44be
000003e0: 6e56 b9be 3680 8fbd 45df 3740 7160 cb3c
000003f0: ca7b 75be 57d7 b4be db0c d0bd b2a1 a1be
-0.30690023 -0.34456125 0.004609647 -0.29872835 -0.44586706 -0.1269103 -0.11289469 -0.62971956
0.073268436 -0.29421586 -0.65817136 -0.46649894 -0.14442791 -0.4837232 0.0686954 -0.29093495
-0.2700587 -0.24846885 -0.5784486 -0.29825026 -0.111378595 -0.07963375 -0.3405084 -0.35444772
-0.319157 -0.27745256 -0.08538094 -0.3914496 -0.4765909 0.37277123 -0.3187633 -0.15804772
-0.5683637 -0.111402564 -0.18694586 -0.3630601 -0.18903393 -0.26669157 -0.30800498 -0.022022957
-0.23122452 -0.39691693 -0.1413182 -0.17997533 -0.23025446 -0.04389403 -0.2602608 -0.36424774
0.31500664 -0.2769143 -0.059881415 -0.35549498 -0.3326403 -0.14095886 0.041131217 0.46398652
-0.019111114 -0.3540811 0.2882606 -0.24797723 -0.07657863 -0.44126058 -0.17780472 -0.30629906
-0.32263172 -0.508358 -0.29019436 -0.14831881 -0.23082246 -0.6503398 -0.2564896 0.019193841
1.4928403 -0.6052058 -0.4741178 -0.052097473 -0.35331753 -0.20489933 -0.22722568 -0.4018958
-0.082365595 -0.21841174 -0.09360356 -0.46993473 -0.14219156 -0.7226432 -0.09204139 -0.7396879
0.06731247 -0.5346495 -0.32418776 -0.0032075418 0.2016912 -0.06107447 -0.41587448 -0.42810166
-0.3714242 -0.053125218 -0.40903676 -0.4395285 -0.25415868 -0.0012295294 0.031832572 -0.57889444
-0.33088002 -0.038248677 -0.116769165 -0.44949186 -0.3745702 -0.5040242 -0.24945663 -0.43079734
-0.27784064 -0.3823609 0.38245302 0.17191152 0.014870685 0.25558975 -0.12286783 -0.33374932
0.24414766 -0.022815656 -0.4629436 -0.3414996 -0.23492043 -0.5406655 -0.3907837 0.008227081
0.38113967 -0.29590064 -0.23230171 -0.014155412 -0.119277425 -0.13417597 -0.079253905 -0.25305134
-0.2036345 0.39090058 -0.0010484201 0.3483217 -0.38384724 -0.15478115 -0.23014683 -0.4183353
-0.267749 -0.26538882 2.3342206 -0.10330348 -0.40444922 0.1305784 -0.38569725 0.26633173
-0.41527134 -0.27441636 0.12857734 -0.25311515 -0.23408046 -0.62107646 0.0802298 0.08324407
-0.15567295 0.07463384 -0.45908725 -0.30552447 0.112875335 0.8891322 -0.7508952 -0.29655358
-0.33018523 -0.23441802 -0.084922135 -0.005811576 0.86563087 -0.08588002 -0.24532987 0.060812835
0.34009358 -0.4789728 -0.2796029 -0.37256518 0.07172836 0.07193175 -0.19359869 -0.22416489
-0.38089907 -0.047445126 0.07301128 -0.3350388 -0.03555064 -0.3780662 -0.076254934 0.03595662
-0.24556935 -0.3643898 -0.34266752 -0.10108374 -0.14698131 -0.58860034 -0.22240241 -0.43825573
-0.070938945 -0.5381368 -0.18218382 -0.31270823 -0.37454063 -0.30230966 -0.18801272 -0.049009956
-0.52185345 -0.06381694 2.0862427 0.3691605 -0.28168076 -0.24996878 -0.2633452 -0.298407
-0.050867803 -0.39051852 -0.5088131 -0.043315236 -0.13733768 0.18832153 -0.2786917 0.51231796
-0.39276555 0.15473573 -0.27479336 -0.29105604 -0.31135818 -0.487842 -0.23729159 -0.58868986
-0.013268555 -0.31927857 -0.1126251 -0.36544326 -0.21290927 -0.27082312 -0.096314296 0.14232355
-0.15906154 -0.63087326 -0.08543338 -0.33092836 -0.16305184 0.021743458 -0.3234672 -0.19188629
-0.36198753 -0.07006876 2.8730023 0.02482626 -0.23973003 -0.3532054 -0.10158702 -0.31568676

linear2.weight f4 [256, 256]
00000000: 001a c039 40e7 79bb 6aef b33d 4774 5c3b
00000010: cf6c b8bb 2989 31bc 07f7 973c 4a1e 0bbd
00000020: 5f21 49bd 2b86 07bd e781 73bd 48e8 3a3c
00000030: d7ce a93c 562e 1fbc 4306 95b9 8f4d 46bd
00000040: d865 7bbd abde cebb 14b9 1f3d e422 8f3c
00000050: 0490 85bd 78e1 81bb 52f6 5dbc cc59 debb
00000060: 182f 08bd a15c 45bd bd6f 88bd 9fc5 a8bc
00000070: 7c5b 3ebd 127e 45bd c8bd 97bb ef20 94ba
00000080: b878 f0bd e5e5 a0bd 6989 6bbd 1665 b6bd
00000090: 82b1 9cbd b6ea 53bd e899 5f3d 5c02 ecbc
000000a0: 8311 a63c 9f09 b13c f2bf 873c 3009 f03b
000000b0: a68c abbb eca2 ebbc d33b 6dbd ce0f 923d
000000c0: caca b6bc e030 31bc 9216 41bd 7de7 873c
000000d0: f2dd 68bd b1bf 3cbc 3491 81bd 486e 6ebd
000000e0: 5159 03bd 2ec6 033c 8f72 d8bd a523 2c3d
000000f0: ebdc 0d3d 0031 2ebd 9088 3bbc 4b4b 94bd
00000100: 27ef 83bd 3db6 673c a0e2 873c 74ba 983d
00000110: df08 7bbd 6dea e83c 4b3f 2bba 860d b9bd
00000120: 4ce4 86bd fd42 94bc 970b 55bd 8725 39bd
00000130: 8e4d a2ba 45c3 6a3d d046 523d f4bf 863c
00000140: 504c d8bd 3774 1bbd a9b1 d43b 31bf 23bd
00000150: 3ef5 d3bd 7c04 cfbc e736 56bd 4045 9abd
00000160: 71f3 12bc 1501 44bd e98b 86bc 625c 65bd
00000170: df04 ad3a b8a0 1e3c 4447 013d 79f2 1fbd
00000180: 1494 473d 5bb9 febb 5b22 b03c 084f b5bd
00000190: b954 a3bb 8aba cebd 6843 87bd a6d8 7fbd
000001a0: f948 0cbd fcdf 53bd b8e6 1e3d fcae 5bbd
000001b0: cc3f 82bd fe62 9fbd 0e52 7ebc d485 7fbd
000001c0: 5b2a 40bc 2097 29bd eb02 8cbd c02b 42bc
000001d0: 6b03 873b 42ac d6bd 7c01 293d 0c52 0dbd
000001e0: 520d c0bd 81f2 14bd 8586 68bd a1d6 1abd
000001f0: 9b64 23bc 1418 88bd 36e4 53bd 0a5b 7abd
00000200: 1b96 f3bd d60c b8bd c6bf bb3c fa18 19bd
00000210: c267 933d e88c 513d 5b00 97bd f566 5fbc
00000220: e130 70bc cd69 863d d09b 143c efa5 3fbd
00000230: 6d27 ddbc 5d12 2ebd 8b42 abbc c06e 3fbc
00000240: 61f9 6e3c 8420 bbbd ca4f 89bc e81d 47bd
00000250: 20c9 81bc 98bf 2cbd a9c7 b33c 9357 d3bc
00000260: a231 17bc f52f a13d f921 3bbd 50a1 46bd
00000270: 5003 e7bc cc58 1dbd 4743 a23c e466 3abd
00000280: b808 b1bd d282 5cbd 916a 52bd 1c2c 80bc
00000290: b669 133d 664b aabd 58ed 5cbd 7ab1 f6bb
000002a0: 603a 3fbc d191 9fbd f2ed ceba fa64 82bd
000002b0: bceb 163c 39c0 3f3d 4a19 3b3d 4e91 be3b
000002c0: fedb 4a3c 225e 073d 2124 f9bc 8ac6 8d3c
000002d0: 1a5a 54bd b35a 9dbc 96a4 f9bd 4846 703d
000002e0: 2b22 36bc 1a83 12bd e9ce 8f3c 4c10 eebc
000002f0: 042a ca39 c00a eb3a a4ce 7cbd f586 61bd
00000300: 6edb 19bd 15ca 6abd c100 5ebd d43c f53c
00000310: 0508 a5bd a9a1 393d cd00 dfbd b263 2c3d
00000320: dda6 9c3c b109 e7bd 6c83 7e3d 64b9 743d
00000330: 8446 933a 5296 17bd 2e93 1ebc ac5a 3fbd
00000340: c959 44bd ede2 17bd 2048 bebd b181 2abd
00000350: e27c 2abd 1e51 803c 17b6 9dbd e088 1f3c
00000360: e0ac 053d 9bc2 4f3d 9579 cdbc 06b4 6f3a
00000370: f29d bfbd 4a9f 133c 6804 093d fba2 2dbd
00000380: b1f7 9fbc 5a75 4bbd f649 39bd 08a6 10bd
00000390: c5cd 1bbd 4501 bbbb b921 08bd 2286 a6bd
000003a0: e183 12bd 7321 cb3c 253d 3bbd 4bb3 07bd
000003b0: 757e 283d 6cd9 0fbd b8d7 2ebd b424 8bbd
000003c0: cc9f ecb9 2adb 97bd 7dd3 3fbc 73c1 8ebd
000003d0: 00f3 b63a 787a 52bc 25b9 42bd 9164 8a3d
000003e0: dc03 993c 0b96 8abd b836 97bd b91e 8b3c
000003f0: d0ac f4bc 6a0d 90bd 7d12 1a3d 2e5b 3cbc
0.00036640465 -0.003813222 0.08785899 0.0033638643 -0.0056282054 -0.010835924 0.018550409 -0.033964433
-0.04910409 -0.033086937 -0.059450056 0.011407919 0.020728512 -0.009715637 -0.0002842416 -0.04841381
-0.061376423 -0.006313165 0.038994864 0.017472692 -0.065216094 -0.0039636455 -0.013547497 -0.006785607
-0.033248037 -0.04818404 -0.066619374 -0.020602046 -0.046473965 -0.048215933 -0.004630778 -0.0011301319
-0.11741775 -0.07856349 -0.05750409 -0.08905999 -0.076510444 -0.05173751 0.054590136 -0.028809719
0.020272022 0.021611033 0.016571019 0.007325314 -0.0052352725 -0.02876421 -0.05791838 0.07131921
-0.022313494 -0.010814875 -0.047140665 0.016589874 -0.05685229 -0.011520312 -0.063265234 -0.05821064
-0.0320676 0.008042855 -0.10568725 0.04202618 0.034634512 -0.0425272 -0.011446133 -0.072409235
-0.06442099 0.01414257 0.016587555 0.07457438 -0.061287757 0.028432095 -0.0006532564 -0.090357825
-0.06586513 -0.018098349 -0.052013006 -0.045201804 -0.0012382732 0.05731513 0.051337063 0.016448952
-0.105614305 -0.037952628 0.0064909053 -0.039977256 -0.103495106 -0.025270693 -0.052298453 -0.0753274
-0.008969174 -0.047852594 -0.016424136 -0.055996306 0.0013200304 0.009681873 0.031562105 -0.0390496
0.048725203 -0.007773561 0.021500757 -0.08852965 -0.004984465 -0.10094173 -0.066046536 -0.06246247
-0.03424928 -0.05172728 0.03879425 -0.053633675 -0.063598245 -0.07782553 -0.015522493 -0.062383488
-0.011728848 -0.04140389 -0.06836494 -0.011851251 0.0041202805 -0.10482074 0.04126118 -0.034502074
-0.09377541 -0.036364082 -0.056768913 -0.037802342 -0.009972717 -0.066452175 -0.05173131 -0.061121978
-0.11893865 -0.08986823 0.022918593 -0.037377335 0.071975246 0.05115977 -0.07373115 -0.013635387
-0.014660091 0.06563149 0.009070352 -0.046789106 -0.026996339 -0.04249798 -0.020905754 -0.01168412
0.014585824 -0.09137061 -0.01676168 -0.048612505 -0.015842974 -0.042174906 0.021945791 -0.025798595
-0.009228142 0.07870475 -0.045686696 -0.048493683 -0.028199822 -0.03841476 0.019807471 -0.04550828
-0.08644241 -0.053835697 -0.05137116 -0.015646033 0.035989486 -0.08315162 -0.053937286 -0.007528481
-0.0116716325 -0.07791484 -0.0015787466 -0.06366916 0.009211477 0.046814177 0.045678414 0.0058156615
0.012381552 0.033048756 -0.030412735 0.017306585 -0.05184374 -0.019208288 -0.121895954 0.058660775
-0.011116545 -0.03576956 0.017554717 -0.029060505 0.00038559746 0.0017932281 -0.061720505 -0.055060346
-0.03756278 -0.057321627 -0.054199938 0.029936232 -0.0805817 0.045320187 -0.108888246 0.042087264
0.019122535 -0.11281145 0.062137052 0.059747115 0.0011236225 -0.03700859 -0.009678645 -0.04671733
-0.04793719 -0.037081648 -0.092911005 -0.04162759 -0.041623004 0.01566368 -0.077007465 0.009737223
0.03263557 0.0507227 -0.025082389 0.0009143952 -0.093562976 0.009010145 0.033451468 -0.04239176
-0.019527288 -0.049672462 -0.04523655 -0.03531459 -0.038038034 -0.0057069384 -0.033235285 -0.081310526
-0.0357703 0.024796223 -0.04571261 -0.03312997 0.041136224 -0.03511946 -0.042686194 -0.0679411
-0.00045132486 -0.07414849 -0.011708138 -0.06970491 0.0013957918 -0.012846582 -0.04753985 0.06757463
0.018678598 -0.067669 -0.07383484 0.016982423 -0.02986756 -0.070338085 0.037615288 -0.011496348

linear2.bias f4 [256]
00000000: a345 1eb9 07a0 a9bc f9ad a0bd 562f 7bbd
00000010: 8e53 43bd 355a c1bd 6ed3 9fbc 63a2 4bbd
00000020: 25ae 66be e255 8bbd cd90 ca3d 54c0 83bd
00000030: c231 9ebd 9cde d2bc 7eda 4fbd 834d 0abe
00000040: 7306 0cbe bc2c 8ebd 04b6 edbc 35bb 793b
00000050: 8731 48be 3078 babd d331 993e f4fd 11be
00000060: d7a6 fbbd 1018 02bd 6f9b 5ebd a600 2fbd
00000070: 3a33 6bbd 701a cabd 25be cbbd 64a1 d73d
00000080: 30ed 36be a949 2abe d427 2cbd b55f bcbb
00000090: 4608 1fbe 9c0e 293d 4234 d93b 7ec4 cdbd
000000a0: 6926 94bd f10d 05bd 9c79 b2bd f382 9cbd
000000b0: 3f0b 22be 2a72 88be 15bc d6bd fc51 453e
000000c0: e3ce 313d 973c 0fbe 9f63 483c 484a bcbd
000000d0: c822 2abd 3706 cebd 12b8 c1bd d84b 2dbd
000000e0: f0af 72bd dd2e 38bd b419 33bd 1117 83be
000000f0: 0a7e 8b40 bb4b a6bc 0976 87bd 23ad afbd
00000100: 4879 01be d6cc bb3c 1788 d0bd 4fc6 c6bb
00000110: d630 50be c476 42be dce9 c2bd 4102 4ebd
00000120: 72c6 1bbe 71f7 efbc 325a febd 25af 6ebe
00000130: 0e54 e4bd aced cfbd 7f63 1abd d924 d6bd
00000140: 449c 6440 b903 d23e 78cd 9c3c a892 a0be
00000150: c718 a2bd 60d4 0dbd 535d 4dbd fb23 33bd
00000160: 9b47 95bd 169e 95bd 272a 42bd f307 3cbd
00000170: 7d1b 49be db9a e1bd 83dd 0ebe 45b7 aebd
00000180: 7f0c 13bd 910b f3bd 007e a5bd 9711 dabc
00000190: 8c9f 1dbd ab32 b2bc 1bbc 94bd 30d2 81bd
000001a0: 920f bf3f 4f8d 3abd 991e 55bd c703 89bd
000001b0: 53c0 7e3c 92f1 26be ecd9 64bd bfaf 7cbd
000001c0: 235f 33bd f525 e5bc 5fd9 0fbe 2d29 cabd
000001d0: 6f85 39bd 5ee3 cebd 458d 76bd 570a 55be
000001e0: bc09 22bd 2fed 14bc 86b9 b5bd 4f35 3bbe
000001f0: 273d debc f3dd c4bd 7036 973e ce65 263c
00000200: df14 c4bd fd92 1e3c d60d 77bd c551 9fbe
00000210: cbc4 ffbe 107d 27bd 5fe9 dcbe 1124 1c40
00000220: 10a9 c4bd 8359 e3bd 0c2f 94bb 1bee 633d
00000230: d9e5 d1bd b9e9 83bd e2da 81bd c980 73bd
00000240: 1bcf b7bd d8a5 33be ecf5 a3bd 5283 51bc
00000250: ae2f 42bd ddc6 b8bd eb8f 44bd 6d7b 94be
00000260: 1d32 cebd 5a65 9fbd 7410 afbd 7dc8 18bd
00000270: 6e73 98bd d504 a5bd c5c5 1a3f 8280 d3bc
00000280: a559 a8be 9c83 4dbd bb3f 9bbd d8b4 dbbd
00000290: 1ad4 31be faf3 d23c d79c 8bbd 5fd9 4fbd
000002a0: 3f4f e6bd 4497 82be 79d7 ddbd 6612 f8bc
000002b0: 4beb 0e3f 9cbe b6be 3f9c 28be ae52 d1bd
000002c0: 4811 afbd a380 9a3e 0d5b 9bbd 6003 0fbe
000002d0: 8b54 9ebd 348a 39bd a9ca fdbd 67f0 a8be
000002e0: 88aa 94bd 4cd2 8cbd b2b7 8a40 d016 babd
000002f0: 70d5 f0bd 206c 90bc 6c62 473e 9371 4ebc
00000300: 3678 51bd 0754 21be 3f8d 97be 84a3 66bc
00000310: 0cac adbd 80d6 50bd f778 89bd cc6a eebd
00000320: 04a9 c8bd 146c d1bd 1f78 b6be a3d0 54be
00000330: b8a3 77be fa48 a5bd d1f4 dabc 2c45 81be
00000340: 0a88 49be 6b28 a6bd 2d31 b8bd 4fbb 9e40
00000350: 3b3f d0bd d92f ba3b 2ea5 af3c 6cf1 91bd
00000360: 45c7 f13e f395 a4bd fe55 9cbd b3b3 cbbc
00000370: 2726 663b 9656 97bd aaee 0040 5092 44bd
00000380: 2d96 8bbc 0f5f d0bd 726e 84bd 6d8e 203d
00000390: 36dd 04be b114 f4bd b4e2 a6bd 98a1 e0bc
000003a0: 7a55 4dbe a1cb 6cbd 3c5a c0bc 10dc b2bd
000003b0: 6c80 44be b1dc 85bd de69 68be 61ad d03d
000003c0: f194 69be 7d33 98bd 30fc 74bd 02a9 f5bd
000003d0: f703 e8bd dc83 24bc c1e4 63bb 6f80 94bd
000003e0: d0c8 45bd 510f cfbd 69da 80be 2b77 d3bd
000003f0: bd87 5abe ac48 e9bd 049a 70bd 20d2 a6bd
-0.00015093996 -0.02070619 -0.07845683 -0.06132444 -0.047687106 -0.09441034 -0.019509997 -0.04971541
-0.22527368 -0.0680349 0.098909 -0.06433168 -0.07724334 -0.025740914 -0.05074548 -0.13506131
-0.13674335 -0.06942126 -0.029017456 0.003810597 -0.19550143 -0.09104955 0.29920825 -0.14257032
-0.122876815 -0.03176123 -0.05434745 -0.042725228 -0.0574219 -0.09868324 -0.099483766 0.1052883
-0.17863917 -0.16629662 -0.04203017 -0.005748714 -0.155305 0.0412737 0.006628544 -0.100472435
-0.07233889 -0.032484 -0.087146014 -0.07642164 -0.15824603 -0.266496 -0.104850926 0.19269556
0.043410193 -0.13987957 0.012230783 -0.091938555 -0.041537076 -0.10059779 -0.09458937 -0.04230866
-0.05924982 -0.044966567 -0.043725684 -0.25603536 4.3591356 -0.020299783 -0.0661431 -0.08577945
-0.12643921 0.022924822 -0.10182207 -0.0060661207 -0.2033113 -0.18990618 -0.095172614 -0.05029512
-0.1521242 -0.029292794 -0.12419547 -0.23309 -0.11148845 -0.10152754 -0.037692543 -0.10456247
3.5720377 0.41018465 0.019140944 -0.3136189 -0.07914882 -0.034626365 -0.05013783 -0.043735486
-0.07289048 -0.07305543 -0.04740348 -0.04590602 -0.19639392 -0.110158645 -0.13951688 -0.0853105
-0.03590059 -0.118674405 -0.08080673 -0.026619716 -0.038482234 -0.021752676 -0.07262441 -0.06338918
1.4926627 -0.04554492 -0.052031133 -0.066901736 0.015548783 -0.1630309 -0.05587189 -0.061691042
-0.0437919 -0.0279722 -0.14047764 -0.09871135 -0.045293268 -0.101019606 -0.06019332 -0.20804726
-0.039560065 -0.009089752 -0.088732764 -0.18282054 -0.02712877 -0.09612646 0.2953372 0.010156108
-0.09574293 0.009678599 -0.06031593 -0.31117073 -0.4995483 -0.040890753 -0.43146798 2.4397013
-0.096025586 -0.111010574 -0.00452221 0.055646997 -0.10248918 -0.064410634 -0.06340577 -0.05944899
-0.08975049 -0.17543733 -0.0800589 -0.012787657 -0.047408752 -0.09022305 -0.047988813 -0.29000416
-0.10068152 -0.07783003 -0.0854806 -0.037300576 -0.074438915 -0.08057562 0.6045802 -0.025818113
-0.32880893 -0.05017434 -0.07580515 -0.107278526 -0.17366067 0.025751103 -0.06817024 -0.05074441
-0.11245584 -0.25506032 -0.10832114 -0.03028221 0.5582778 -0.35692298 -0.16465853 -0.10220848
-0.08548218 0.30176267 -0.07585726 -0.13966131 -0.07730969 -0.045297816 -0.1239217 -0.32995912
-0.07259089 -0.068760484 4.3349237 -0.090863824 -0.1175946 -0.017629683 0.19471139 -0.01260032
-0.051140033 -0.1575471 -0.2959995 -0.014077071 -0.08480081 -0.050985813 -0.06712525 -0.11641464
-0.09797862 -0.102256924 -0.3563852 -0.20782714 -0.24183547 -0.0807056 -0.026728066 -0.25248086
-0.19680801 -0.08113178 -0.089937545 4.960365 -0.1016831 0.0056819734 0.021441069 -0.07126126
0.47222343 -0.08036413 -0.07633589 -0.02486596 0.0035117955 -0.07389562 2.014567 -0.047991097
-0.017039383 -0.10174381 -0.06466378 0.039198328 -0.1297501 -0.11918009 -0.08148709 -0.027420804
-0.20052138 -0.057811383 -0.023480527 -0.0873338 -0.19189614 -0.06536234 -0.22696635 0.101893194
-0.22810723 -0.074316956 -0.059810817 -0.11995126 -0.11328881 -0.010041203 -0.00347738 -0.07251059
-0.048287213 -0.10110343 -0.25166634 -0.10325464 -0.21340843 -0.11390814 -0.05874063 -0.08145547

linear3.weight f4 [3, 256]
00000000: d485 063c 2b30 46bc fadc dabb 56e0 6a3d
00000010: 7354 08bb 25af 17bf 5bcc 943c d17d 04bd
00000020: d683 b63c 00a1 23bc 086a c6bf 13be d63c
00000030: 0e43 0bbc d214 b4bb f4c2 1d3b 7214 b8be
00000040: 5eb9 d33b 70b8 07bc 7591 21bd 5238 583d
00000050: b31a 92bd 7224 253d a31b 1c3e 1599 d4bd
00000060: 3977 37bb d010 8bbb b135 313d e871 7bbc
00000070: 70f0 5bbc 7aff ac3c bb91 c23c 832f 943b
00000080: 99f8 73bc 982a 14bf 273b 44bd 50eb 103d
00000090: 22a1 a0bc 6582 d43d 82fa 1dbd fb35 aabe
000000a0: 60be 4a3b 0d56 d43c 0ece 4bbd 18f6 803c
000000b0: 4a83 36be 145e d5bd 6c56 7b3c f387 83bd
000000c0: f6e4 843d 195c fbbb 7da7 8f3c 3604 563c
000000d0: 5b38 8a3b 8831 f53c 5f68 f3bc e9dd fc3b
000000e0: 9415 d9bc 5526 e4bc 2291 c63c b49e 82bf
000000f0: 526e ab3e 1aec 55bf 170a 813c 5edc e9bd
00000100: dec4 d53c 5298 d63c 1033 bdbd 237d a73c
00000110: 38ce 21bf 2642 96bd d6f6 053c 0f00 373d
00000120: c082 e1bb 164e e6bb 6eba 0b3c bdc9 d0bf
00000130: bebc 95be a4f2 0dba cf92 00bd 2264 003d
00000140: fc93 9b3e 8951 6ebc 8173 77bc 5946 ccbe
00000150: cb0a 92bc 3733 783c 9ce5 c7bc caf3 18bc
00000160: a29b 413d f1ee 863c f60c ed3a 3b9c 1d3c
00000170: 7432 9fbd acd1 d6bd 6a24 f13c bf2a fe3d
00000180: a262 033d 21ac c83c 30b0 05ba 9db1 16bb
00000190: 2250 87bc 2985 d13b 1e59 bcbc 7f9e 8bbb
000001a0: f2f9 c1bc ff5b 8a3c ef70 773c a84f 26bd
000001b0: 7660 77bd fdd0 883c 79a3 c73c a2c4 c0bb
000001c0: 0d5d 953d 6319 f9bc 30fe 88bd 601b d43c
000001d0: 7127 33bd 9294 18bd cd91 21be b7d9 7ebd
000001e0: cdda 3c3d 658a ac3d 8e39 f63a 6e6e 7a3b
000001f0: 0559 35bc 5029 153d 0921 a6bb 3122 01bc
00000200: 4354 7c3c a60b 10bd 7681 ad3c a7e3 78bd
00000210: bbf1 e4be bfa0 d8bb 56e7 b1bc 8b63 013e
00000220: 2e25 d73c 236f 42be 5bf5 313b 4446 cebf
00000230: 3d20 b6bc fb70 3c3c 8b1d 883d b00b fc3c
00000240: cf9b b6bc 6e74 a0be 3d2c d9bb 9c05 ba3c
00000250: 4ce3 873d eb87 44bc d76f e9bb 8c93 67bd
00000260: 08e7 3fbb d388 e23c bcaf e5bd c028 9cbc
00000270: 508f 40bd 603c 113d 85c8 b83d dc7e 07bc
00000280: 8801 8ebe 58bd d9bc 0727 e4bc 0567 12bd
00000290: 5b98 413e f793 bc3c b117 fc3c ce70 f53c
000002a0: 54bb e53c c505 7dbd 1291 cc3a 0c8e 293e
000002b0: bf82 843c 1281 2e3d 7a3b 2d3d 609f 11bf
000002c0: 25a1 183c e38d 0abb 80fd dbbc 2a65 603e
000002d0: 007e 45ba 872b 51bc 442d a63c 7600 4d3e
000002e0: e2a2 603d 487d 033c 6e5e b33e 4e06 e83c
000002f0: dbd8 393c 4b9c 263d 577b d73c 9f35 263b
00000300: f0ac b13c b115 213d f013 81bc b911 76bb
00000310: 0fd8 c33b 5638 f33c 147d 4d3d 9dcc 9bbc
00000320: 291d 233c 6ead cdbc e54b 25be 8859 9fbc
00000330: 4249 7dbd 3d18 3e3b a8bc 00bd d145 1bbf
00000340: eacc a33d 5451 c43d 167b 133d d407 bf3e
00000350: e4d3 f4bb 816d 693a 6a24 713d 37d5 fd3c
00000360: 900f f33b adfd f3bc cd80 3a3c 662d cdbc
00000370: ce5c a53b 3139 b6bc 9ea6 f5bc c02a 0f3d
00000380: b565 2dbc eb3f 81bd 9d50 34bc 3be0 f33c
00000390: 745b d03c c6c3 bcbc 93af 93bc 0a2e 74bc
000003a0: a2c5 abbc 35fa 1ebb 2e54 ec3c 0103 943e
000003b0: fbe8 acbc 3b74 abba 15e6 edbd 84a9 bfbc
000003c0: 559a 85bd a7c2 e3bb 96c8 7c3d 52e3 9cbc
000003d0: d2da 54bd 1872 e0bc b0f2 4abd e8dc ad3c
000003e0: 2b8a c4b8 a63b 503c c47c 97bd 920a a2bd
000003f0: 6634 8d3c be83 283c 962b b2bc de0a b1bc
0.008210618 -0.012096445 -0.0066791745 0.05734285 -0.0020802289 -0.59251624 0.01816385 -0.03234655
0.022279661 -0.009987116 -1.5501108 0.026213681 -0.008499874 -0.005495646 0.00240725 -0.359531
0.0064613065 -0.008283719 -0.03944536 0.052788086 -0.07133999 0.04031796 0.15244918 -0.103807606
-0.0027994646 -0.0042439476 0.043264095 -0.015346982 -0.013424024 0.021117914 0.02375113 0.0045222654
-0.014890813 -0.5787749 -0.047907975 0.03538066 -0.019608084 0.10376433 -0.03856898 -0.3324431
0.0030936226 0.025919938 -0.049757056 0.015742347 -0.1782352 -0.104183346 0.015340429 -0.06422415
0.06488983 -0.007670891 0.01753592 0.013062527 0.004218144 0.029930845 -0.029712854 0.0077168834
-0.026499547 -0.02785031 0.024239127 -1.0204682 0.33482605 -0.8356339 0.015751882 -0.11418985
0.02609485 0.026195679 -0.09238255 0.020445412 -0.6320529 -0.073368356 0.008176526 0.04467779
-0.0068820417 -0.0070283515 0.008528335 -1.6311566 -0.2924556 -0.00054148794 -0.031390008 0.031345494
0.3038634 -0.014545807 -0.015103222 -0.3989742 -0.017827412 0.015148929 -0.024401478 -0.009335468
0.047267564 0.016471358 0.0018085528 0.009619768 -0.07773295 -0.104892105 0.029436309 0.12410497
0.032076485 0.02449614 -0.00050998013 -0.002299405 -0.016517702 0.0063940478 -0.022991713 -0.0042608376
-0.023678754 0.01688957 0.015102609 -0.04060331 -0.060394727 0.016701216 0.024369942 -0.0058828155
0.07293139 -0.030407613 -0.066891074 0.02589196 -0.043738786 -0.037251063 -0.15778275 -0.062219348
0.046107102 0.08424834 0.0018785463 0.0038212794 -0.011068587 0.03641635 -0.005069856 -0.007881687
0.015400949 -0.03516736 0.021179896 -0.06076398 -0.44715676 -0.0066109593 -0.021716755 0.12635629
0.026262846 -0.18987708 0.00271543 -1.6115193 -0.02223217 0.011501546 0.0664626 0.030767292
-0.022291092 -0.3133883 -0.006627588 0.022707753 0.0663515 -0.011995296 -0.007123928 -0.056537196
-0.0029281992 0.027653133 -0.11215159 -0.0190624 -0.047011673 0.03545797 0.09022621 -0.008269992
-0.27735543 -0.026579544 -0.027850641 -0.03574278 0.18905775 0.023019774 0.030773016 0.029961016
0.028043427 -0.06177308 0.0015607199 0.16558093 0.016175626 0.04260356 0.04229305 -0.5688381
0.009315764 -0.00211417 -0.026854277 0.21913591 -0.0007533729 -0.012766725 0.020285256 0.20019707
0.054842837 0.008025475 0.35032982 0.028323319 0.011343206 0.040676396 0.02630393 0.002536155
0.021688908 0.039327327 -0.015756577 -0.0037547185 0.005976684 0.029689949 0.050168112 -0.019018466
0.009955683 -0.025107112 -0.16142233 -0.019451872 -0.061837442 0.0029006146 -0.031429917 -0.60653406
0.07998069 0.095858246 0.036006056 0.3731066 -0.0074715484 0.0008904562 0.058872618 0.030985458
0.0074176267 -0.029784048 0.011383248 -0.025046062 0.0050464636 -0.022244068 -0.029986676 0.03495288
-0.010583331 -0.063110195 -0.011005548 0.029770007 0.025434233 -0.02304257 -0.018028056 -0.014903555
-0.020968262 -0.0024258022 0.028848734 0.28908542 -0.021107187 -0.0013080904 -0.1161615 -0.023396261
-0.06523577 -0.0069506946 0.06171473 -0.019151364 -0.051966496 -0.027398154 -0.04954785 0.0212235
-9.371744e-05 0.012709534 -0.07396844 -0.079121724 0.0172369 0.010285316 -0.021749299 -0.021611627

linear3.bias f4 [3]
00000000: 2f30 0c3f d455 783f e7d5 633f
0.5476102 0.97005963 0.88998264
