checkpoint_game_600.pth (torch, 281408 bytes, 6 tensors)

linear1.weight f4 [256, 11]
000000 29 0c 54 be 97 7a 37 3e 64 4a ff bd 35 ad 16 3e
       -0.20707764 0.17917858 -0.12465361 0.1471451
000010 12 2b b3 3d 3b bb ed 3d 44 72 45 be 09 60 28 be
       0.087484494 0.11607977 -0.1928187 -0.16442885
000020 11 3d df bd 9c 19 16 be 9d 8f 87 be e1 2e 46 3e
       -0.10900319 -0.14658207 -0.26476756 0.1935382
000030 27 a2 05 3e 10 f0 1d be dd 6e f6 bd b9 4d bc bc
       0.13050137 -0.15423608 -0.12032864 -0.02298628
000040 81 6e 7d bd 14 cd 43 be b9 3c 3d bd e9 07 82 be
       -0.061872963 -0.191212 -0.046200488 -0.2539666
000050 3a 1e 78 bc 07 ad 30 be 46 91 dd 3c 27 0d c2 3c
       -0.015143925 -0.17253505 0.02704681 0.023687912
000060 60 4b ec 3d 8a 0d d0 be d9 74 40 3e 9b 56 a8 be
       0.11537814 -0.4063533 0.18794574 -0.32878575
000070 01 75 01 3f 05 95 3c be 4b 19 11 bf 51 f2 1d bf
       0.5056916 -0.18416221 -0.5667922 -0.6169787
000080 18 bc 8c 3e 5a 7d ed bc 84 e6 88 3e d5 3a 45 3e
       0.27487254 -0.028990436 0.2673837 0.19260724
000090 a8 da ce 3d b8 53 6a 3d 23 a7 05 bf aa 73 b5 be
       0.10100299 0.057208747 -0.52208155 -0.35439807
0000a0 d0 12 4c be cd 64 3c 3e 24 69 c8 be 00 1c 96 be
       -0.19929051 0.18397827 -0.39142716 -0.29318237
0000b0 52 20 0c 3e 7f f0 16 be bc d2 5a be f3 1c a3 3c
       0.13684204 -0.1474018 -0.21369451 0.019911265
0000c0 e6 15 66 bc 43 f8 a1 be 13 67 ff 3e 69 aa ae be
       -0.014043307 -0.3163472 0.49883327 -0.34114388
0000d0 06 48 df be 52 da fa 3d 5e d8 66 be aa ad 9d bd
       -0.43609637 0.122486725 -0.22543475 -0.076991394
0000e0 67 eb 74 3e 0b 7c 9a be a9 ef e2 be e1 01 92 3a
       0.23917924 -0.30172762 -0.4432347 0.0011139476
0000f0 72 35 07 bf 7a ff 09 3d 19 e9 92 be 3a 31 84 be
       -0.52815926 0.033690907 -0.28693464 -0.25818807
000100 d1 03 0c bd 8e 68 f1 be 1b d3 fa 3e 36 b8 c4 be
       -0.034183327 -0.4715008 0.48989186 -0.38421792
000110 4d 7b 5a be 3a ae 19 3e 2c 95 f5 bd 69 89 91 be
       -0.21336098 0.15007868 -0.11991343 -0.28425148
000120 78 c1 7d be c6 2e 40 be 1e 8b 27 3e b9 f2 ba 3e
       -0.24780834 -0.18767843 0.16361663 0.36513308
000130 1d ef cb 3e 67 c0 55 be bb 82 51 3d 27 d9 9b 3e
       0.39830866 -0.20874177 0.051150065 0.30439112
000140 4c d4 61 be 29 70 97 bd 2b 90 73 3e 41 31 be 3e
       -0.22053641 -0.0739444 0.23785464 0.37146953
000150 54 b1 54 be 7b c8 d5 be c8 1e a5 3e 8a ac 11 3e
       -0.2077077 -0.41754517 0.32250047 0.14225975
000160 3c 08 ad 3e b8 42 a6 3c 85 81 18 be f7 f8 a4 3e
       0.33795345 0.020295486 -0.14893158 0.32221195
000170 01 d9 7d 3e 3e 3c d5 be f3 6a cd be 2d a8 07 bf
       0.24789812 -0.41647524 -0.40120658 -0.5299099
000180 ec 54 15 bf a1 fb 45 3e d1 a6 b9 3e a1 0b 38 be
       -0.58332705 0.1933427 0.36260083 -0.17973186
000190 e3 2a f9 3e 4b 08 09 3f 35 de c8 3d 56 92 69 be
       0.48665532 0.5352828 0.09808008 -0.22809729
0001a0 f1 d8 92 be 28 ff 2c be 63 3a 74 3c f5 6f f1 bd
       -0.28681138 -0.1689421 0.014906499 -0.11788932
0001b0 47 a4 c7 bd d4 12 78 be 65 f4 8c bd 97 15 25 bb
       -0.0974813 -0.24225932 -0.06882552 -0.002518987
0001c0 ef 0a 92 bd 1f ea 9b be fa 42 af 3e 9a 74 44 3e
       -0.07130992 -0.30452058 0.34230787 0.19185105
0001d0 7a b2 fa bd d4 04 06 be ea b2 85 be af 73 ec 3e
       -0.12241073 -0.1308778 -0.26113063 0.4618201
0001e0 32 76 a8 bd df dd 6b be 26 97 ec 3e 6f 15 c2 bd
       -0.08225669 -0.23033856 0.46209067 -0.094767444
0001f0 23 69 3f 3e 7b 21 35 3e 58 4c 94 be a1 42 21 bf
       0.1869245 0.17688553 -0.28964496 -0.6299229
000200 66 ff 6c 3e 58 43 96 3e ec e5 b7 be f5 32 be be
       0.23144302 0.29348254 -0.35917604 -0.37148252
000210 0e 40 29 be d6 0e 71 3e b0 29 07 3d be b9 53 be
       -0.16528341 0.23540816 0.03299874 -0.20676324
000220 ce 7e d9 be 0e 3f 37 be a8 9d 0e be 68 e4 aa bd
       -0.42479557 -0.17895147 -0.13927329 -0.08344346
000230 6b b1 d3 bc e8 be 6d be c4 2f 58 be 5f 7d dd 3d
       -0.025841435 -0.23217356 -0.21111971 0.10814928
000240 cc 04 7d 3e 4d ee 73 bd b8 1e 4d 3d a3 07 49 3c
       0.24708861 -0.059553433 0.050078124 0.012269887
000250 92 c1 50 be 6f 40 ee 3c ef a9 f1 37 9c 1c 03 be
       -0.20386341 0.029083459 2.880857e-05 -0.12803882
000260 17 b4 9b 3d 49 44 53 be f6 39 b0 3e b0 c6 2d 3e
       0.07602709 -0.20631517 0.3441922 0.16970325
000270 83 cb 91 be e5 af 2b 3e 0a 9c 6e be 8b 66 95 3e
       -0.2847558 0.16766317 -0.23301712 0.29179797
000280 5d 52 8b be fd d7 03 be 2b 51 da be 79 3c 21 bf
       -0.27211276 -0.12875362 -0.4264005 -0.629829
000290 bd fa b9 3d 18 c4 a3 be a5 23 9f bc 97 fd b9 3d
       0.09081028 -0.31985545 -0.019426176 0.090815715
0002a0 4b 01 e7 be d3 73 44 3e ae e4 aa 3e b2 d4 48 3e
       -0.45118174 0.19184808 0.33377594 0.19612387
0002b0 d6 52 0c bf 03 7d f6 be cf ca bf be 20 1d 8c bd
       -0.548139 -0.4814225 -0.37459418 -0.06841493
0002c0 78 4d 0b 3e 17 9a 1a 3e 74 7d 94 3d bc 35 e3 3d
       0.1360377 0.15097843 0.07250491 0.110942334
0002d0 78 ae 9c 3d b0 bf 81 3e 94 03 d8 be bb d2 ce be
       0.07650465 0.25341558 -0.4219023 -0.4039515
0002e0 c9 91 a5 be 0e 6c 44 3e 00 0b d0 be d1 1b 13 3d
       -0.32337788 0.19181845 -0.40633392 0.0359152
0002f0 1d 75 ea be d2 8e 80 be 5c 7f 9f 3d 2b ae 33 be
       -0.45792475 -0.25108963 0.07787964 -0.17546909
000300 50 fc 5b be 1f 1f 46 3e 0e 66 16 3e 89 72 ca be
       -0.21482968 0.1934781 0.14687368 -0.39540508
000310 80 cb dc 3d 86 ef 17 3e ff 7a 91 3e 51 c1 18 be
       0.10781002 0.14837465 0.2841415 -0.14917494
000320 8b c0 f7 bd 46 cf a2 be 92 ad ec 3e 69 4f f1 be
       -0.120972715 -0.31798762 0.46226174 -0.47130898
000330 3a db bf be 66 41 ff 3e b0 66 2f be f5 6c e4 be
       -0.37471944 0.49854583 -0.17129016 -0.44614378
000340 c1 6d c5 be 3b 0b 97 be 13 2b 98 be f7 8a 60 be
       -0.38560298 -0.29500756 -0.29720363 -0.21928011
000350 72 41 4e bb 53 2d 4e 3d 6e 2e 74 3e 8c 80 31 be
       -0.0031472114 0.050336193 0.23845837 -0.17334193
000360 f9 39 b0 be 62 02 aa bd 58 17 38 3c 0a f2 85 3e
       -0.3441923 -0.08301236 0.011236034 0.26161224
000370 25 9a eb bb 37 1b 37 3e 7d 24 3d bd bd 0a 43 3d
       -0.0071900063 0.17881475 -0.046177376 0.047617663
000380 ea 87 04 bf 3a 67 87 be c4 2d 2b be 73 50 e7 be
       -0.5176989 -0.26445943 -0.16716677 -0.45178565
000390 c5 32 ac be 2d dd 9d bd cc ad f3 3c b7 91 5d bd
       -0.33632484 -0.077082016 0.029745959 -0.054094043
0003a0 23 1a 19 3f 69 39 b5 bd 10 c8 be 3e 12 a6 2c be
       0.59805506 -0.08848841 0.3726201 -0.16860226
0003b0 88 ba 27 be a9 50 6a 3e c2 ba fb bd 76 59 01 3e
       -0.1637975 0.22882332 -0.122914806 0.12631783
0003c0 0e 09 7b be 8a 59 70 3e 82 d2 c1 3e 0e ef 4c be
       -0.24515173 0.23471656 0.37855917 -0.20013067
0003d0 00 b8 8a 3e 82 6c 18 bf 26 1e 2f be 21 2d 49 be
       0.27093506 -0.5954057 -0.17101344 -0.19646122
0003e0 3b b3 7c 3e a3 64 51 3e b9 ff 7b 3d a4 4c 8e be
       0.24677746 0.20448546 0.061523173 -0.27792847
0003f0 b7 f0 cf be 83 2f db 3e 8b 8a d5 3e be 9a 01 3f
       -0.40613338 0.42809686 0.41707262 0.5062674

linear1.bias f4 [256]
000000 07 22 9d be 55 6a b0 be e6 2d 5f 3c 49 ca 17 be
       -0.30690023 -0.34456125 0.013621783 -0.1482326
000010 e0 75 c1 be d4 6b 9c bd 70 43 0a be ca 88 8a be
       -0.37785244 -0.07637754 -0.13502288 -0.27057487
000020 32 e4 53 bd d4 7e 5a 3c 25 fc 71 be 1b 15 d0 bb
       -0.051731296 0.013335902 -0.23631342 -0.006350172
000030 e9 e4 13 be 91 aa f7 be 73 59 a3 3c ba 72 98 3d
       -0.14442791 -0.4837232 0.019940114 0.07443757
000040 d1 a4 0e 3d 3e 99 cb bd 38 96 96 be 83 6d 9a bd
       0.03482515 -0.09941338 -0.29411483 -0.07540419
000050 44 73 b1 bc 73 df f0 bc 8e 03 40 bd 54 1f 28 be
       -0.021661408 -0.029403424 -0.04687839 -0.164182
000060 02 a2 28 bc 0a 82 12 ba 8a f9 0c 3d 28 f0 c0 bd
       -0.010292532 -0.00055888353 0.034417666 -0.09420806
000070 4c f7 93 be 27 b4 78 3e 3b 61 46 be f7 4c cb bc
       -0.2889961 0.24287473 -0.19373028 -0.024816973
000080 67 fa 9d 3d b6 69 a7 3e 57 41 77 bd 95 dc 34 be
       0.07713776 0.3269784 -0.060365047 -0.1766227
000090 1c 92 41 be c4 53 25 3e d4 b2 9d be c9 65 92 bd
       -0.18903393 0.16145235 -0.30800498 -0.0714832
0000a0 ca 73 48 be cd 39 40 3c fe 36 83 3d 74 4b 38 be
       -0.1957542 0.011732531 0.06406973 -0.17997533
0000b0 55 96 72 be 0b 75 d8 3b e7 40 85 be dd 64 ed bd
       -0.2369016 0.0066057495 -0.2602608 -0.11591504
0000c0 d5 ba 00 3d b6 c7 8d be 37 46 75 bd 70 03 b6 be
       0.031428177 -0.2769143 -0.059881415 -0.35549498
0000d0 90 1a 28 bd ef e6 fb 3d c7 3e 04 3f 2e 93 41 3f
       -0.041040957 0.122999065 0.5165829 0.75615203
0000e0 b8 80 4b bd cf 58 cf bd f4 be 3e 3f ce 24 6b 3d
       -0.049683303 -0.10124361 0.7451012 0.057408147
0000f0 09 8c d5 bd af d1 71 be 71 12 36 be 30 7e 38 3a
       -0.104271 -0.23615144 -0.17780472 0.00070378464
000100 43 cb 22 be b1 07 a7 be 5b 94 94 be 2c 6f 45 bd
       -0.1589785 -0.32623056 -0.29019436 -0.048201725
000110 0b 83 e4 bd 37 16 90 be 3c ff 5a 3e 1c 9f c5 3e
       -0.11157807 -0.2814195 0.21386427 0.38597953
000120 9a f3 53 3f cb 00 95 be a2 39 3b be 29 64 55 bd
       0.8279358 -0.29102167 -0.18283704 -0.052097473
000130 cf dd 81 be 8f 49 ec bd d9 ad 68 be 49 c5 cd be
       -0.2536454 -0.11537468 -0.22722568 -0.4018958
000140 cd 45 4b 3e 7b a8 ad 3e 39 b3 bf bd d7 d5 c3 bd
       0.19850846 0.33917603 -0.09360356 -0.09562271
000150 a4 48 ab 3d 65 a9 92 be a3 ce 13 3e 71 12 a2 be
       0.083634645 -0.28644863 0.14434294 -0.31654695
000160 b5 74 d4 3e d5 d5 44 be e1 71 e4 bd 39 94 12 3e
       0.4149529 -0.19222195 -0.11154533 0.14314355
000170 44 e6 fb 3d 37 a6 d2 3c ac c4 7d be 24 30 db be
       0.12299779 0.025714023 -0.24782056 -0.42810166
000180 50 2b be be 21 91 dd bd ec 75 2f be e1 09 e1 be
       -0.3714242 -0.10818697 -0.17134827 -0.4395285
000190 62 8c 46 be dc 01 18 3d 2c e4 9c 3d 5c 7d 37 be
       -0.1938949 0.03711115 0.07660708 -0.17918915
0001a0 25 7b 61 3e b1 17 80 3e d1 50 a5 3b eb 38 2e be
       0.22019632 0.25018075 0.0050450345 -0.170139
0001b0 e1 ae 30 3d ed 7b 9e be 8f 71 7f be c8 e1 06 be
       0.043135528 -0.30953923 -0.24945663 -0.13172066
0001c0 b0 0b 8c be 21 4e 7a bd 04 f6 9c bc 63 cd 3b 3e
       -0.27352667 -0.061109666 -0.019160278 0.18340068
0001d0 7c 43 67 bd e3 9c 40 3f 9d 06 bb bd 31 e1 aa be
       -0.056460842 0.7523939 -0.09132121 -0.33374932
0001e0 45 7d c9 3e e2 5c 2b 3e 7c 91 30 be 99 7d 19 be
       0.39353386 0.1673465 -0.17242998 -0.14989318
0001f0 23 09 2b bd eb 13 72 be 1e 52 0d be 12 0a c5 bc
       -0.04175676 -0.2364041 -0.13800856 -0.024052653
000200 3d d1 1f 3f 4a 80 97 be 5b ef 9f bd a6 e3 d3 bd
       0.6242865 -0.29590064 -0.07809325 -0.10346155
000210 fe 67 0c be f7 d5 91 3d ad 5c 59 be 53 e0 63 be
       -0.13711545 0.07120889 -0.21226759 -0.22253542
000220 a7 31 9d 3b ef 14 69 3e 73 da 16 3e d2 2f 24 3f
       0.004797179 0.22761892 0.1473177 0.6413547
000230 d3 02 b6 3d 92 93 95 bd b6 f2 ab 3d a9 b2 be be
       0.088872574 -0.073035374 0.08395903 -0.37245682
000240 64 33 e2 bc 0b e1 87 be 11 95 93 3f 07 be 26 be
       -0.027612396 -0.26538882 1.1529866 -0.16283427
000250 6e 8e 3f be 0d 4c 23 3e f7 58 af bd 1c 20 50 3e
       -0.18706676 0.1594698 -0.085618906 0.20324749
000260 de 94 d2 3c 80 6d ea bd ca f5 de 3d 7e f8 16 be
       0.025705751 -0.11446667 0.10886724 -0.1474323
000270 29 30 53 be 2a c0 fa bd 2f 42 b4 3d f0 e6 7e 3c
       -0.2062384 -0.12243684 0.08801686 0.0155579895
000280 f2 ae 81 3c ac 9c 94 3e c1 7a 8d be b4 6d 9c be
       0.01583049 0.2902578 -0.27632716 -0.30552447
000290 48 d4 4e 3d ad d1 17 3f 01 2c a4 be 6f d6 2f be
       0.050495416 0.59304315 -0.32064822 -0.17171644
0002a0 0a 0e a9 be 46 4b a3 bd ca a8 2f bd 09 1e a6 3e
       -0.33018523 -0.07973342 -0.04288558 0.3244479
0002b0 c6 11 43 3e 86 7e 96 bc f7 63 4a bc a4 66 0c 3f
       0.19049749 -0.018370878 -0.012352935 0.5484412
0002c0 1f a1 53 3e e1 80 2d be ee 1d 0f be dd c0 be be
       0.20666932 -0.16943695 -0.13976261 -0.37256518
0002d0 de 9a 80 3d a2 fd 1a 3f 39 02 c5 bc bc ec 90 3c
       0.062795386 0.6054326 -0.024048911 0.017691009
0002e0 34 05 c3 be f0 02 2c 3e d8 5c 24 3d 99 d3 47 3d
       -0.38089907 0.16797996 0.040127605 0.04878578
0002f0 07 f9 47 3e e5 91 c1 be 99 e6 25 bc d1 a5 29 bd
       0.1952859 -0.3780662 -0.01012578 -0.0414179
000300 88 76 7b be 1a 4a f6 bd b9 e2 d1 3d 20 f3 fb 3d
       -0.24556935 -0.120258525 0.10248322 0.12302232
000310 3a 5a 74 be ec 38 cd be e9 a3 50 3e d3 2d 49 3c
       -0.23862544 -0.4008249 0.20375027 0.012278992
000320 bd 45 6b be e8 e3 77 be bc dd 65 be eb 84 f1 bd
       -0.22975822 -0.24208033 -0.22447866 -0.1179293
000330 47 29 8c 3d 55 c8 9a be 0a 80 98 bd aa be 48 bd
       0.068438105 -0.30230966 -0.074462965 -0.049009956
000340 d3 be a9 be 49 50 4e 3e 89 b6 83 3f 78 82 97 3e
       -0.331534 0.20147814 1.029008 0.29591727
000350 76 38 90 be 9f 20 9a 3e db f3 70 bd cd c8 98 be
       -0.28168076 0.30103013 -0.05882631 -0.298407
000360 c2 5a 50 bd 2c 9b 4c be 93 41 02 bf 2c 49 12 be
       -0.050867803 -0.19981068 -0.5088131 -0.14285725
000370 81 3a 6a 3d 05 1c 45 3e ae b0 8e be 99 a3 84 3e
       0.0571847 0.1924897 -0.2786917 0.25906065
000380 22 7a 37 be 5b 44 d9 3e b7 b1 8c be 8d 56 4a be
       -0.17917684 0.42434964 -0.27479336 -0.19759579
000390 5e ed 8e bd f4 4e 4c be 91 fc 72 be 1a 09 98 be
       -0.06978868 -0.19951993 -0.23729159 -0.29694444
0003a0 a6 96 a7 3e fe 67 5a be be e3 0d 3c 61 1b bb be
       0.32732123 -0.21328732 0.008660255 -0.36544326
0003b0 a9 03 a1 bd 18 0d 34 bd a5 5a c3 3d c8 3b f3 3e
       -0.07862026 -0.0439578 0.095387734 0.47506547
0003c0 98 c6 02 be 27 05 73 be b2 f7 ae bd 00 c5 2b be
       -0.1277107 -0.23732434 -0.08543338 -0.16774368
0003d0 10 f7 26 be ca b4 70 3e 7e 9d a5 be e7 1d a9 be
       -0.16305184 0.23506466 -0.3234672 -0.33030626
0003e0 a6 05 0d 3c f0 b1 09 3f 64 bc 97 3f 79 7a eb 3e
       0.008607304 0.53787136 1.1854367 0.45991877
0003f0 ca 7b 75 be 57 d7 b4 be 3f cc c0 3d b2 a1 a1 be
       -0.23973003 -0.3532054 0.09413957 -0.31568676

linear2.weight f4 [256, 256]
000000 00 1a c0 39 40 e7 79 bb 6a ef b3 3d 47 74 5c 3b
       0.00036640465 -0.003813222 0.08785899 0.0033638643
000010 cf 6c b8 bb 29 89 31 bc 07 f7 97 3c 4a 1e 0b bd
       -0.0056282054 -0.010835924 0.018550409 -0.033964433
000020 5f 21 49 bd 2b 86 07 bd e7 81 73 bd 48 e8 3a 3c
       -0.04910409 -0.033086937 -0.059450056 0.011407919
000030 d7 ce a9 3c 56 2e 1f bc 43 06 95 b9 8f 4d 46 bd
       0.020728512 -0.009715637 -0.0002842416 -0.04841381
000040 d8 65 7b bd ab de ce bb 14 b9 1f 3d e4 22 8f 3c
       -0.061376423 -0.006313165 0.038994864 0.017472692
000050 04 90 85 bd 78 e1 81 bb 52 f6 5d bc cc 59 de bb
       -0.065216094 -0.0039636455 -0.013547497 -0.006785607
000060 18 2f 08 bd a1 5c 45 bd bd 6f 88 bd 9f c5 a8 bc
       -0.033248037 -0.04818404 -0.066619374 -0.020602046
000070 7c 5b 3e bd 12 7e 45 bd c8 bd 97 bb ef 20 94 ba
       -0.046473965 -0.048215933 -0.004630778 -0.0011301319
000080 b8 78 f0 bd e5 e5 a0 bd 69 89 6b bd 16 65 b6 bd
       -0.11741775 -0.07856349 -0.05750409 -0.08905999
000090 82 b1 9c bd b6 ea 53 bd e8 99 5f 3d 5c 02 ec bc
       -0.076510444 -0.05173751 0.054590136 -0.028809719
0000a0 83 11 a6 3c 9f 09 b1 3c f2 bf 87 3c 30 09 f0 3b
       0.020272022 0.021611033 0.016571019 0.007325314
0000b0 a6 8c ab bb ec a2 eb bc d3 3b 6d bd ce 0f 92 3d
       -0.0052352725 -0.02876421 -0.05791838 0.07131921
0000c0 ca ca b6 bc e0 30 31 bc 92 16 41 bd 7d e7 87 3c
       -0.022313494 -0.010814875 -0.047140665 0.016589874
0000d0 f2 dd 68 bd b1 bf 3c bc 34 91 81 bd 48 6e 6e bd
       -0.05685229 -0.011520312 -0.063265234 -0.05821064
0000e0 51 59 03 bd 2e c6 03 3c 8f 72 d8 bd a5 23 2c 3d
       -0.0320676 0.008042855 -0.10568725 0.04202618
0000f0 eb dc 0d 3d 00 31 2e bd 90 88 3b bc 4b 4b 94 bd
       0.034634512 -0.0425272 -0.011446133 -0.072409235
000100 27 ef 83 bd 3d b6 67 3c a0 e2 87 3c 74 ba 98 3d
       -0.06442099 0.01414257 0.016587555 0.07457438
000110 df 08 7b bd 6d ea e8 3c 4b 3f 2b ba 86 0d b9 bd
       -0.061287757 0.028432095 -0.0006532564 -0.090357825
000120 4c e4 86 bd fd 42 94 bc 97 0b 55 bd 87 25 39 bd
       -0.06586513 -0.018098349 -0.052013006 -0.045201804
000130 8e 4d a2 ba 45 c3 6a 3d d0 46 52 3d f4 bf 86 3c
       -0.0012382732 0.05731513 0.051337063 0.016448952
000140 50 4c d8 bd 37 74 1b bd a9 b1 d4 3b 31 bf 23 bd
       -0.105614305 -0.037952628 0.0064909053 -0.039977256
000150 3e f5 d3 bd 7c 04 cf bc e7 36 56 bd 40 45 9a bd
       -0.103495106 -0.025270693 -0.052298453 -0.0753274
000160 71 f3 12 bc 15 01 44 bd e9 8b 86 bc 62 5c 65 bd
       -0.008969174 -0.047852594 -0.016424136 -0.055996306
000170 df 04 ad 3a b8 a0 1e 3c 44 47 01 3d 79 f2 1f bd
       0.0013200304 0.009681873 0.031562105 -0.0390496
000180 14 94 47 3d 5b b9 fe bb 5b 22 b0 3c 08 4f b5 bd
       0.048725203 -0.007773561 0.021500757 -0.08852965
000190 b9 54 a3 bb 8a ba ce bd 68 43 87 bd a6 d8 7f bd
       -0.004984465 -0.10094173 -0.066046536 -0.06246247
0001a0 f9 48 0c bd fc df 53 bd b8 e6 1e 3d fc ae 5b bd
       -0.03424928 -0.05172728 0.03879425 -0.053633675
0001b0 cc 3f 82 bd fe 62 9f bd 0e 52 7e bc d4 85 7f bd
       -0.063598245 -0.07782553 -0.015522493 -0.062383488
0001c0 5b 2a 40 bc 20 97 29 bd eb 02 8c bd c0 2b 42 bc
       -0.011728848 -0.04140389 -0.06836494 -0.011851251
0001d0 6b 03 87 3b 42 ac d6 bd 7c 01 29 3d 0c 52 0d bd
       0.0041202805 -0.10482074 0.04126118 -0.034502074
0001e0 52 0d c0 bd 81 f2 14 bd 85 86 68 bd a1 d6 1a bd
       -0.09377541 -0.036364082 -0.056768913 -0.037802342
0001f0 9b 64 23 bc 14 18 88 bd 36 e4 53 bd 0a 5b 7a bd
       -0.009972717 -0.066452175 -0.05173131 -0.061121978
000200 1b 96 f3 bd d6 0c b8 bd c6 bf bb 3c fa 18 19 bd
       -0.11893865 -0.08986823 0.022918593 -0.037377335
000210 c2 67 93 3d e8 8c 51 3d 5b 00 97 bd f5 66 5f bc
       0.071975246 0.05115977 -0.07373115 -0.013635387
000220 e1 30 70 bc cd 69 86 3d d0 9b 14 3c ef a5 3f bd
       -0.014660091 0.06563149 0.009070352 -0.046789106
000230 6d 27 dd bc 5d 12 2e bd 8b 42 ab bc c0 6e 3f bc
       -0.026996339 -0.04249798 -0.020905754 -0.01168412
000240 61 f9 6e 3c 84 20 bb bd ca 4f 89 bc e8 1d 47 bd
       0.014585824 -0.09137061 -0.01676168 -0.048612505
000250 20 c9 81 bc 98 bf 2c bd a9 c7 b3 3c 93 57 d3 bc
       -0.015842974 -0.042174906 0.021945791 -0.025798595
000260 a2 31 17 bc f5 2f a1 3d f9 21 3b bd 50 a1 46 bd
       -0.009228142 0.07870475 -0.045686696 -0.048493683
000270 50 03 e7 bc cc 58 1d bd 47 43 a2 3c e4 66 3a bd
       -0.028199822 -0.03841476 0.019807471 -0.04550828
000280 b8 08 b1 bd d2 82 5c bd 91 6a 52 bd 1c 2c 80 bc
       -0.08644241 -0.053835697 -0.05137116 -0.015646033
000290 b6 69 13 3d 66 4b aa bd 58 ed 5c bd 7a b1 f6 bb
       0.035989486 -0.08315162 -0.053937286 -0.007528481
0002a0 60 3a 3f bc d1 91 9f bd f2 ed ce ba fa 64 82 bd
       -0.0116716325 -0.07791484 -0.0015787466 -0.06366916
0002b0 bc eb 16 3c 39 c0 3f 3d 4a 19 3b 3d 4e 91 be 3b
       0.009211477 0.046814177 0.045678414 0.0058156615
0002c0 fe db 4a 3c 22 5e 07 3d 21 24 f9 bc 8a c6 8d 3c
       0.012381552 0.033048756 -0.030412735 0.017306585
0002d0 1a 5a 54 bd b3 5a 9d bc 96 a4 f9 bd 48 46 70 3d
       -0.05184374 -0.019208288 -0.121895954 0.058660775
0002e0 2b 22 36 bc 1a 83 12 bd e9 ce 8f 3c 4c 10 ee bc
       -0.011116545 -0.03576956 0.017554717 -0.029060505
0002f0 04 2a ca 39 c0 0a eb 3a a4 ce 7c bd f5 86 61 bd
       0.00038559746 0.0017932281 -0.061720505 -0.055060346
000300 6e db 19 bd 15 ca 6a bd c1 00 5e bd d4 3c f5 3c
       -0.03756278 -0.057321627 -0.054199938 0.029936232
000310 05 08 a5 bd a9 a1 39 3d cd 00 df bd b2 63 2c 3d
       -0.0805817 0.045320187 -0.108888246 0.042087264
000320 dd a6 9c 3c b1 09 e7 bd 6c 83 7e 3d 64 b9 74 3d
       0.019122535 -0.11281145 0.062137052 0.059747115
000330 84 46 93 3a 52 96 17 bd 2e 93 1e bc ac 5a 3f bd
       0.0011236225 -0.03700859 -0.009678645 -0.04671733
000340 c9 59 44 bd ed e2 17 bd 20 48 be bd b1 81 2a bd
       -0.04793719 -0.037081648 -0.092911005 -0.04162759
000350 e2 7c 2a bd 1e 51 80 3c 17 b6 9d bd e0 88 1f 3c
       -0.041623004 0.01566368 -0.077007465 0.009737223
000360 e0 ac 05 3d 9b c2 4f 3d 95 79 cd bc 06 b4 6f 3a
       0.03263557 0.0507227 -0.025082389 0.0009143952
000370 f2 9d bf bd 4a 9f 13 3c 68 04 09 3d fb a2 2d bd
       -0.093562976 0.009010145 0.033451468 -0.04239176
000380 b1 f7 9f bc 5a 75 4b bd f6 49 39 bd 08 a6 10 bd
       -0.019527288 -0.049672462 -0.04523655 -0.03531459
000390 c5 cd 1b bd 45 01 bb bb b9 21 08 bd 22 86 a6 bd
       -0.038038034 -0.0057069384 -0.033235285 -0.081310526
0003a0 e1 83 12 bd 73 21 cb 3c 25 3d 3b bd 4b b3 07 bd
       -0.0357703 0.024796223 -0.04571261 -0.03312997
0003b0 75 7e 28 3d 6c d9 0f bd b8 d7 2e bd b4 24 8b bd
       0.041136224 -0.03511946 -0.042686194 -0.0679411
0003c0 cc 9f ec b9 2a db 97 bd 7d d3 3f bc 73 c1 8e bd
       -0.00045132486 -0.07414849 -0.011708138 -0.06970491
0003d0 00 f3 b6 3a 78 7a 52 bc 25 b9 42 bd 91 64 8a 3d
       0.0013957918 -0.012846582 -0.04753985 0.06757463
0003e0 dc 03 99 3c 0b 96 8a bd b8 36 97 bd b9 1e 8b 3c
       0.018678598 -0.067669 -0.07383484 0.016982423
0003f0 d0 ac f4 bc 6a 0d 90 bd 7d 12 1a 3d 2e 5b 3c bc
       -0.02986756 -0.070338085 0.037615288 -0.011496348

linear2.bias f4 [256]
000000 a3 45 1e b9 07 a0 a9 bc f9 ad a0 bd 56 2f 7b bd
       -0.00015093996 -0.02070619 -0.07845683 -0.06132444
000010 71 ec 0b bd fd 87 c6 3d 45 b3 b6 3c 63 a2 4b bd
       -0.034161035 0.096939065 0.02230228 -0.04971541
000020 a8 26 04 be 40 8f 14 bd 97 42 d0 3d 29 6b 37 bd
       -0.12905371 -0.036269426 0.10168951 -0.04477993
000030 35 09 37 bd 9c de d2 bc 7e da 4f bd c2 8c d3 bd
       -0.044686515 -0.025740914 -0.05074548 -0.10329582
000040 05 84 d8 bd bc 2c 8e bd 80 af 1d 3b 35 bb 79 3b
       -0.10572056 -0.06942126 0.0024060905 0.003810597
000050 b0 88 0a be c5 d5 72 bd e6 09 2e 3e f4 fd 11 be
       -0.13528705 -0.059285898 0.16995963 -0.14257032
000060 d3 9f ba bd 10 18 02 bd fb b9 c1 3d a6 00 2f bd
       -0.09112515 -0.03176123 0.09459301 -0.042725228
000070 aa dd d2 bc 70 1a ca bd 25 be cb bd ec 08 09 3f
       -0.025740463 -0.09868324 -0.099483766 0.5352924
000080 30 ed 36 be 91 55 7d 3d d4 27 2c bd b5 5f bc bb
       -0.17863917 0.06184918 -0.04203017 -0.005748714
000090 39 02 fd bd b9 cd be 3d 15 a4 18 3d 65 aa 8f bd
       -0.123539396 0.09316582 0.037265856 -0.07014922
0000a0 69 26 94 bd f1 0d 05 bd 9c 79 b2 bd f3 82 9c bd
       -0.07233889 -0.032484 -0.087146014 -0.07642164
0000b0 3f 0b 22 be 60 4f 4a bd bd 1d 9c bc d3 6d 98 3d
       -0.15824603 -0.049392104 -0.019057149 0.07442822
0000c0 ec ba b1 3a 0d a5 96 bd 60 fe ff 3c 48 4a bc bd
       0.0013559735 -0.073557 0.031249225 -0.091938555
0000d0 c8 22 2a bd ce f4 9d bd 12 b8 c1 bd d8 4b 2d bd
       -0.041537076 -0.077127084 -0.09458937 -0.04230866
0000e0 f0 af 72 bd dd 2e 38 bd b4 19 33 bd c7 3f a2 3d
       -0.05924982 -0.044966567 -0.043725684 0.07922321
0000f0 85 0e d8 3f 5f 14 fa 3c 09 76 87 bd 5e fd 62 bd
       1.6879431 0.030527292 -0.0661431 -0.05541741
000100 3a e4 c1 bd 3d 70 a6 3d 5b 36 b4 3b d8 d3 af 3c
       -0.09467359 0.081268765 0.0054996437 0.02146332
000110 08 4b 89 bd c4 76 42 be 27 e4 06 bd 41 02 4e bd
       -0.06703764 -0.18990618 -0.032932427 -0.05029512
000120 72 c6 1b be 71 f7 ef bc 69 4c bd bd b6 fc d0 3c
       -0.1521242 -0.029292794 -0.0924309 0.025511127
000130 59 5f a4 bd ba 0a 8e bd 7f 63 1a bd d9 24 d6 bd
       -0.080259986 -0.0693564 -0.037692543 -0.10456247
000140 53 b6 c1 3f c3 51 56 3e 78 cd 9c 3c e0 ca 4d 3c
       1.5133766 0.20929627 0.019140944 0.012560576
000150 43 23 81 bd 60 d4 0d bd 53 5d 4d bd fb 23 33 bd
       -0.06305554 -0.034626365 -0.05013783 -0.043735486
000160 9b 47 95 bd cd 2e 83 3c 27 2a 42 bd 27 09 3d 3e
       -0.07289048 0.016013527 -0.04740348 0.18460523
000170 93 eb 1a be db 9a e1 bd 83 dd 0e be 45 b7 ae bd
       -0.15128927 -0.110158645 -0.13951688 -0.0853105
000180 7f 0c 13 bd 87 07 07 3e 00 7e a5 bd 97 11 da bc
       -0.03590059 0.13186465 -0.08080673 -0.026619716
000190 8c 9f 1d bd a0 1a fd bb 03 88 0e bd 30 d2 81 bd
       -0.038482234 -0.007724121 -0.03479768 -0.06338918
0001a0 5a 0a a3 3f 98 c4 61 bc 99 1e 55 bd c7 03 89 bd
       1.2737534 -0.013779782 -0.052031133 -0.066901736
0001b0 53 c0 7e 3c 8a d4 09 3d ec d9 64 bd 26 0d fa bc
       0.015548783 0.03364996 -0.05587189 -0.030523848
0001c0 33 8a 53 3d f5 25 e5 bc 5f d9 0f be b8 53 6e bd
       0.05164547 -0.0279722 -0.14047764 -0.05818531
0001d0 6e 50 ba bb 77 2d 9f bd 45 8d 76 bd d5 2b 35 be
       -0.0056858575 -0.077723436 -0.06019332 -0.17692502
0001e0 bc 09 22 bd 2f ed 14 bc 86 b9 b5 bd 4f 35 3b be
       -0.039560065 -0.009089752 -0.088732764 -0.18282054
0001f0 67 2f be 3d f3 dd c4 bd 95 a4 4f 3e ce 65 26 3c
       0.09286385 -0.09612646 0.20277627 0.010156108
000200 02 8d 7b bd fd 92 1e 3c 74 5d 47 bd 76 05 f2 bd
       -0.061413772 0.009678599 -0.04867311 -0.11817448
000210 a9 e3 00 be 10 7d 27 bd c5 7c e3 3d 61 02 bd 3f
       -0.12586845 -0.040890753 0.11107782 1.4766351
000220 10 a9 c4 bd 83 59 e3 bd 0c 2f 94 bb 3d 1f 28 3e
       -0.096025586 -0.111010574 -0.00452221 0.16418166
000230 38 40 a5 bd b9 e9 83 bd 6f 79 52 bd c9 80 73 bd
       -0.080688894 -0.064410634 -0.05138534 -0.05944899
000240 1b cf b7 bd 42 65 b5 3c ec f5 a3 bd 7a e9 9a 3c
       -0.08975049 0.02214301 -0.0800589 0.018910158
000250 88 23 39 3b dd c6 b8 bd e2 43 9f bc 03 1c 5f be
       0.0028249938 -0.09022305 -0.019441549 -0.2178803
000260 17 40 8d bd 5a 65 9f bd 74 10 af bd 7d c8 18 bd
       -0.0689699 -0.07783003 -0.0854806 -0.037300576
000270 6e 73 98 bd 7b ae 49 bd db cd 53 3f 82 80 d3 bc
       -0.074438915 -0.049238663 0.82735986 -0.025818113
000280 46 7a 50 be 9c 83 4d bd 93 66 34 bd d8 b4 db bd
       -0.20359144 -0.05017434 -0.044043135 -0.107278526
000290 21 19 a6 3b fa f3 d2 3c d7 9c 8b bd 5f d9 4f bd
       0.0050689136 0.025751103 -0.06817024 -0.05074441
0002a0 3f 4f e6 bd 01 c1 87 3d 79 d7 dd bd a3 d0 38 3e
       -0.11245584 0.066286094 -0.10832114 0.18048339
0002b0 41 dd 43 3f 8b e4 0e be 7f a7 09 bd ad 70 05 3e
       0.7650948 -0.1395437 -0.033607002 0.13031264
0002c0 48 11 af bd 81 1a 43 3e 0d 5b 9b bd db b9 5e bd
       -0.08548218 0.19053079 -0.07585726 -0.054376464
0002d0 cd 70 46 bd 49 17 de bc 25 de 83 bd c0 1e 2d be
       -0.04844742 -0.027110713 -0.06438855 -0.16906261
0002e0 88 aa 94 bd 96 eb 50 bd 75 db d3 3f d9 10 72 bd
       -0.07259089 -0.051005922 1.6551348 -0.0590981
0002f0 70 d5 f0 bd 20 6c 90 bc 6c 62 47 3e 93 71 4e bc
       -0.1175946 -0.017629683 0.19471139 -0.01260032
000300 36 78 51 bd d8 12 be 3d e2 5d 72 3d 84 a3 66 bc
       -0.051140033 0.09280938 0.059171565 -0.014077071
000310 1d 3c 59 bd 80 d6 50 bd f7 78 89 bd 28 20 7b bd
       -0.053035844 -0.050985813 -0.06712525 -0.061309963
000320 04 a9 c8 bd 14 6c d1 bd 8a 31 15 3d 26 6e 1c be
       -0.09797862 -0.102256924 0.036424197 -0.15276393
000330 66 e9 58 be fa 48 a5 bd d1 f4 da bc 21 69 43 bd
       -0.21182784 -0.0807056 -0.026728066 -0.04770768
000340 19 b3 94 bd 5f 1c 96 3d 2d 31 b8 bd 87 4d eb 3f
       -0.07260723 0.0732963 -0.089937545 1.8383034
000350 3b 3f d0 bd e3 e4 18 3d 2e a5 af 3c 6c f1 91 bd
       -0.1016831 0.03732766 0.021441069 -0.07126126
000360 47 4b 27 3f f3 95 a4 bd 20 ab 26 bd b3 b3 cb bc
       0.6534924 -0.08036413 -0.04069054 -0.02486596
000370 27 26 66 3b 96 56 97 bd 57 ec ae 3f 50 92 44 bd
       0.0035117955 -0.07389562 1.3665875 -0.047991097
000380 fb 8a ca 3c 0f 5f d0 bd 72 6e 84 bd 6d 8e 20 3d
       0.024724474 -0.10174381 -0.06466378 0.039198328
000390 36 dd 04 be b1 14 f4 bd 91 a9 4b bd 98 a1 e0 bc
       -0.1297501 -0.11918009 -0.049722258 -0.027420804
0003a0 b1 18 ed bd a1 cb 6c bd 3c 5a c0 bc 20 8d 8f bc
       -0.11576975 -0.057811383 -0.023480527 -0.017523348
0003b0 59 36 8b bc 7a 22 15 bc 51 a0 e5 bd 4f 02 56 3e
       -0.016993688 -0.009102458 -0.112122186 0.20899318
0003c0 f1 94 69 be 7d 33 98 bd 7d b8 01 3d 02 a9 f5 bd
       -0.22810723 -0.074316956 0.031670082 -0.11995126
0003d0 f7 54 a8 bd 2d f4 b1 3c c1 e4 63 bb 6f 80 94 bd
       -0.08219331 0.021722877 -0.00347738 -0.07251059
0003e0 d0 c8 45 bd 51 0f cf bd bf 90 cb ba 2b 77 d3 bd
       -0.048287213 -0.10110343 -0.0015530809 -0.10325464
0003f0 bd 87 5a be ac 48 e9 bd 04 9a 70 bd a3 33 06 3d
       -0.21340843 -0.11390814 -0.05874063 0.03276409

linear3.weight f4 [3, 256]
000000 d4 85 06 3c 2b 30 46 bc fa dc da bb 56 e0 6a 3d
       0.008210618 -0.012096445 -0.0066791745 0.05734285
000010 73 54 08 bb 9b c3 e9 be 71 c7 38 3d d1 7d 04 bd
       -0.0020802289 -0.45657048 0.045112077 -0.03234655
000020 61 fc 37 bc 23 45 b2 3c 7d 6e 35 bf 13 be d6 3c
       -0.011229605 0.021761483 -0.70871717 0.026213681
000030 d8 e3 01 bc d2 14 b4 bb f4 c2 1d 3b 72 14 b8 be
       -0.007927857 -0.005495646 0.00240725 -0.359531
000040 69 70 0c 3d 70 b8 07 bc 75 91 21 bd 52 38 58 3d
       0.03428689 -0.008283719 -0.03944536 0.052788086
000050 e9 35 22 bd 72 24 25 3d 2d 05 21 3e 15 99 d4 bd
       -0.039602194 0.04031796 0.1572463 -0.103807606
000060 83 fa 84 bb d0 10 8b bb 3a 06 23 3d e8 71 7b bc
       -0.0040581836 -0.0042439476 0.03980086 -0.015346982
000070 fc 11 95 3c 7a ff ac 3c bb 91 c2 3c 01 64 93 3d
       0.018197052 0.021117914 0.02375113 0.071968086
000080 99 f8 73 bc bb ec f7 be 27 3b 44 bd 50 eb 10 3d
       -0.014890813 -0.484228 -0.047907975 0.03538066
000090 22 a1 a0 bc bf ca e1 3d af 3b 1f bd fb 35 aa be
       -0.019608084 0.11024999 -0.038875278 -0.3324431
0000a0 60 be 4a 3b 0d 56 d4 3c 0e ce 4b bd 18 f6 80 3c
       0.0030936226 0.025919938 -0.049757056 0.015742347
0000b0 4a 83 36 be 65 e5 96 be f1 e0 dd 3b 17 d0 13 3d
       -0.1782352 -0.2947189 0.0067712 0.03608712
0000c0 fb 45 28 3d c5 e4 84 bc 3e d5 4f 3d 36 04 56 3c
       0.041082364 -0.016222367 0.050740473 0.013062527
0000d0 5b 38 8a 3b b4 b4 7c 3d 5f 68 f3 bc e9 dd fc 3b
       0.004218144 0.06169577 -0.029712854 0.0077168834
0000e0 94 15 d9 bc 55 26 e4 bc 22 91 c6 3c 8d ea 08 bf
       -0.026499547 -0.02785031 0.024239127 -0.53482896
0000f0 55 0c 82 3e f7 20 91 be 17 0a 81 3c 5e dc e9 bd
       0.25400034 -0.28345463 0.015751882 -0.11418985
000100 de c4 d5 3c 52 98 d6 3c 79 49 9e bb c1 a6 cd 3c
       0.02609485 0.026195679 -0.004830536 0.025103929
000110 f1 1c 0f bf 26 42 96 bd f3 df 63 3d 0f 00 37 3d
       -0.55903536 -0.073368356 0.055633496 0.04467779
000120 c0 82 e1 bb 16 4e e6 bb 6e ba 0b 3c eb 1c 0c bf
       -0.0068820417 -0.0070283515 0.008528335 -0.54731625
000130 be bc 95 be 62 90 ae bc cf 92 00 bd 22 64 00 3d
       -0.2924556 -0.021309081 -0.031390008 0.031345494
000140 40 45 80 3e 2b b2 82 3c 81 73 77 bc 0c 4b 16 bf
       0.25052834 0.015954098 -0.015103222 -0.5870826
000150 56 0b b6 3c 37 33 78 3c 9c e5 c7 bc ca f3 18 bc
       0.022222202 0.015148929 -0.024401478 -0.009335468
000160 a2 9b 41 3d a6 64 3e bc f6 0c ed 3a 42 09 bf 3d
       0.047267564 -0.011620676 0.0018085528 0.09327938
000170 e2 10 9f bd ac d1 d6 bd 6a 24 f1 3c bf 2a fe 3d
       -0.07766892 -0.104892105 0.029436309 0.12410497
000180 a2 62 03 3d 01 14 f1 ba 30 b0 05 ba 9d b1 16 bb
       0.032076485 -0.0018392802 -0.00050998013 -0.002299405
000190 22 50 87 bc 1e f9 ad 3c c2 c0 0f 3c 7f 9e 8b bb
       -0.016517702 0.021236952 0.008773984 -0.0042608376
0001a0 16 a0 50 3e ff 5b 8a 3c ef 70 77 3c a8 4f 26 bd
       0.20373568 0.01688957 0.015102609 -0.04060331
0001b0 76 60 77 bd 3c 39 a6 3d 79 a3 c7 3c f7 40 a5 bc
       -0.060394727 0.08116385 0.024369942 -0.02017258
0001c0 b8 b5 c0 3c 63 19 f9 bc 30 fe 88 bd 32 6c 6c 3d
       0.02352415 -0.030407613 -0.066891074 0.05772037
0001d0 71 27 33 bd 0f f4 b1 3c cd 91 21 be b7 d9 7e bd
       -0.043738786 0.021722822 -0.15778275 -0.062219348
0001e0 cd da 3c 3d 65 8a ac 3d 8e 39 f6 3a 6e 6e 7a 3b
       0.046107102 0.08424834 0.0018785463 0.0038212794
0001f0 5f 3b 05 3e 50 29 15 3d a0 60 4b 3d 31 22 01 bc
       0.1301093 0.03641635 0.049652696 -0.007881687
000200 47 8e 10 bb a6 0b 10 bd 2f d8 58 3d 2e e0 4a 3d
       -0.002205746 -0.03516736 0.052940544 0.0495302
000210 a6 f0 9f be bf a0 d8 bb 7e 4d 8b 3c 3e 5d 71 3e
       -0.31238288 -0.0066109593 0.017004725 0.23570725
000220 2e 25 d7 3c 23 6f 42 be 5b f5 31 3b a1 b1 07 bf
       0.026262846 -0.18987708 0.00271543 -0.53005415
000230 3d 20 b6 bc fb 70 3c 3c c2 f2 24 3d b0 0b fc 3c
       -0.02223217 0.011501546 0.040270574 0.030767292
000240 cf 9b b6 bc 21 e1 cd be 3d 2c d9 bb 54 ec 11 bc
       -0.022291092 -0.40210822 -0.006627588 -0.008906443
000250 ba 3c f9 bb eb 87 44 bc d7 6f e9 bb cb 19 9b bc
       -0.007606116 -0.011995296 -0.007123928 -0.018933197
000260 dc 58 fd bc d3 88 e2 3c bc af e5 bd c0 28 9c bc
       -0.03092616 0.027653133 -0.11215159 -0.0190624
000270 50 8f 40 bd 60 3c 11 3d 24 99 a5 3d dc 7e 07 bc
       -0.047011673 0.03545797 0.0808585 -0.008269992
000280 4c c1 66 be 58 bd d9 bc 07 27 e4 bc 05 67 12 bd
       -0.22534674 -0.026579544 -0.027850641 -0.03574278
000290 10 b0 12 be f7 93 bc 3c b1 17 fc 3c ce 70 f5 3c
       -0.14324975 0.023019774 0.030773016 0.029961016
0002a0 54 bb e5 3c 90 7d f2 bc 12 91 cc 3a 63 8b 36 3c
       0.028043427 -0.029600888 0.0015607199 0.011141631
0002b0 31 fd 49 3e 92 d1 04 bf 4a a4 29 3d 81 51 ca be
       0.19725491 -0.5188228 0.041416444 -0.39515308
0002c0 25 a1 18 3c 49 a7 cd 3d 80 fd db bc 2d d0 10 be
       0.009315764 0.10041673 -0.026854277 -0.14141913
0002d0 00 7e 45 ba 87 2b 51 bc 5b 2b d6 39 3a db e6 3c
       -0.0007533729 -0.012766725 0.00040849563 0.028180707
0002e0 e2 a2 60 3d 22 fb 22 3d fc 10 80 3e 4e 06 e8 3c
       0.054842837 0.03979028 0.25012958 0.028323319
0002f0 db d8 39 3c 4b 9c 26 3d 57 7b d7 3c 9f 35 26 3b
       0.011343206 0.040676396 0.02630393 0.002536155
000300 f0 ac b1 3c e3 0d 9c 3d 8b af b2 3c b9 11 76 bb
       0.021688908 0.07619836 0.021812221 -0.0037547185
000310 0f d8 c3 3b 56 38 f3 3c 14 7d 4d 3d 9c 9d 7f 3c
       0.005976684 0.029689949 0.050168112 0.015601542
000320 29 1d 23 3c 6e ad cd bc cf c0 8b be c2 a3 0f 3c
       0.009955683 -0.025107112 -0.2729554 0.00876707
000330 42 49 7d bd 3d 18 3e 3b a8 bc 00 bd dd e3 ee be
       -0.061837442 0.0029006146 -0.031429917 -0.4665822
000340 74 eb 8f 3d b2 21 81 3d 16 7b 13 3d 62 e3 83 3e
       0.07027331 0.06305255 0.036006056 0.25759417
000350 e4 d3 f4 bb 50 c9 8d 3c 6a 24 71 3d 37 d5 fd 3c
       -0.0074715484 0.017307907 0.058872618 0.030985458
000360 ba f9 1c 3d ad fd f3 bc c1 ae a1 bc 66 2d cd bc
       0.038324095 -0.029784048 -0.01973665 -0.025046062
000370 ce 5c a5 3b 31 39 b6 bc 92 76 67 3e c0 2a 0f 3d
       0.0050464636 -0.022244068 0.22603825 0.03495288
000380 11 6b e8 3c eb 3f 81 bd 9d 50 34 bc 3b e0 f3 3c
       0.028371366 -0.063110195 -0.011005548 0.029770007
000390 74 5b d0 3c c6 c3 bc bc 93 af 93 bc 0a 2e 74 bc
       0.025434233 -0.02304257 -0.018028056 -0.014903555
0003a0 4a 63 a8 3c 35 fa 1e bb 2e 54 ec 3c 89 fa 1a 3d
       0.020555157 -0.0024258022 0.028848734 0.037836585
0003b0 61 b1 1f 3c 8b 04 d3 bb a7 9f b3 3b 6d 55 d2 3c
       0.00974688 -0.0064397505 0.0054816785 0.0256755
0003c0 55 9a 85 bd a7 c2 e3 bb 42 a7 19 3e 52 e3 9c bc
       -0.06523577 -0.0069506946 0.1500521 -0.019151364
0003d0 d2 da 54 bd 96 e4 70 bd b0 f2 4a bd e8 dc ad 3c
       -0.051966496 -0.058811747 -0.04954785 0.0212235
0003e0 2b 8a c4 b8 a6 3b 50 3c b6 ce 15 3d 92 0a a2 bd
       -9.371744e-05 0.012709534 0.036574088 -0.079121724
0003f0 66 34 8d 3c be 83 28 3c 96 2b b2 bc c3 cb 3c 3e
       0.0172369 0.010285316 -0.021749299 0.18437104

linear3.bias f4 [3]
000000 7a c6 a2 3e 01 35 a9 3e 06 1d b5 3e
       0.3179205 0.3304825 0.35373706
