checkpoint_game_700.pth (torch, 281408 bytes, 6 tensors)

linear1.weight f4 [256, 11]
000000 29 0c 54 be 97 7a 37 3e 64 4a ff bd 35 ad 16 3e
       -0.20707764 0.17917858 -0.12465361 0.1471451
000010 12 2b b3 3d 3b bb ed 3d 44 72 45 be 09 60 28 be
       0.087484494 0.11607977 -0.1928187 -0.16442885
000020 11 3d df bd 9c 19 16 be 9d 8f 87 be e1 2e 46 3e
       -0.10900319 -0.14658207 -0.26476756 0.1935382
000030 27 a2 05 3e 10 f0 1d be dd 6e f6 bd b9 4d bc bc
       0.13050137 -0.15423608 -0.12032864 -0.02298628
000040 81 6e 7d bd 14 cd 43 be b9 3c 3d bd e9 07 82 be
       -0.061872963 -0.191212 -0.046200488 -0.2539666
000050 3a 1e 78 bc 07 ad 30 be 3f eb a8 3d 8a 78 d5 bc
       -0.015143925 -0.17253505 0.08247995 -0.026058454
000060 46 69 01 3e 73 23 d0 be 87 0e 5a 3e a0 4a ca be
       0.12637815 -0.40652046 0.21294604 -0.3951006
000070 34 9b 03 3f 81 8b 99 be bd 91 06 bf 7a 86 0f bf
       0.51408696 -0.29989246 -0.5256613 -0.5606457
000080 8e a7 90 3e ce 77 87 bd a2 e9 96 3d 26 cc 22 3e
       0.28252834 -0.06614648 0.07368781 0.15898189
000090 ac 69 46 3c f9 de 26 bd 23 a7 05 bf aa 73 b5 be
       0.012110155 -0.040739987 -0.52208155 -0.35439807
0000a0 3a e8 3a be 82 71 0f 3d 08 3f d5 be 31 29 a1 be
       -0.1825265 0.03502036 -0.41649652 -0.3147674
0000b0 ce 0e 9d 3d 49 58 4d be 36 25 8b be e1 f4 52 3c
       0.076688394 -0.2005321 -0.27176827 0.0128757665
0000c0 a9 e5 16 bd 43 f8 a1 be 12 f7 10 3f fc 84 b3 be
       -0.036840115 -0.3163472 0.56627 -0.35062397
0000d0 0b 5d cd be 16 06 3d 3e d8 5a 3a be aa ad 9d bd
       -0.4011005 0.18459353 -0.18198717 -0.076991394
0000e0 8d 2c 41 3e 0b 7c 9a be a9 ef e2 be 95 fc 18 bd
       0.18864651 -0.30172762 -0.4432347 -0.037350256
0000f0 72 35 07 bf ea 7e 99 bb 19 e9 92 be 3a 31 84 be
       -0.52815926 -0.004684319 -0.28693464 -0.25818807
000100 28 82 ad bd 8e 68 f1 be 10 7f 06 3f 5d af be be
       -0.08472091 -0.4715008 0.5253763 -0.37243167
000110 2e 9a 90 be 82 41 25 3e 8a 7a 4e be 32 fd 8d be
       -0.2824263 0.1613827 -0.20163932 -0.27732235
000120 fc 81 71 be 20 7d 3a be af 03 1f 3e 13 0b cb 3e
       -0.23584741 -0.18211794 0.15528749 0.39656886
000130 d5 7f d3 3e d5 03 64 be 55 aa 10 3d 8d 11 93 3e
       0.41308466 -0.22267087 0.03531869 0.28724328
000140 80 6a 9c be ec 0b 67 be fd 4e 49 3e a9 ea b7 3e
       -0.30550003 -0.22563142 0.19659038 0.3592122
000150 ff af 49 be ae 0e bc be ae 6e 68 3e 19 a9 03 3e
       -0.19696043 -0.3672995 0.22698471 0.12857474
000160 09 93 a4 3e 46 73 80 3d b6 04 c5 ba e3 bd c3 3e
       0.3214343 0.06271987 -0.0015031311 0.3823081
000170 2e ff 93 3e 33 56 15 bf f3 30 d7 be ba ff 17 bf
       0.28905624 -0.58334655 -0.42029533 -0.5937458
000180 b8 da 03 bf d4 43 57 3e 30 f4 b6 3e 51 b7 5b be
       -0.51505613 0.21021968 0.35733175 -0.21456648
000190 b8 46 dc 3e 42 75 14 3f dc 44 04 3e 40 0e 9c be
       0.43022704 0.5799142 0.12916893 -0.30479622
0001a0 43 84 88 be d6 cd 50 be 98 da 47 3c 20 5a 26 be
       -0.26663408 -0.2039102 0.012198113 -0.16245317
0001b0 74 c8 e8 bd 64 1b 83 be 53 5e f5 bd 83 b6 59 3d
       -0.113663584 -0.25606835 -0.119808815 0.053152572
0001c0 9d 94 84 bd b2 e9 98 be 20 37 b0 3e a8 af 42 3e
       -0.06473658 -0.29865795 0.34417057 0.1901232
0001d0 d1 6e 35 be 33 9d 1f be 3a c1 5e be 5d 60 fa 3e
       -0.17718054 -0.1558731 -0.21753398 0.48901644
0001e0 30 1a 32 be 5d a0 6e be 88 cb 0c 3f 6b 35 ab bc
       -0.17392802 -0.23303361 0.54998064 -0.020899495
0001f0 93 56 0d 3e 66 c4 16 3e bd b3 3c be a6 f1 1a bf
       0.13802557 0.14723358 -0.1842794 -0.60524976
000200 d8 ae 54 3e 10 2b a6 3e 8f ba bb be 15 04 b2 be
       0.20769823 0.3245473 -0.3666577 -0.3476874
000210 0e 40 29 be d6 0e 71 3e b0 29 07 3d be b9 53 be
       -0.16528341 0.23540816 0.03299874 -0.20676324
000220 ce 7e d9 be 0e 3f 37 be a8 9d 0e be 68 e4 aa bd
       -0.42479557 -0.17895147 -0.13927329 -0.08344346
000230 6b b1 d3 bc e8 be 6d be c4 2f 58 be 5f 7d dd 3d
       -0.025841435 -0.23217356 -0.21111971 0.10814928
000240 cc 04 7d 3e 4d ee 73 bd b8 1e 4d 3d a3 07 49 3c
       0.24708861 -0.059553433 0.050078124 0.012269887
000250 92 c1 50 be 6f 40 ee 3c ef a9 f1 37 9c 1c 03 be
       -0.20386341 0.029083459 2.880857e-05 -0.12803882
000260 17 b4 9b 3d 49 44 53 be ef 73 c3 3e 2b 3f fc 3d
       0.07602709 -0.20631517 0.38174388 0.12316736
000270 10 9a ce be 32 9c 0e 3e 2c 97 8e be 9e db a2 3e
       -0.40351915 0.13926771 -0.2784971 0.3180818
000280 99 b2 90 be e8 43 43 be 06 df 10 bf 44 d1 1c bf
       -0.2826126 -0.19068873 -0.56590307 -0.61256814
000290 b4 54 ec 3c 40 f3 d0 be d7 d9 47 bd 2e 0b 3c 3e
       0.028848983 -0.40810585 -0.048791733 0.1836364
0002a0 4b 01 e7 be d5 87 2f 3e a3 79 8a 3e e8 15 55 3e
       -0.45118174 0.1714166 0.27045926 0.20809138
0002b0 06 be 13 bf c4 f6 f6 be f5 e7 09 bf dc ce 68 3c
       -0.5771183 -0.48235142 -0.53869563 0.014209475
0002c0 43 f4 1f 3e a4 09 1c 3e 61 e2 a6 3d 9e 63 96 3d
       0.15620522 0.15238053 0.08148647 0.07343219
0002d0 2b 0a 78 3d 31 c9 6a 3e 6a 04 da be 70 2f ec be
       0.060556572 0.22928311 -0.42581493 -0.46129942
0002e0 f5 ab 9b be 24 5c 1e 3e 4d b7 08 bf 85 c5 67 3e
       -0.3040463 0.15464836 -0.53404695 0.22633941
0002f0 4f 08 e1 be 67 bd d9 3b a3 ad 76 3d 25 fa 11 bd
       -0.4395165 0.006644893 0.060224187 -0.035638947
000300 e2 c8 a5 bd 0c 1c 6e 3d 10 cb 34 3e 99 ab da be
       -0.08094956 0.058132216 0.17655587 -0.42709044
000310 03 71 fa 3d 4a ff f5 3d bf 69 86 3e a0 05 28 be
       0.122285865 0.12011583 0.26252553 -0.16408396
000320 91 7d 16 be 34 69 94 be 27 01 ea 3e 52 46 bf be
       -0.14696337 -0.28986514 0.45704004 -0.37358338
000330 e7 2c e3 be e2 f3 f9 3e 04 bd 2e be 33 7a 0b bf
       -0.44370195 0.4881888 -0.17064291 -0.54483336
000340 4d 83 df be 26 8b 72 be 1e f6 1a be 70 18 1f be
       -0.43654862 -0.23685893 -0.15132949 -0.15536666
000350 ea 35 b4 bd bc b6 d0 3c 71 36 76 3e 5a 24 fa bd
       -0.08799346 0.02547776 0.24044205 -0.12213965
000360 44 75 9c be 6c 53 d9 bd 86 2e cc bd a2 9c b6 3e
       -0.30558217 -0.106116146 -0.09969811 0.35666376
000370 31 7f 34 bd 9a 51 63 3e c1 ab 86 3d 8d 35 0d 3e
       -0.04406661 0.22199097 0.06575728 0.13789959
000380 ea 87 04 bf f6 9e a7 be c7 63 32 be 0e 50 f0 be
       -0.5176989 -0.32738465 -0.17420875 -0.46936077
000390 50 a2 cc be 2e e8 21 3d b3 42 48 bc b2 59 39 bd
       -0.39967585 0.039528064 -0.012222934 -0.045251556
0003a0 22 39 22 3f bc 14 c6 bd 5f 21 c3 3e bb a0 83 be
       0.6336843 -0.096719235 0.38111398 -0.25708565
0003b0 bb ab 99 bd f4 10 60 3e dc d6 12 be 11 1b fa 3d
       -0.07503458 0.21881467 -0.14339775 0.12212194
0003c0 f2 35 77 be d5 43 27 3e 9d 60 ba 3e e6 7c 75 be
       -0.24141672 0.1633447 0.36401835 -0.23973426
0003d0 33 d9 83 3e c7 b0 1b bf d6 80 6d be 38 d9 40 be
       0.25751647 -0.60816616 -0.23193678 -0.18832862
0003e0 02 01 47 3e 89 6f 6d 3e 48 0d e9 bd f0 2c 9e be
       0.19433978 0.23187079 -0.11379486 -0.3089366
0003f0 d5 87 be be 15 37 c4 3e 19 35 e2 3e 7b ed 02 3f
       -0.37213007 0.38323274 0.44181135 0.51143616

linear1.bias f4 [256]
000000 07 22 9d be 55 6a b0 be 1a 1b c6 3c ec f2 98 be
       -0.30690023 -0.34456125 0.024182845 -0.29872835
000010 b0 06 a1 be c6 f4 01 be 28 cb cc bd 4d 15 a9 be
       -0.31450415 -0.1269103 -0.099996865 -0.33024064
000020 51 1b f2 bc cf 30 fc bc 39 8c 7d be b2 01 c8 bc
       -0.029554041 -0.030784993 -0.24760522 -0.02441487
000030 e9 e4 13 be 91 aa f7 be ad a1 be ba c6 f8 a3 3d
       -0.14442791 -0.4837232 -0.0014544033 0.08006434
000040 42 9f cc bc 67 e4 bc bd db 02 ac be ad 8d 91 bd
       -0.024978284 -0.09223252 -0.3359593 -0.07107101
000050 00 c8 32 3d 23 c4 85 bd ea c8 ef bd 95 7d 46 be
       0.043647766 -0.06531551 -0.11708243 -0.19383843
000060 5b f2 46 bd 5b 0c ff bb 55 3c ca bc 47 94 92 bd
       -0.048570972 -0.0077834553 -0.024686972 -0.07157188
000070 bd 3c c4 be 7d 19 81 3e 5a f1 92 be 8a a6 9d bd
       -0.3832759 0.2521476 -0.28699762 -0.076977804
000080 84 fa 22 bc 60 ad bc 3e 35 b6 01 bd 94 2a 49 be
       -0.009947423 0.36851025 -0.031667907 -0.19645149
000090 1c 92 41 be 4e f7 2b 3e d4 b2 9d be b9 61 82 bd
       -0.18903393 0.16793558 -0.30800498 -0.06366295
0000a0 1f c6 6c be 3a 87 29 3c 87 45 45 3d 74 4b 38 be
       -0.23122452 0.010347182 0.04816201 -0.17997533
0000b0 b3 bd 8e be 23 b0 13 bb e7 40 85 be b9 09 1b be
       -0.27879104 -0.0022535406 -0.2602608 -0.15140428
0000c0 82 92 a2 3d b6 c7 8d be 37 46 75 bd 70 03 b6 be
       0.079381004 -0.2769143 -0.059881415 -0.35549498
0000d0 a7 94 37 bd 1c 2c a7 3d c2 7c 07 3f 4d 3c 47 3f
       -0.0448195 0.0816271 0.5292474 0.77826387
0000e0 72 6a 69 bd 90 4d 5f be 42 5d 41 3f 24 e9 6c 3b
       -0.05698628 -0.21806931 0.75532925 0.0036149705
0000f0 27 45 7a bd 07 6d 13 be 71 12 36 be 54 bd f4 3c
       -0.061101105 -0.1439706 -0.17780472 0.029875435
000100 2b 7c 38 be 26 fe c5 be 5b 94 94 be 4b c6 60 bd
       -0.18016116 -0.38670462 -0.29019436 -0.054876607
000110 ff d5 d8 bd a3 51 75 be e5 f8 53 3e 74 b7 aa 3e
       -0.105876915 -0.23956923 0.20700414 0.3334309
000120 56 75 6a 3f 76 02 9c be 07 c3 55 be 29 64 55 bd
       0.9158529 -0.30470628 -0.20875178 -0.052097473
000130 ef 60 5a be 21 d1 51 be d9 ad 68 be 49 c5 cd be
       -0.2132604 -0.20489933 -0.22722568 -0.4018958
000140 14 1a 86 3e 2f 14 96 3e 39 b3 bf bd 37 ff 34 be
       0.2619177 0.29312274 -0.09360356 -0.17675482
000150 73 39 ad 3d ed 40 a5 be a1 bd 9c 3d 2e 09 b3 be
       0.08458223 -0.32276097 0.07653356 -0.3496794
000160 31 59 b2 3e 92 c5 82 be 8b 0e 97 be d3 3d fe 3d
       0.34833673 -0.2554136 -0.29503283 0.12414136
000170 dc 05 2b 3e 27 0c 44 3c 3d ca 61 be 24 30 db be
       0.16701454 0.011965788 -0.22049804 -0.42810166
000180 50 2b be be 6c 4d 9a bd 24 33 1f be e1 09 e1 be
       -0.3714242 -0.07534298 -0.15546852 -0.4395285
000190 3b ad 30 be 58 9c de 3c df 62 02 3d a7 67 6a be
       -0.17253582 0.02717416 0.031832572 -0.22891103
0001a0 ba 9d c7 3d 97 8e 97 3e ac 53 f5 bc 9d 78 c7 bd
       0.09746881 0.29600975 -0.029947124 -0.09739802
0001b0 25 6a 3e 3d e1 94 cb be 8f 71 7f be 1f 80 03 be
       0.046487946 -0.39762023 -0.24945663 -0.12841843
0001c0 21 41 8e be 44 3f e0 bd b7 e4 e7 bc d5 79 20 3e
       -0.27784064 -0.10949567 -0.028307302 0.15671475
0001d0 9f 0d cc bc 2c 33 3c 3f 21 a2 fb bd 31 e1 aa be
       -0.024908839 0.7351558 -0.12286783 -0.33374932
0001e0 91 c2 c6 3e ec e1 25 3e 89 75 68 be db f4 f5 bd
       0.38820317 0.16199464 -0.22701086 -0.12009593
0001f0 78 60 71 bd 15 d7 6d be 60 bc f8 bd f0 05 3c bd
       -0.05892989 -0.23226579 -0.12145305 -0.0459041
000200 50 37 1f 3f 4a 80 97 be b2 d2 7e 3d 0a 16 8b bd
       0.62193775 -0.29590064 0.062212653 -0.06791313
000210 0c 50 60 bd 06 28 0a 3d 59 f3 06 be f2 8f 81 be
       -0.05476384 0.033729576 -0.13178767 -0.25305134
000220 ee 59 1d bd 0b b7 15 3e b9 81 b4 3d b1 cb 1c 3f
       -0.03841584 0.14620607 0.08813805 0.6124831
000230 cb 2d d4 3d f3 7e 1e be 46 81 e3 3c a9 b2 be be
       0.10360297 -0.15478115 0.027771603 -0.37245682
000240 1d e2 fa bc 0b e1 87 be 8e f1 a1 3f ca c0 0d be
       -0.030625397 -0.26538882 1.2651842 -0.13843074
000250 31 ea 74 be a3 38 27 3e 5c a7 bd bd bc 6d 91 3e
       -0.23917462 0.16330199 -0.09260437 0.28404033
000260 07 35 71 3d 35 0e ba bd 85 e6 30 3d 39 f1 b2 bd
       0.05888846 -0.09084741 0.04318859 -0.08737416
000270 e5 fa 62 be 84 c6 e1 bd 0b 0d 94 3d c2 50 fc 3c
       -0.22166021 -0.11024192 0.0722905 0.030800227
000280 44 c7 0d bc b8 7c 64 3e 08 54 c0 be b4 6d 9c be
       -0.008653466 0.22313201 -0.3756411 -0.30552447
000290 07 7c 0a 3e 38 5c 2a 3f 62 af a9 be 15 14 35 be
       0.13523875 0.66546965 -0.3314162 -0.17683442
0002a0 0a 0e a9 be c3 8b 0d be 64 c5 a6 bd 5c f3 b2 3e
       -0.33018523 -0.13822846 -0.08143118 0.34951293
0002b0 bd 70 75 3e dc 03 fa bb b3 8b f5 3b 4b cf 0c 3f
       0.23968787 -0.0076298546 0.00749346 0.55003804
0002c0 31 c1 70 3e 83 45 45 be 00 3f 13 be dd c0 be be
       0.23511197 -0.19264798 -0.14379501 -0.37256518
0002d0 e8 0d be 3d 0b ac 19 3f 41 5a d8 bd 7a 24 00 3d
       0.09279996 0.6002814 -0.105640896 0.031284787
0002e0 34 05 c3 be 57 36 0b 3e 55 df b6 3c b2 30 1b 3d
       -0.38089907 0.13594948 0.02232329 0.037888236
0002f0 bb ab 67 3e e5 91 c1 be 06 b9 bd bc a4 fb 88 bd
       0.22624104 -0.3780662 -0.023159515 -0.06688622
000300 88 76 7b be 12 4c bc bd ec b1 07 3d c0 31 0b 3e
       -0.24556935 -0.09194197 0.033128664 0.13593197
000310 8e 0e 26 be c9 b7 14 bf db 73 f4 3d ae e0 a4 3c
       -0.1621649 -0.58092934 0.1193616 0.020126667
000320 15 d6 3c be 0d 2e 79 be 5c 5e 67 be 0b 1c 45 bd
       -0.18441041 -0.24333973 -0.22594589 -0.048122447
000330 9f 3a e5 3d 55 c8 9a be 68 86 40 be aa be 48 bd
       0.11192822 -0.30230966 -0.18801272 -0.049009956
000340 ea 67 a3 be b6 f3 17 3e c9 8e 91 3f b1 7f ac 3e
       -0.31915218 0.14839062 1.13717 0.3369117
000350 76 38 90 be 40 74 84 3e 8a 18 25 be cd c8 98 be
       -0.28168076 0.25869942 -0.16122642 -0.298407
000360 c2 5a 50 bd e7 3c 64 be 93 41 02 bf da 70 b7 bd
       -0.050867803 -0.22288857 -0.5088131 -0.089570716
000370 22 4c 61 3d 06 3f 41 3e ae b0 8e be 6d 14 94 3e
       0.055004247 0.18871698 -0.2786917 0.28921834
000380 36 8a 57 be e6 3e 38 3e b7 b1 8c be a3 06 2f be
       -0.21048817 0.17992744 -0.27479336 -0.17092375
000390 3c 57 26 bd ed 75 37 be 91 fc 72 be 7a a5 be be
       -0.040610537 -0.17916079 -0.23729159 -0.37235624
0003a0 cb 05 85 3e ab 2f 92 be 6d 71 6e bd 61 1b bb be
       0.25980982 -0.28551993 -0.05821364 -0.36544326
0003b0 1e 8b bb bd 1d c1 70 bc 18 af 03 3b 2e bb fe 3e
       -0.09157394 -0.014694479 0.0020093378 0.49752182
0003c0 07 e1 22 be 73 41 40 be b2 f7 ae bd a9 b0 34 be
       -0.15906154 -0.18774967 -0.08543338 -0.17645516
0003d0 10 f7 26 be 80 ce 44 3e 7e 9d a5 be 9f 3b 9d be
       -0.16305184 0.19219398 -0.3234672 -0.3070955
0003e0 28 c1 af 3c 10 f7 f3 3e d5 c4 a7 3f 25 58 cc 3e
       0.021454409 0.4764943 1.3106943 0.39911
0003f0 ca 7b 75 be 57 d7 b4 be 99 3b 3f ba b2 a1 a1 be
       -0.23973003 -0.3532054 -0.00072949525 -0.31568676

linear2.weight f4 [256, 256]
000000 00 1a c0 39 40 e7 79 bb 6a ef b3 3d 47 74 5c 3b
       0.00036640465 -0.003813222 0.08785899 0.0033638643
000010 cf 6c b8 bb 29 89 31 bc 07 f7 97 3c 4a 1e 0b bd
       -0.0056282054 -0.010835924 0.018550409 -0.033964433
000020 5f 21 49 bd 2b 86 07 bd e7 81 73 bd 48 e8 3a 3c
       -0.04910409 -0.033086937 -0.059450056 0.011407919
000030 d7 ce a9 3c 56 2e 1f bc 43 06 95 b9 8f 4d 46 bd
       0.020728512 -0.009715637 -0.0002842416 -0.04841381
000040 d8 65 7b bd ab de ce bb 14 b9 1f 3d e4 22 8f 3c
       -0.061376423 -0.006313165 0.038994864 0.017472692
000050 04 90 85 bd 78 e1 81 bb 52 f6 5d bc cc 59 de bb
       -0.065216094 -0.0039636455 -0.013547497 -0.006785607
000060 18 2f 08 bd a1 5c 45 bd bd 6f 88 bd 9f c5 a8 bc
       -0.033248037 -0.04818404 -0.066619374 -0.020602046
000070 7c 5b 3e bd 12 7e 45 bd c8 bd 97 bb ef 20 94 ba
       -0.046473965 -0.048215933 -0.004630778 -0.0011301319
000080 b8 78 f0 bd e5 e5 a0 bd 69 89 6b bd 16 65 b6 bd
       -0.11741775 -0.07856349 -0.05750409 -0.08905999
000090 82 b1 9c bd b6 ea 53 bd e8 99 5f 3d 5c 02 ec bc
       -0.076510444 -0.05173751 0.054590136 -0.028809719
0000a0 83 11 a6 3c 9f 09 b1 3c f2 bf 87 3c 30 09 f0 3b
       0.020272022 0.021611033 0.016571019 0.007325314
0000b0 a6 8c ab bb ec a2 eb bc d3 3b 6d bd ce 0f 92 3d
       -0.0052352725 -0.02876421 -0.05791838 0.07131921
0000c0 ca ca b6 bc e0 30 31 bc 92 16 41 bd 7d e7 87 3c
       -0.022313494 -0.010814875 -0.047140665 0.016589874
0000d0 f2 dd 68 bd b1 bf 3c bc 34 91 81 bd 48 6e 6e bd
       -0.05685229 -0.011520312 -0.063265234 -0.05821064
0000e0 51 59 03 bd 2e c6 03 3c 8f 72 d8 bd a5 23 2c 3d
       -0.0320676 0.008042855 -0.10568725 0.04202618
0000f0 eb dc 0d 3d 00 31 2e bd 90 88 3b bc 4b 4b 94 bd
       0.034634512 -0.0425272 -0.011446133 -0.072409235
000100 27 ef 83 bd 3d b6 67 3c a0 e2 87 3c 74 ba 98 3d
       -0.06442099 0.01414257 0.016587555 0.07457438
000110 df 08 7b bd 6d ea e8 3c 4b 3f 2b ba 86 0d b9 bd
       -0.061287757 0.028432095 -0.0006532564 -0.090357825
000120 4c e4 86 bd fd 42 94 bc 97 0b 55 bd 87 25 39 bd
       -0.06586513 -0.018098349 -0.052013006 -0.045201804
000130 8e 4d a2 ba 45 c3 6a 3d d0 46 52 3d f4 bf 86 3c
       -0.0012382732 0.05731513 0.051337063 0.016448952
000140 50 4c d8 bd 37 74 1b bd a9 b1 d4 3b 31 bf 23 bd
       -0.105614305 -0.037952628 0.0064909053 -0.039977256
000150 3e f5 d3 bd 7c 04 cf bc e7 36 56 bd 40 45 9a bd
       -0.103495106 -0.025270693 -0.052298453 -0.0753274
000160 71 f3 12 bc 15 01 44 bd e9 8b 86 bc 62 5c 65 bd
       -0.008969174 -0.047852594 -0.016424136 -0.055996306
000170 df 04 ad 3a b8 a0 1e 3c 44 47 01 3d 79 f2 1f bd
       0.0013200304 0.009681873 0.031562105 -0.0390496
000180 14 94 47 3d 5b b9 fe bb 5b 22 b0 3c 08 4f b5 bd
       0.048725203 -0.007773561 0.021500757 -0.08852965
000190 b9 54 a3 bb 8a ba ce bd 68 43 87 bd a6 d8 7f bd
       -0.004984465 -0.10094173 -0.066046536 -0.06246247
0001a0 f9 48 0c bd fc df 53 bd b8 e6 1e 3d fc ae 5b bd
       -0.03424928 -0.05172728 0.03879425 -0.053633675
0001b0 cc 3f 82 bd fe 62 9f bd 0e 52 7e bc d4 85 7f bd
       -0.063598245 -0.07782553 -0.015522493 -0.062383488
0001c0 5b 2a 40 bc 20 97 29 bd eb 02 8c bd c0 2b 42 bc
       -0.011728848 -0.04140389 -0.06836494 -0.011851251
0001d0 6b 03 87 3b 42 ac d6 bd 7c 01 29 3d 0c 52 0d bd
       0.0041202805 -0.10482074 0.04126118 -0.034502074
0001e0 52 0d c0 bd 81 f2 14 bd 85 86 68 bd a1 d6 1a bd
       -0.09377541 -0.036364082 -0.056768913 -0.037802342
0001f0 9b 64 23 bc 14 18 88 bd 36 e4 53 bd 0a 5b 7a bd
       -0.009972717 -0.066452175 -0.05173131 -0.061121978
000200 1b 96 f3 bd d6 0c b8 bd c6 bf bb 3c fa 18 19 bd
       -0.11893865 -0.08986823 0.022918593 -0.037377335
000210 c2 67 93 3d e8 8c 51 3d 5b 00 97 bd f5 66 5f bc
       0.071975246 0.05115977 -0.07373115 -0.013635387
000220 e1 30 70 bc cd 69 86 3d d0 9b 14 3c ef a5 3f bd
       -0.014660091 0.06563149 0.009070352 -0.046789106
000230 6d 27 dd bc 5d 12 2e bd 8b 42 ab bc c0 6e 3f bc
       -0.026996339 -0.04249798 -0.020905754 -0.01168412
000240 61 f9 6e 3c 84 20 bb bd ca 4f 89 bc e8 1d 47 bd
       0.014585824 -0.09137061 -0.01676168 -0.048612505
000250 20 c9 81 bc 98 bf 2c bd a9 c7 b3 3c 93 57 d3 bc
       -0.015842974 -0.042174906 0.021945791 -0.025798595
000260 a2 31 17 bc f5 2f a1 3d f9 21 3b bd 50 a1 46 bd
       -0.009228142 0.07870475 -0.045686696 -0.048493683
000270 50 03 e7 bc cc 58 1d bd 47 43 a2 3c e4 66 3a bd
       -0.028199822 -0.03841476 0.019807471 -0.04550828
000280 b8 08 b1 bd d2 82 5c bd 91 6a 52 bd 1c 2c 80 bc
       -0.08644241 -0.053835697 -0.05137116 -0.015646033
000290 b6 69 13 3d 66 4b aa bd 58 ed 5c bd 7a b1 f6 bb
       0.035989486 -0.08315162 -0.053937286 -0.007528481
0002a0 60 3a 3f bc d1 91 9f bd f2 ed ce ba fa 64 82 bd
       -0.0116716325 -0.07791484 -0.0015787466 -0.06366916
0002b0 bc eb 16 3c 39 c0 3f 3d 4a 19 3b 3d 4e 91 be 3b
       0.009211477 0.046814177 0.045678414 0.0058156615
0002c0 fe db 4a 3c 22 5e 07 3d 21 24 f9 bc 8a c6 8d 3c
       0.012381552 0.033048756 -0.030412735 0.017306585
0002d0 1a 5a 54 bd b3 5a 9d bc 96 a4 f9 bd 48 46 70 3d
       -0.05184374 -0.019208288 -0.121895954 0.058660775
0002e0 2b 22 36 bc 1a 83 12 bd e9 ce 8f 3c 4c 10 ee bc
       -0.011116545 -0.03576956 0.017554717 -0.029060505
0002f0 04 2a ca 39 c0 0a eb 3a a4 ce 7c bd f5 86 61 bd
       0.00038559746 0.0017932281 -0.061720505 -0.055060346
000300 6e db 19 bd 15 ca 6a bd c1 00 5e bd d4 3c f5 3c
       -0.03756278 -0.057321627 -0.054199938 0.029936232
000310 05 08 a5 bd a9 a1 39 3d cd 00 df bd b2 63 2c 3d
       -0.0805817 0.045320187 -0.108888246 0.042087264
000320 dd a6 9c 3c b1 09 e7 bd 6c 83 7e 3d 64 b9 74 3d
       0.019122535 -0.11281145 0.062137052 0.059747115
000330 84 46 93 3a 52 96 17 bd 2e 93 1e bc ac 5a 3f bd
       0.0011236225 -0.03700859 -0.009678645 -0.04671733
000340 c9 59 44 bd ed e2 17 bd 20 48 be bd b1 81 2a bd
       -0.04793719 -0.037081648 -0.092911005 -0.04162759
000350 e2 7c 2a bd 1e 51 80 3c 17 b6 9d bd e0 88 1f 3c
       -0.041623004 0.01566368 -0.077007465 0.009737223
000360 e0 ac 05 3d 9b c2 4f 3d 95 79 cd bc 06 b4 6f 3a
       0.03263557 0.0507227 -0.025082389 0.0009143952
000370 f2 9d bf bd 4a 9f 13 3c 68 04 09 3d fb a2 2d bd
       -0.093562976 0.009010145 0.033451468 -0.04239176
000380 b1 f7 9f bc 5a 75 4b bd f6 49 39 bd 08 a6 10 bd
       -0.019527288 -0.049672462 -0.04523655 -0.03531459
000390 c5 cd 1b bd 45 01 bb bb b9 21 08 bd 22 86 a6 bd
       -0.038038034 -0.0057069384 -0.033235285 -0.081310526
0003a0 e1 83 12 bd 73 21 cb 3c 25 3d 3b bd 4b b3 07 bd
       -0.0357703 0.024796223 -0.04571261 -0.03312997
0003b0 75 7e 28 3d 6c d9 0f bd b8 d7 2e bd b4 24 8b bd
       0.041136224 -0.03511946 -0.042686194 -0.0679411
0003c0 cc 9f ec b9 2a db 97 bd 7d d3 3f bc 73 c1 8e bd
       -0.00045132486 -0.07414849 -0.011708138 -0.06970491
0003d0 00 f3 b6 3a 78 7a 52 bc 25 b9 42 bd 91 64 8a 3d
       0.0013957918 -0.012846582 -0.04753985 0.06757463
0003e0 dc 03 99 3c 0b 96 8a bd b8 36 97 bd b9 1e 8b 3c
       0.018678598 -0.067669 -0.07383484 0.016982423
0003f0 d0 ac f4 bc 6a 0d 90 bd 7d 12 1a 3d 2e 5b 3c bc
       -0.02986756 -0.070338085 0.037615288 -0.011496348

linear2.bias f4 [256]
000000 a3 45 1e b9 07 a0 a9 bc f9 ad a0 bd 56 2f 7b bd
       -0.00015093996 -0.02070619 -0.07845683 -0.06132444
000010 71 ec 0b bd 48 5b d8 3d 45 b3 b6 3c 63 a2 4b bd
       -0.034161035 0.105642855 0.02230228 -0.04971541
000020 d8 b5 46 be 40 8f 14 bd 7f 86 01 3e 29 6b 37 bd
       -0.19405305 -0.036269426 0.12648962 -0.04477993
000030 35 09 37 bd 9c de d2 bc 7e da 4f bd c2 8c d3 bd
       -0.044686515 -0.025740914 -0.05074548 -0.10329582
000040 05 84 d8 bd bc 2c 8e bd 80 af 1d 3b 35 bb 79 3b
       -0.10572056 -0.06942126 0.0024060905 0.003810597
000050 b0 88 0a be c5 d5 72 bd e5 51 53 3e f4 fd 11 be
       -0.13528705 -0.059285898 0.20636709 -0.14257032
000060 d7 a6 fb bd 10 18 02 bd 60 b5 14 3e a6 00 2f bd
       -0.122876815 -0.03176123 0.14522314 -0.042725228
000070 aa dd d2 bc 70 1a ca bd 25 be cb bd 53 af f6 3e
       -0.025740463 -0.09868324 -0.099483766 0.48180637
000080 30 ed 36 be f9 1a 1d 3d d4 27 2c bd b5 5f bc bb
       -0.17863917 0.0383558 -0.04203017 -0.005748714
000090 39 02 fd bd f9 67 d5 3d 15 a4 18 3d 65 aa 8f bd
       -0.123539396 0.10420222 0.037265856 -0.07014922
0000a0 69 26 94 bd f1 0d 05 bd 9c 79 b2 bd f3 82 9c bd
       -0.07233889 -0.032484 -0.087146014 -0.07642164
0000b0 3f 0b 22 be ab ce 85 bd bd 1d 9c bc d0 bf bf 3d
       -0.15824603 -0.065335594 -0.019057149 0.09362757
0000c0 78 4f 1c 3d 0d a5 96 bd 60 fe ff 3c 48 4a bc bd
       0.038161725 -0.073557 0.031249225 -0.091938555
0000d0 c8 22 2a bd 37 06 ce bd 12 b8 c1 bd d8 4b 2d bd
       -0.041537076 -0.10059779 -0.09458937 -0.04230866
0000e0 f0 af 72 bd dd 2e 38 bd b4 19 33 bd 8c d2 c9 3d
       -0.05924982 -0.044966567 -0.043725684 0.09854612
0000f0 c7 52 f8 3f aa f9 72 bc 09 76 87 bd 5e fd 62 bd
       1.9400262 -0.014830032 -0.0661431 -0.05541741
000100 3a e4 c1 bd 02 4b 5f 3d 5b 36 b4 3b d8 d3 af 3c
       -0.09467359 0.054514892 0.0054996437 0.02146332
000110 38 3d b4 bd c4 76 42 be 27 e4 06 bd 41 02 4e bd
       -0.08800739 -0.18990618 -0.032932427 -0.05029512
000120 72 c6 1b be 71 f7 ef bc 69 4c bd bd 1c 21 0e 3d
       -0.1521242 -0.029292794 -0.0924309 0.034699544
000130 59 5f a4 bd ac ed cf bd 7f 63 1a bd d9 24 d6 bd
       -0.080259986 -0.10152754 -0.037692543 -0.10456247
000140 a4 24 df 3f 39 ca 7b 3e 78 cd 9c 3c 45 4a 86 bc
       1.7433057 0.2458886 0.019140944 -0.016392836
000150 43 23 81 bd 60 d4 0d bd 53 5d 4d bd fb 23 33 bd
       -0.06305554 -0.034626365 -0.05013783 -0.043735486
000160 9b 47 95 bd cd 2e 83 3c 27 2a 42 bd 89 33 2b 3e
       -0.07289048 0.016013527 -0.04740348 0.16718878
000170 93 eb 1a be db 9a e1 bd 83 dd 0e be 45 b7 ae bd
       -0.15128927 -0.110158645 -0.13951688 -0.0853105
000180 7f 0c 13 bd c0 62 c5 3d 00 7e a5 bd 97 11 da bc
       -0.03590059 0.09637976 -0.08080673 -0.026619716
000190 8c 9f 1d bd ab 32 b2 bc 1b bc 94 bd 30 d2 81 bd
       -0.038482234 -0.021752676 -0.07262441 -0.06338918
0001a0 32 8b bb 3f 98 c4 61 bc 99 1e 55 bd c7 03 89 bd
       1.4651854 -0.013779782 -0.052031133 -0.066901736
0001b0 53 c0 7e 3c a2 e6 a7 bd ec d9 64 bd bf af 7c bd
       0.015548783 -0.081982866 -0.05587189 -0.061691042
0001c0 0f 37 3b 3d f5 25 e5 bc 5f d9 0f be b8 53 6e bd
       0.045706805 -0.0279722 -0.14047764 -0.05818531
0001d0 6e 50 ba bb 77 2d 9f bd 45 8d 76 bd d5 2b 35 be
       -0.0056858575 -0.077723436 -0.06019332 -0.17692502
0001e0 bc 09 22 bd 2f ed 14 bc 86 b9 b5 bd 4f 35 3b be
       -0.039560065 -0.009089752 -0.088732764 -0.18282054
0001f0 4c d7 d2 3d f3 dd c4 bd cd 3a 6c 3e ce 65 26 3c
       0.10294971 -0.09612646 0.23069306 0.010156108
000200 02 8d 7b bd fd 92 1e 3c 74 5d 47 bd 81 80 31 be
       -0.061413772 0.009678599 -0.04867311 -0.17334177
000210 f8 fe 26 be 10 7d 27 bd 11 3a 01 3e 98 42 d9 3f
       -0.163082 -0.040890753 0.12619807 1.6973448
000220 10 a9 c4 bd 83 59 e3 bd 0c 2f 94 bb e9 6a 27 3e
       -0.096025586 -0.111010574 -0.00452221 0.16349377
000230 38 40 a5 bd b9 e9 83 bd 6f 79 52 bd c9 80 73 bd
       -0.080688894 -0.064410634 -0.05138534 -0.05944899
000240 1b cf b7 bd dc 0d 74 bc ec f5 a3 bd 7a e9 9a 3c
       -0.08975049 -0.014895882 -0.0800589 0.018910158
000250 88 23 39 3b dd c6 b8 bd e2 43 9f bc 03 1c 5f be
       0.0028249938 -0.09022305 -0.019441549 -0.2178803
000260 17 40 8d bd 5a 65 9f bd 74 10 af bd 7d c8 18 bd
       -0.0689699 -0.07783003 -0.0854806 -0.037300576
000270 6e 73 98 bd 7b ae 49 bd da 2c 35 3f 82 80 d3 bc
       -0.074438915 -0.049238663 0.70771563 -0.025818113
000280 46 7a 50 be 9c 83 4d bd 93 66 34 bd d8 b4 db bd
       -0.20359144 -0.05017434 -0.044043135 -0.107278526
000290 70 d4 33 3a fa f3 d2 3c d7 9c 8b bd 5f d9 4f bd
       0.0006859964 0.025751103 -0.06817024 -0.05074441
0002a0 3f 4f e6 bd 33 fc 98 3d 79 d7 dd bd 6b 8e 5b 3e
       -0.11245584 0.07469978 -0.10832114 0.21441047
0002b0 5d b9 55 3f a9 32 9f bd 7f a7 09 bd fe e9 45 3c
       0.83485967 -0.077733345 -0.033607002 0.012079714
0002c0 48 11 af bd 33 a3 52 3e 0d 5b 9b bd c1 39 7e bd
       -0.08548218 0.20570068 -0.07585726 -0.062066797
0002d0 cd 70 46 bd 49 17 de bc 85 10 48 bd c0 1e 2d be
       -0.04844742 -0.027110713 -0.04884388 -0.16906261
0002e0 88 aa 94 bd d0 14 8c bd 98 7c f4 3f d9 10 72 bd
       -0.07259089 -0.06839907 1.9100523 -0.0590981
0002f0 70 d5 f0 bd 20 6c 90 bc 6c 62 47 3e 93 71 4e bc
       -0.1175946 -0.017629683 0.19471139 -0.01260032
000300 36 78 51 bd da e8 b6 3d 8b 23 61 3d 84 a3 66 bc
       -0.051140033 0.08931132 0.054965537 -0.014077071
000310 1d 3c 59 bd 80 d6 50 bd f7 78 89 bd 28 20 7b bd
       -0.053035844 -0.050985813 -0.06712525 -0.061309963
000320 04 a9 c8 bd 14 6c d1 bd 7b e6 a8 b9 a3 d0 54 be
       -0.09797862 -0.102256924 -0.00032215178 -0.20782714
000330 b8 a3 77 be fa 48 a5 bd d1 f4 da bc 07 51 0a bd
       -0.24183547 -0.0807056 -0.026728066 -0.03376868
000340 c3 f5 e7 bd a7 91 ab 3d 2d 31 b8 bd 06 ef 06 40
       -0.11326172 0.0837739 -0.089937545 2.1083388
000350 3b 3f d0 bd e3 e4 18 3d 2e a5 af 3c 6c f1 91 bd
       -0.1016831 0.03732766 0.021441069 -0.07126126
000360 a0 43 17 3f f3 95 a4 bd 20 ab 26 bd b3 b3 cb bc
       0.5908756 -0.08036413 -0.04069054 -0.02486596
000370 27 26 66 3b 96 56 97 bd 8d fb c9 3f 50 92 44 bd
       0.0035117955 -0.07389562 1.5779892 -0.047991097
000380 fb 8a ca 3c 0f 5f d0 bd 72 6e 84 bd 6d 8e 20 3d
       0.024724474 -0.10174381 -0.06466378 0.039198328
000390 36 dd 04 be b1 14 f4 bd b4 e2 a6 bd 98 a1 e0 bc
       -0.1297501 -0.11918009 -0.08148709 -0.027420804
0003a0 1f 7e 2b be a1 cb 6c bd 3c 5a c0 bc 66 48 29 bb
       -0.1674733 -0.057811383 -0.023480527 -0.0025830506
0003b0 62 b6 27 3c 7a 22 15 bc 51 a0 e5 bd fa e0 75 3e
       0.010236355 -0.009102458 -0.112122186 0.24011603
0003c0 f1 94 69 be 7d 33 98 bd 30 fc 74 bd 02 a9 f5 bd
       -0.22810723 -0.074316956 -0.059810817 -0.11995126
0003d0 f7 54 a8 bd dc 83 24 bc c1 e4 63 bb 6f 80 94 bd
       -0.08219331 -0.010041203 -0.00347738 -0.07251059
0003e0 d0 c8 45 bd 51 0f cf bd 08 45 79 3c 2b 77 d3 bd
       -0.048287213 -0.10110343 0.015214212 -0.10325464
0003f0 bd 87 5a be ac 48 e9 bd 04 9a 70 bd 40 f7 9c 3c
       -0.21340843 -0.11390814 -0.05874063 0.019160867

linear3.weight f4 [3, 256]
000000 d4 85 06 3c 2b 30 46 bc fa dc da bb 56 e0 6a 3d
       0.008210618 -0.012096445 -0.0066791745 0.05734285
000010 73 54 08 bb 9a 01 05 bf 71 c7 38 3d d1 7d 04 bd
       -0.0020802289 -0.5195557 0.045112077 -0.03234655
000020 d6 83 b6 3c 23 45 b2 3c 9d 74 46 bf 13 be d6 3c
       0.022279661 0.021761483 -0.7752169 0.026213681
000030 d8 e3 01 bc d2 14 b4 bb f4 c2 1d 3b 72 14 b8 be
       -0.007927857 -0.005495646 0.00240725 -0.359531
000040 69 70 0c 3d 70 b8 07 bc 75 91 21 bd 52 38 58 3d
       0.03428689 -0.008283719 -0.03944536 0.052788086
000050 e9 35 22 bd 72 24 25 3d 4e 76 0b 3e 15 99 d4 bd
       -0.039602194 0.04031796 0.13619348 -0.103807606
000060 39 77 37 bb d0 10 8b bb a6 b0 22 3e e8 71 7b bc
       -0.0027994646 -0.0042439476 0.15887699 -0.015346982
000070 fc 11 95 3c 7a ff ac 3c bb 91 c2 3c 4d 5d 31 3d
       0.018197052 0.021117914 0.02375113 0.04330187
000080 99 f8 73 bc 4f 82 0d bf 27 3b 44 bd 50 eb 10 3d
       -0.014890813 -0.5527696 -0.047907975 0.03538066
000090 22 a1 a0 bc 38 a5 dc 3d af 3b 1f bd fb 35 aa be
       -0.019608084 0.107737005 -0.038875278 -0.3324431
0000a0 60 be 4a 3b 0d 56 d4 3c 0e ce 4b bd 18 f6 80 3c
       0.0030936226 0.025919938 -0.049757056 0.015742347
0000b0 4a 83 36 be 95 f4 61 be f1 e0 dd 3b a9 b5 1e 3d
       -0.1782352 -0.22065957 0.0067712 0.038747463
0000c0 f5 95 36 3d c5 e4 84 bc 3e d5 4f 3d 36 04 56 3c
       0.044576604 -0.016222367 0.050740473 0.013062527
0000d0 5b 38 8a 3b 88 31 f5 3c 5f 68 f3 bc e9 dd fc 3b
       0.004218144 0.029930845 -0.029712854 0.0077168834
0000e0 94 15 d9 bc 55 26 e4 bc 22 91 c6 3c bb ed 01 bf
       -0.026499547 -0.02785031 0.024239127 -0.5075337
0000f0 56 40 84 3e 2c 3f c3 be 17 0a 81 3c 5e dc e9 bd
       0.25830334 -0.38134134 0.015751882 -0.11418985
000100 de c4 d5 3c 52 98 d6 3c 79 49 9e bb c1 a6 cd 3c
       0.02609485 0.026195679 -0.004830536 0.025103929
000110 fd 7d 2e bf 26 42 96 bd f3 df 63 3d 0f 00 37 3d
       -0.6816099 -0.073368356 0.055633496 0.04467779
000120 c0 82 e1 bb 16 4e e6 bb 6e ba 0b 3c 50 ee 20 bf
       -0.0068820417 -0.0070283515 0.008528335 -0.62863636
000130 be bc 95 be a4 f2 0d ba cf 92 00 bd 22 64 00 3d
       -0.2924556 -0.00054148794 -0.031390008 0.031345494
000140 bf 1d 82 3e e9 ff aa 3c 81 73 77 bc 53 35 ef be
       0.2541332 0.02087398 -0.015103222 -0.4672037
000150 56 0b b6 3c 37 33 78 3c 9c e5 c7 bc ca f3 18 bc
       0.022222202 0.015148929 -0.024401478 -0.009335468
000160 a2 9b 41 3d a6 64 3e bc f6 0c ed 3a aa ba 91 3d
       0.047267564 -0.011620676 0.0018085528 0.071156815
000170 e2 10 9f bd ac d1 d6 bd 6a 24 f1 3c bf 2a fe 3d
       -0.07766892 -0.104892105 0.029436309 0.12410497
000180 a2 62 03 3d 78 48 bd bc 30 b0 05 ba 9d b1 16 bb
       0.032076485 -0.023105845 -0.00050998013 -0.002299405
000190 22 50 87 bc 29 85 d1 3b 1e 59 bc bc 7f 9e 8b bb
       -0.016517702 0.0063940478 -0.022991713 -0.0042608376
0001a0 5a cd 4f 3e ff 5b 8a 3c ef 70 77 3c a8 4f 26 bd
       0.20293179 0.01688957 0.015102609 -0.04060331
0001b0 76 60 77 bd e0 68 99 3c 79 a3 c7 3c a2 c4 c0 bb
       -0.060394727 0.018726766 0.024369942 -0.0058828155
0001c0 c8 8d 0e 3d 63 19 f9 bc 30 fe 88 bd 32 6c 6c 3d
       0.034803182 -0.030407613 -0.066891074 0.05772037
0001d0 71 27 33 bd 0f f4 b1 3c cd 91 21 be b7 d9 7e bd
       -0.043738786 0.021722822 -0.15778275 -0.062219348
0001e0 cd da 3c 3d 65 8a ac 3d 8e 39 f6 3a 6e 6e 7a 3b
       0.046107102 0.08424834 0.0018785463 0.0038212794
0001f0 39 29 f8 3d 50 29 15 3d 07 2b 22 3d 31 22 01 bc
       0.121172376 0.03641635 0.039591815 -0.007881687
000200 47 8e 10 bb a6 0b 10 bd 2f d8 58 3d 60 8a 44 3d
       -0.002205746 -0.03516736 0.052940544 0.047983527
000210 a6 da db be bf a0 d8 bb 25 37 a4 3c 26 f1 71 3e
       -0.42940253 -0.0066109593 0.020045826 0.23627147
000220 2e 25 d7 3c 23 6f 42 be 5b f5 31 3b b5 34 1a bf
       0.026262846 -0.18987708 0.00271543 -0.60236675
000230 3d 20 b6 bc fb 70 3c 3c c2 f2 24 3d b0 0b fc 3c
       -0.02223217 0.011501546 0.040270574 0.030767292
000240 cf 9b b6 bc 9d 8e bb be 3d 2c d9 bb 54 ec 11 bc
       -0.022291092 -0.36632243 -0.006627588 -0.008906443
000250 ba 3c f9 bb eb 87 44 bc d7 6f e9 bb cb 19 9b bc
       -0.007606116 -0.011995296 -0.007123928 -0.018933197
000260 dc 58 fd bc d3 88 e2 3c bc af e5 bd c0 28 9c bc
       -0.03092616 0.027653133 -0.11215159 -0.0190624
000270 50 8f 40 bd 60 3c 11 3d 85 c8 b8 3d dc 7e 07 bc
       -0.047011673 0.03545797 0.09022621 -0.008269992
000280 4c c1 66 be 58 bd d9 bc 07 27 e4 bc 05 67 12 bd
       -0.22534674 -0.026579544 -0.027850641 -0.03574278
000290 16 ea aa bd f7 93 bc 3c b1 17 fc 3c ce 70 f5 3c
       -0.083454296 0.023019774 0.030773016 0.029961016
0002a0 54 bb e5 3c a8 99 95 bd 12 91 cc 3a 40 14 89 3b
       0.028043427 -0.07304698 0.0015607199 0.004183322
0002b0 1f 39 35 3e 7e d5 05 bf 4a a4 29 3d cd 79 e6 be
       0.17697571 -0.5227889 0.041416444 -0.45014802
0002c0 25 a1 18 3c 36 19 bd 3d 80 fd db bc a7 e3 fd bd
       0.009315764 0.09233324 -0.026854277 -0.12396937
0002d0 00 7e 45 ba 87 2b 51 bc ac 2b 2c 3c 3a db e6 3c
       -0.0007533729 -0.012766725 0.010508459 0.028180707
0002e0 e2 a2 60 3d 48 7d 03 3c d2 3b 83 3e 4e 06 e8 3c
       0.054842837 0.008025475 0.25631577 0.028323319
0002f0 db d8 39 3c 4b 9c 26 3d 57 7b d7 3c 9f 35 26 3b
       0.011343206 0.040676396 0.02630393 0.002536155
000300 f0 ac b1 3c 28 62 e4 3c 81 4b 4b 3c b9 11 76 bb
       0.021688908 0.027878836 0.012408138 -0.0037547185
000310 0f d8 c3 3b 56 38 f3 3c 14 7d 4d 3d 9c 9d 7f 3c
       0.005976684 0.029689949 0.050168112 0.015601542
000320 29 1d 23 3c 6e ad cd bc cb 8c 5d be 88 59 9f bc
       0.009955683 -0.025107112 -0.2163574 -0.019451872
000330 42 49 7d bd 3d 18 3e 3b a8 bc 00 bd 45 a7 0b bf
       -0.061837442 0.0029006146 -0.031429917 -0.5455211
000340 5e 7a 71 3d c6 01 48 3d 16 7b 13 3d 5d d9 87 3e
       0.05895459 0.048829816 0.036006056 0.26533023
000350 e4 d3 f4 bb 50 c9 8d 3c 6a 24 71 3d 37 d5 fd 3c
       -0.0074715484 0.017307907 0.058872618 0.030985458
000360 80 ce e7 3b ad fd f3 bc c1 ae a1 bc 66 2d cd bc
       0.0070741773 -0.029784048 -0.01973665 -0.025046062
000370 ce 5c a5 3b 31 39 b6 bc 64 81 68 3e c0 2a 0f 3d
       0.0050464636 -0.022244068 0.22705609 0.03495288
000380 11 6b e8 3c eb 3f 81 bd 9d 50 34 bc 3b e0 f3 3c
       0.028371366 -0.063110195 -0.011005548 0.029770007
000390 74 5b d0 3c c6 c3 bc bc 93 af 93 bc 0a 2e 74 bc
       0.025434233 -0.02304257 -0.018028056 -0.014903555
0003a0 5b 2a 36 3c 35 fa 1e bb 2e 54 ec 3c 93 d1 2b 3c
       0.011118497 -0.0024258022 0.028848734 0.010486978
0003b0 68 b1 9b bc 8b 04 d3 bb a7 9f b3 3b a2 cd f3 3c
       -0.019005492 -0.0064397505 0.0054816785 0.02976114
0003c0 55 9a 85 bd a7 c2 e3 bb 96 c8 7c 3d 52 e3 9c bc
       -0.06523577 -0.0069506946 0.06171473 -0.019151364
0003d0 d2 da 54 bd 18 72 e0 bc b0 f2 4a bd e8 dc ad 3c
       -0.051966496 -0.027398154 -0.04954785 0.0212235
0003e0 2b 8a c4 b8 a6 3b 50 3c 9e 59 17 bd 92 0a a2 bd
       -9.371744e-05 0.012709534 -0.0369507 -0.079121724
0003f0 66 34 8d 3c be 83 28 3c 96 2b b2 bc 41 d6 1e 3e
       0.0172369 0.010285316 -0.021749299 0.15511419

linear3.bias f4 [3]
000000 4a e0 b7 3e d3 43 c5 3e 56 d9 d1 3e
       0.35913306 0.38528308 0.40986127
